{"format": "graph-model", "generatedBy": "2.4.1", "convertedBy": "TensorFlow.js Converter v3.5.0", "signature": {"inputs": {"input_tensor:0": {"name": "input_tensor:0", "dtype": "DT_UINT8", "tensorShape": {"dim": [{"size": "1"}, {"size": "-1"}, {"size": "-1"}, {"size": "3"}]}}}, "outputs": {"Identity_5:0": {"name": "Identity_5:0", "dtype": "DT_FLOAT", "tensorShape": {"dim": [{"size": "1"}]}}, "Identity:0": {"name": "Identity:0", "dtype": "DT_FLOAT", "tensorShape": {"dim": [{"size": "1"}, {"size": "20"}, {"size": "4"}]}}, "Identity_2:0": {"name": "Identity_2:0", "dtype": "DT_FLOAT", "tensorShape": {"dim": [{"size": "1"}, {"size": "20"}]}}, "Identity_4:0": {"name": "Identity_4:0", "dtype": "DT_FLOAT", "tensorShape": {"dim": [{"size": "1"}, {"size": "20"}]}}, "Identity_1:0": {"name": "Identity_1:0", "dtype": "DT_FLOAT", "tensorShape": {"dim": [{"size": "1"}, {"size": "20"}, {"size": "4"}]}}, "Identity_3:0": {"name": "Identity_3:0", "dtype": "DT_FLOAT", "tensorShape": {"dim": [{"size": "1"}, {"size": "20"}, {"size": "7"}]}}}}, "modelTopology": {"node": [{"name": "StatefulPartitionedCall/mul_3/y", "op": "Const", "attr": {"value": {"tensor": {"dtype": "DT_FLOAT", "tensorShape": {}}}, "dtype": {"type": "DT_FLOAT"}}}, {"name": "StatefulPartitionedCall/map/TensorArrayV2_2/element_shape", "op": "Const", "attr": {"value": {"tensor": {"dtype": "DT_INT32", "tensorShape": {}}}, "dtype": {"type": "DT_INT32"}}}, {"name": "StatefulPartitionedCall/map/TensorArrayV2_2/num_elements", "op": "Const", "attr": {"dtype": {"type": "DT_INT32"}, "value": {"tensor": {"dtype": "DT_INT32", "tensorShape": {}}}}}, {"name": "StatefulPartitionedCall/map/TensorArrayV2Stack_1/TensorListStack/element_shape", "op": "Const", "attr": {"value": {"tensor": {"dtype": "DT_INT32", "tensorShape": {"dim": [{"size": "1"}]}}}, "dtype": {"type": "DT_INT32"}}}, {"name": "StatefulPartitionedCall/strided_slice/stack", "op": "Const", "attr": {"value": {"tensor": {"dtype": "DT_INT32", "tensorShape": {"dim": [{"size": "3"}]}}}, "dtype": {"type": "DT_INT32"}}}, {"name": "StatefulPartitionedCall/strided_slice/stack_1", "op": "Const", "attr": {"dtype": {"type": "DT_INT32"}, "value": {"tensor": {"dtype": "DT_INT32", "tensorShape": {"dim": [{"size": "3"}]}}}}}, {"name": "StatefulPartitionedCall/strided_slice/stack_2", "op": "Const", "attr": {"value": {"tensor": {"dtype": "DT_INT32", "tensorShape": {"dim": [{"size": "3"}]}}}, "dtype": {"type": "DT_INT32"}}}, {"name": "StatefulPartitionedCall/Tile_1/multiples", "op": "Const", "attr": {"value": {"tensor": {"dtype": "DT_INT32", "tensorShape": {"dim": [{"size": "3"}]}}}, "dtype": {"type": "DT_INT32"}}}, {"name": "StatefulPartitionedCall/clip_by_value_4/Minimum/y", "op": "Const", "attr": {"value": {"tensor": {"dtype": "DT_FLOAT", "tensorShape": {}}}, "dtype": {"type": "DT_FLOAT"}}}, {"name": "StatefulPartitionedCall/clip_by_value_4/y", "op": "Const", "attr": {"dtype": {"type": "DT_FLOAT"}, "value": {"tensor": {"dtype": "DT_FLOAT", "tensorShape": {}}}}}, {"name": "ConstantFolding/StatefulPartitionedCall/truediv_recip", "op": "Const", "attr": {"dtype": {"type": "DT_FLOAT"}, "value": {"tensor": {"dtype": "DT_FLOAT", "tensorShape": {}}}}}, {"name": "StatefulPartitionedCall/clip_by_value/y", "op": "Const", "attr": {"value": {"tensor": {"dtype": "DT_FLOAT", "tensorShape": {}}}, "dtype": {"type": "DT_FLOAT"}}}, {"name": "ConstantFolding/StatefulPartitionedCall/truediv_1_recip", "op": "Const", "attr": {"dtype": {"type": "DT_FLOAT"}, "value": {"tensor": {"dtype": "DT_FLOAT", "tensorShape": {}}}}}, {"name": "StatefulPartitionedCall/clip_by_value_1/y", "op": "Const", "attr": {"value": {"tensor": {"dtype": "DT_FLOAT", "tensorShape": {}}}, "dtype": {"type": "DT_FLOAT"}}}, {"name": "ConstantFolding/StatefulPartitionedCall/truediv_2_recip", "op": "Const", "attr": {"value": {"tensor": {"dtype": "DT_FLOAT", "tensorShape": {}}}, "dtype": {"type": "DT_FLOAT"}}}, {"name": "StatefulPartitionedCall/Cast_1", "op": "Const", "attr": {"value": {"tensor": {"dtype": "DT_FLOAT", "tensorShape": {}}}, "dtype": {"type": "DT_FLOAT"}}}, {"name": "StatefulPartitionedCall/clip_by_value_2/y", "op": "Const", "attr": {"value": {"tensor": {"dtype": "DT_FLOAT", "tensorShape": {}}}, "dtype": {"type": "DT_FLOAT"}}}, {"name": "StatefulPartitionedCall/box_offset_0/separable_conv2d_4/separable_conv2d/ReadVariableOp", "op": "Const", "attr": {"value": {"tensor": {"dtype": "DT_FLOAT", "tensorShape": {"dim": [{"size": "3"}, {"size": "3"}, {"size": "24"}, {"size": "1"}]}}}, "dtype": {"type": "DT_FLOAT"}}}, {"name": "StatefulPartitionedCall/box_offset_0/separable_conv2d_4/separable_conv2d/ReadVariableOp_1", "op": "Const", "attr": {"dtype": {"type": "DT_FLOAT"}, "value": {"tensor": {"dtype": "DT_FLOAT", "tensorShape": {"dim": [{"size": "1"}, {"size": "1"}, {"size": "24"}, {"size": "256"}]}}}}}, {"name": "StatefulPartitionedCall/box_offset_0/conv2d_6/Conv2D/ReadVariableOp", "op": "Const", "attr": {"value": {"tensor": {"dtype": "DT_FLOAT", "tensorShape": {"dim": [{"size": "1"}, {"size": "1"}, {"size": "256"}, {"size": "2"}]}}}, "dtype": {"type": "DT_FLOAT"}}}, {"name": "StatefulPartitionedCall/Reshape_5/shape", "op": "Const", "attr": {"dtype": {"type": "DT_INT32"}, "value": {"tensor": {"dtype": "DT_INT32", "tensorShape": {"dim": [{"size": "3"}]}}}}}, {"name": "StatefulPartitionedCall/box_scale_0/separable_conv2d_3/separable_conv2d/ReadVariableOp", "op": "Const", "attr": {"value": {"tensor": {"dtype": "DT_FLOAT", "tensorShape": {"dim": [{"size": "3"}, {"size": "3"}, {"size": "24"}, {"size": "1"}]}}}, "dtype": {"type": "DT_FLOAT"}}}, {"name": "StatefulPartitionedCall/box_scale_0/separable_conv2d_3/separable_conv2d/ReadVariableOp_1", "op": "Const", "attr": {"value": {"tensor": {"dtype": "DT_FLOAT", "tensorShape": {"dim": [{"size": "1"}, {"size": "1"}, {"size": "24"}, {"size": "256"}]}}}, "dtype": {"type": "DT_FLOAT"}}}, {"name": "StatefulPartitionedCall/box_scale_0/conv2d_5/Conv2D/ReadVariableOp", "op": "Const", "attr": {"dtype": {"type": "DT_FLOAT"}, "value": {"tensor": {"dtype": "DT_FLOAT", "tensorShape": {"dim": [{"size": "1"}, {"size": "1"}, {"size": "256"}, {"size": "2"}]}}}}}, {"name": "StatefulPartitionedCall/Reshape_1", "op": "Const", "attr": {"value": {"tensor": {"dtype": "DT_INT32", "tensorShape": {"dim": [{"size": "20"}]}}}, "dtype": {"type": "DT_INT32"}}}, {"name": "StatefulPartitionedCall/Reshape_2/shape", "op": "Const", "attr": {"dtype": {"type": "DT_INT32"}, "value": {"tensor": {"dtype": "DT_INT32", "tensorShape": {"dim": [{"size": "1"}]}}}}}, {"name": "StatefulPartitionedCall/Reshape_3/shape", "op": "Const", "attr": {"value": {"tensor": {"dtype": "DT_INT32", "tensorShape": {"dim": [{"size": "1"}]}}}, "dtype": {"type": "DT_INT32"}}}, {"name": "StatefulPartitionedCall/Reshape_4/shape", "op": "Const", "attr": {"value": {"tensor": {"dtype": "DT_INT32", "tensorShape": {"dim": [{"size": "3"}]}}}, "dtype": {"type": "DT_INT32"}}}, {"name": "StatefulPartitionedCall/Maximum/y", "op": "Const", "attr": {"value": {"tensor": {"dtype": "DT_FLOAT", "tensorShape": {}}}, "dtype": {"type": "DT_FLOAT"}}}, {"name": "ConstantFolding/StatefulPartitionedCall/truediv_3_recip", "op": "Const", "attr": {"value": {"tensor": {"dtype": "DT_FLOAT", "tensorShape": {}}}, "dtype": {"type": "DT_FLOAT"}}}, {"name": "StatefulPartitionedCall/Cast_2", "op": "Const", "attr": {"value": {"tensor": {"dtype": "DT_FLOAT", "tensorShape": {}}}, "dtype": {"type": "DT_FLOAT"}}}, {"name": "StatefulPartitionedCall/clip_by_value_3/y", "op": "Const", "attr": {"value": {"tensor": {"dtype": "DT_FLOAT", "tensorShape": {}}}, "dtype": {"type": "DT_FLOAT"}}}, {"name": "StatefulPartitionedCall/floordiv_3/y", "op": "Const", "attr": {"value": {"tensor": {"dtype": "DT_INT32", "tensorShape": {}}}, "dtype": {"type": "DT_INT32"}}}, {"name": "StatefulPartitionedCall/mul_2/y", "op": "Const", "attr": {"dtype": {"type": "DT_INT32"}, "value": {"tensor": {"dtype": "DT_INT32", "tensorShape": {}}}}}, {"name": "StatefulPartitionedCall/add_6/y", "op": "Const", "attr": {"dtype": {"type": "DT_FLOAT"}, "value": {"tensor": {"dtype": "DT_FLOAT", "tensorShape": {}}}}}, {"name": "StatefulPartitionedCall/BatchGatherND/Tile", "op": "Const", "attr": {"value": {"tensor": {"dtype": "DT_INT32", "tensorShape": {"dim": [{"size": "1"}, {"size": "20"}, {"size": "1"}]}}}, "dtype": {"type": "DT_INT32"}}}, {"name": "StatefulPartitionedCall/floordiv_2/y", "op": "Const", "attr": {"value": {"tensor": {"dtype": "DT_INT32", "tensorShape": {}}}, "dtype": {"type": "DT_INT32"}}}, {"name": "StatefulPartitionedCall/floordiv/y", "op": "Const", "attr": {"value": {"tensor": {"dtype": "DT_INT32", "tensorShape": {}}}, "dtype": {"type": "DT_INT32"}}}, {"name": "StatefulPartitionedCall/floordiv_1/y", "op": "Const", "attr": {"value": {"tensor": {"dtype": "DT_INT32", "tensorShape": {}}}, "dtype": {"type": "DT_INT32"}}}, {"name": "StatefulPartitionedCall/mul_1/y", "op": "Const", "attr": {"value": {"tensor": {"dtype": "DT_INT32", "tensorShape": {}}}, "dtype": {"type": "DT_INT32"}}}, {"name": "StatefulPartitionedCall/BatchGatherND/concat_3/axis", "op": "Const", "attr": {"dtype": {"type": "DT_INT32"}, "value": {"tensor": {"dtype": "DT_INT32", "tensorShape": {}}}}}, {"name": "StatefulPartitionedCall/center_net_mobile_net_v2fpn_feature_extractor/model_1/conv2d/Conv2D/ReadVariableOp", "op": "Const", "attr": {"value": {"tensor": {"dtype": "DT_FLOAT", "tensorShape": {"dim": [{"size": "1"}, {"size": "1"}, {"size": "1280"}, {"size": "64"}]}}}, "dtype": {"type": "DT_FLOAT"}}}, {"name": "StatefulPartitionedCall/center_net_mobile_net_v2fpn_feature_extractor/model_1/conv2d/BiasAdd/ReadVariableOp", "op": "Const", "attr": {"value": {"tensor": {"dtype": "DT_FLOAT", "tensorShape": {"dim": [{"size": "64"}]}}}, "dtype": {"type": "DT_FLOAT"}}}, {"name": "StatefulPartitionedCall/center_net_mobile_net_v2fpn_feature_extractor/model_1/up_sampling2d/mul", "op": "Const", "attr": {"value": {"tensor": {"dtype": "DT_INT32", "tensorShape": {"dim": [{"size": "2"}]}}}, "dtype": {"type": "DT_INT32"}}}, {"name": "StatefulPartitionedCall/center_net_mobile_net_v2fpn_feature_extractor/model_1/conv2d_1/Conv2D/ReadVariableOp", "op": "Const", "attr": {"value": {"tensor": {"dtype": "DT_FLOAT", "tensorShape": {"dim": [{"size": "1"}, {"size": "1"}, {"size": "64"}, {"size": "64"}]}}}, "dtype": {"type": "DT_FLOAT"}}}, {"name": "StatefulPartitionedCall/center_net_mobile_net_v2fpn_feature_extractor/model_1/conv2d_1/BiasAdd/ReadVariableOp", "op": "Const", "attr": {"value": {"tensor": {"dtype": "DT_FLOAT", "tensorShape": {"dim": [{"size": "64"}]}}}, "dtype": {"type": "DT_FLOAT"}}}, {"name": "StatefulPartitionedCall/center_net_mobile_net_v2fpn_feature_extractor/model_1/separable_conv2d/separable_conv2d/ReadVariableOp", "op": "Const", "attr": {"value": {"tensor": {"dtype": "DT_FLOAT", "tensorShape": {"dim": [{"size": "3"}, {"size": "3"}, {"size": "64"}, {"size": "1"}]}}}, "dtype": {"type": "DT_FLOAT"}}}, {"name": "StatefulPartitionedCall/center_net_mobile_net_v2fpn_feature_extractor/model_1/up_sampling2d_1/mul", "op": "Const", "attr": {"value": {"tensor": {"dtype": "DT_INT32", "tensorShape": {"dim": [{"size": "2"}]}}}, "dtype": {"type": "DT_INT32"}}}, {"name": "StatefulPartitionedCall/center_net_mobile_net_v2fpn_feature_extractor/model_1/conv2d_2/Conv2D/ReadVariableOp", "op": "Const", "attr": {"dtype": {"type": "DT_FLOAT"}, "value": {"tensor": {"dtype": "DT_FLOAT", "tensorShape": {"dim": [{"size": "1"}, {"size": "1"}, {"size": "32"}, {"size": "32"}]}}}}}, {"name": "StatefulPartitionedCall/center_net_mobile_net_v2fpn_feature_extractor/model_1/conv2d_2/BiasAdd/ReadVariableOp", "op": "Const", "attr": {"dtype": {"type": "DT_FLOAT"}, "value": {"tensor": {"dtype": "DT_FLOAT", "tensorShape": {"dim": [{"size": "32"}]}}}}}, {"name": "StatefulPartitionedCall/center_net_mobile_net_v2fpn_feature_extractor/model_1/separable_conv2d_1/separable_conv2d/ReadVariableOp", "op": "Const", "attr": {"value": {"tensor": {"dtype": "DT_FLOAT", "tensorShape": {"dim": [{"size": "3"}, {"size": "3"}, {"size": "32"}, {"size": "1"}]}}}, "dtype": {"type": "DT_FLOAT"}}}, {"name": "StatefulPartitionedCall/center_net_mobile_net_v2fpn_feature_extractor/model_1/up_sampling2d_2/mul", "op": "Const", "attr": {"dtype": {"type": "DT_INT32"}, "value": {"tensor": {"dtype": "DT_INT32", "tensorShape": {"dim": [{"size": "2"}]}}}}}, {"name": "StatefulPartitionedCall/map/TensorArrayV2_1/element_shape", "op": "Const", "attr": {"value": {"tensor": {"dtype": "DT_INT32", "tensorShape": {}}}, "dtype": {"type": "DT_INT32"}}}, {"name": "StatefulPartitionedCall/map/TensorArrayV2_1/num_elements", "op": "Const", "attr": {"dtype": {"type": "DT_INT32"}, "value": {"tensor": {"dtype": "DT_INT32", "tensorShape": {}}}}}, {"name": "StatefulPartitionedCall/map/TensorArrayUnstack/TensorListFromTensor/element_shape", "op": "Const", "attr": {"value": {"tensor": {"dtype": "DT_INT32", "tensorShape": {"dim": [{"size": "3"}]}}}, "dtype": {"type": "DT_INT32"}}}, {"name": "StatefulPartitionedCall/map/while/maximum_iterations", "op": "Const", "attr": {"value": {"tensor": {"dtype": "DT_INT32", "tensorShape": {}}}, "dtype": {"type": "DT_INT32"}}}, {"name": "StatefulPartitionedCall/map/Const", "op": "Const", "attr": {"value": {"tensor": {"dtype": "DT_INT32", "tensorShape": {}}}, "dtype": {"type": "DT_INT32"}}}, {"name": "StatefulPartitionedCall/map/while/loop_counter", "op": "Const", "attr": {"value": {"tensor": {"dtype": "DT_INT32", "tensorShape": {}}}, "dtype": {"type": "DT_INT32"}}}, {"name": "StatefulPartitionedCall/map/TensorArrayV2Stack/TensorListStack/element_shape", "op": "Const", "attr": {"value": {"tensor": {"dtype": "DT_INT32", "tensorShape": {"dim": [{"size": "3"}]}}}, "dtype": {"type": "DT_INT32"}}}, {"name": "StatefulPartitionedCall/center_net_mobile_net_v2fpn_feature_extractor/model_1/conv2d_3/Conv2D/ReadVariableOp", "op": "Const", "attr": {"value": {"tensor": {"dtype": "DT_FLOAT", "tensorShape": {"dim": [{"size": "1"}, {"size": "1"}, {"size": "24"}, {"size": "24"}]}}}, "dtype": {"type": "DT_FLOAT"}}}, {"name": "StatefulPartitionedCall/center_net_mobile_net_v2fpn_feature_extractor/model_1/conv2d_3/BiasAdd/ReadVariableOp", "op": "Const", "attr": {"value": {"tensor": {"dtype": "DT_FLOAT", "tensorShape": {"dim": [{"size": "24"}]}}}, "dtype": {"type": "DT_FLOAT"}}}, {"name": "StatefulPartitionedCall/center_net_mobile_net_v2fpn_feature_extractor/model_1/separable_conv2d_2/separable_conv2d/ReadVariableOp", "op": "Const", "attr": {"value": {"tensor": {"dtype": "DT_FLOAT", "tensorShape": {"dim": [{"size": "3"}, {"size": "3"}, {"size": "24"}, {"size": "1"}]}}}, "dtype": {"type": "DT_FLOAT"}}}, {"name": "StatefulPartitionedCall/center_0/conv2d_4/Conv2D/ReadVariableOp", "op": "Const", "attr": {"dtype": {"type": "DT_FLOAT"}, "value": {"tensor": {"dtype": "DT_FLOAT", "tensorShape": {"dim": [{"size": "1"}, {"size": "1"}, {"size": "24"}, {"size": "7"}]}}}}}, {"name": "StatefulPartitionedCall/center_0/conv2d_4/BiasAdd/ReadVariableOp", "op": "Const", "attr": {"value": {"tensor": {"dtype": "DT_FLOAT", "tensorShape": {"dim": [{"size": "7"}]}}}, "dtype": {"type": "DT_FLOAT"}}}, {"name": "StatefulPartitionedCall/Less/y", "op": "Const", "attr": {"dtype": {"type": "DT_FLOAT"}, "value": {"tensor": {"dtype": "DT_FLOAT", "tensorShape": {}}}}}, {"name": "StatefulPartitionedCall/Reshape/shape", "op": "Const", "attr": {"value": {"tensor": {"dtype": "DT_INT32", "tensorShape": {"dim": [{"size": "2"}]}}}, "dtype": {"type": "DT_INT32"}}}, {"name": "StatefulPartitionedCall/TopKV2/k", "op": "Const", "attr": {"value": {"tensor": {"dtype": "DT_INT32", "tensorShape": {}}}, "dtype": {"type": "DT_INT32"}}}, {"name": "StatefulPartitionedCall/Greater/y", "op": "Const", "attr": {"dtype": {"type": "DT_FLOAT"}, "value": {"tensor": {"dtype": "DT_FLOAT", "tensorShape": {}}}}}, {"name": "StatefulPartitionedCall/Sum/reduction_indices", "op": "Const", "attr": {"value": {"tensor": {"dtype": "DT_INT32", "tensorShape": {}}}, "dtype": {"type": "DT_INT32"}}}, {"name": "input_tensor", "op": "Placeholder", "attr": {"dtype": {"type": "DT_UINT8"}, "shape": {"shape": {"dim": [{"size": "1"}, {"size": "-1"}, {"size": "-1"}, {"size": "3"}]}}}}, {"name": "StatefulPartitionedCall/center_net_mobile_net_v2fpn_feature_extractor/model_1/model/Conv1/Conv2D_weights", "op": "Const", "attr": {"value": {"tensor": {"dtype": "DT_FLOAT", "tensorShape": {"dim": [{"size": "3"}, {"size": "3"}, {"size": "3"}, {"size": "32"}]}}}, "dtype": {"type": "DT_FLOAT"}}}, {"name": "StatefulPartitionedCall/center_net_mobile_net_v2fpn_feature_extractor/model_1/model/Conv1/Conv2D_bn_offset", "op": "Const", "attr": {"dtype": {"type": "DT_FLOAT"}, "value": {"tensor": {"dtype": "DT_FLOAT", "tensorShape": {"dim": [{"size": "32"}]}}}}}, {"name": "StatefulPartitionedCall/center_net_mobile_net_v2fpn_feature_extractor/model_1/model/expanded_conv_depthwise/depthwise_weights", "op": "Const", "attr": {"value": {"tensor": {"dtype": "DT_FLOAT", "tensorShape": {"dim": [{"size": "3"}, {"size": "3"}, {"size": "32"}, {"size": "1"}]}}}, "dtype": {"type": "DT_FLOAT"}}}, {"name": "StatefulPartitionedCall/center_net_mobile_net_v2fpn_feature_extractor/model_1/model/expanded_conv_depthwise/depthwise_bn_offset", "op": "Const", "attr": {"value": {"tensor": {"dtype": "DT_FLOAT", "tensorShape": {"dim": [{"size": "32"}]}}}, "dtype": {"type": "DT_FLOAT"}}}, {"name": "StatefulPartitionedCall/center_net_mobile_net_v2fpn_feature_extractor/model_1/model/expanded_conv_project/Conv2D_weights", "op": "Const", "attr": {"value": {"tensor": {"dtype": "DT_FLOAT", "tensorShape": {"dim": [{"size": "1"}, {"size": "1"}, {"size": "32"}, {"size": "16"}]}}}, "dtype": {"type": "DT_FLOAT"}}}, {"name": "StatefulPartitionedCall/center_net_mobile_net_v2fpn_feature_extractor/model_1/model/expanded_conv_project/Conv2D_bn_offset", "op": "Const", "attr": {"value": {"tensor": {"dtype": "DT_FLOAT", "tensorShape": {"dim": [{"size": "16"}]}}}, "dtype": {"type": "DT_FLOAT"}}}, {"name": "StatefulPartitionedCall/center_net_mobile_net_v2fpn_feature_extractor/model_1/model/block_1_expand/Conv2D_weights", "op": "Const", "attr": {"value": {"tensor": {"dtype": "DT_FLOAT", "tensorShape": {"dim": [{"size": "1"}, {"size": "1"}, {"size": "16"}, {"size": "96"}]}}}, "dtype": {"type": "DT_FLOAT"}}}, {"name": "StatefulPartitionedCall/center_net_mobile_net_v2fpn_feature_extractor/model_1/model/block_1_expand/Conv2D_bn_offset", "op": "Const", "attr": {"value": {"tensor": {"dtype": "DT_FLOAT", "tensorShape": {"dim": [{"size": "96"}]}}}, "dtype": {"type": "DT_FLOAT"}}}, {"name": "StatefulPartitionedCall/center_net_mobile_net_v2fpn_feature_extractor/model_1/model/block_1_depthwise/depthwise_weights", "op": "Const", "attr": {"value": {"tensor": {"dtype": "DT_FLOAT", "tensorShape": {"dim": [{"size": "3"}, {"size": "3"}, {"size": "96"}, {"size": "1"}]}}}, "dtype": {"type": "DT_FLOAT"}}}, {"name": "StatefulPartitionedCall/center_net_mobile_net_v2fpn_feature_extractor/model_1/model/block_1_depthwise/depthwise_bn_offset", "op": "Const", "attr": {"value": {"tensor": {"dtype": "DT_FLOAT", "tensorShape": {"dim": [{"size": "96"}]}}}, "dtype": {"type": "DT_FLOAT"}}}, {"name": "StatefulPartitionedCall/center_net_mobile_net_v2fpn_feature_extractor/model_1/model/block_1_project/Conv2D_weights", "op": "Const", "attr": {"value": {"tensor": {"dtype": "DT_FLOAT", "tensorShape": {"dim": [{"size": "1"}, {"size": "1"}, {"size": "96"}, {"size": "24"}]}}}, "dtype": {"type": "DT_FLOAT"}}}, {"name": "StatefulPartitionedCall/center_net_mobile_net_v2fpn_feature_extractor/model_1/model/block_1_project/Conv2D_bn_offset", "op": "Const", "attr": {"value": {"tensor": {"dtype": "DT_FLOAT", "tensorShape": {"dim": [{"size": "24"}]}}}, "dtype": {"type": "DT_FLOAT"}}}, {"name": "StatefulPartitionedCall/center_net_mobile_net_v2fpn_feature_extractor/model_1/model/block_2_expand/Conv2D_weights", "op": "Const", "attr": {"value": {"tensor": {"dtype": "DT_FLOAT", "tensorShape": {"dim": [{"size": "1"}, {"size": "1"}, {"size": "24"}, {"size": "144"}]}}}, "dtype": {"type": "DT_FLOAT"}}}, {"name": "StatefulPartitionedCall/center_net_mobile_net_v2fpn_feature_extractor/model_1/model/block_2_expand/Conv2D_bn_offset", "op": "Const", "attr": {"dtype": {"type": "DT_FLOAT"}, "value": {"tensor": {"dtype": "DT_FLOAT", "tensorShape": {"dim": [{"size": "144"}]}}}}}, {"name": "StatefulPartitionedCall/center_net_mobile_net_v2fpn_feature_extractor/model_1/model/block_2_depthwise/depthwise_weights", "op": "Const", "attr": {"value": {"tensor": {"dtype": "DT_FLOAT", "tensorShape": {"dim": [{"size": "3"}, {"size": "3"}, {"size": "144"}, {"size": "1"}]}}}, "dtype": {"type": "DT_FLOAT"}}}, {"name": "StatefulPartitionedCall/center_net_mobile_net_v2fpn_feature_extractor/model_1/model/block_2_depthwise/depthwise_bn_offset", "op": "Const", "attr": {"dtype": {"type": "DT_FLOAT"}, "value": {"tensor": {"dtype": "DT_FLOAT", "tensorShape": {"dim": [{"size": "144"}]}}}}}, {"name": "StatefulPartitionedCall/center_net_mobile_net_v2fpn_feature_extractor/model_1/model/block_2_project/Conv2D_weights", "op": "Const", "attr": {"dtype": {"type": "DT_FLOAT"}, "value": {"tensor": {"dtype": "DT_FLOAT", "tensorShape": {"dim": [{"size": "1"}, {"size": "1"}, {"size": "144"}, {"size": "24"}]}}}}}, {"name": "StatefulPartitionedCall/center_net_mobile_net_v2fpn_feature_extractor/model_1/model/block_2_project/Conv2D_bn_offset", "op": "Const", "attr": {"value": {"tensor": {"dtype": "DT_FLOAT", "tensorShape": {"dim": [{"size": "24"}]}}}, "dtype": {"type": "DT_FLOAT"}}}, {"name": "StatefulPartitionedCall/center_net_mobile_net_v2fpn_feature_extractor/model_1/model/block_3_expand/Conv2D_weights", "op": "Const", "attr": {"value": {"tensor": {"dtype": "DT_FLOAT", "tensorShape": {"dim": [{"size": "1"}, {"size": "1"}, {"size": "24"}, {"size": "144"}]}}}, "dtype": {"type": "DT_FLOAT"}}}, {"name": "StatefulPartitionedCall/center_net_mobile_net_v2fpn_feature_extractor/model_1/model/block_3_expand/Conv2D_bn_offset", "op": "Const", "attr": {"value": {"tensor": {"dtype": "DT_FLOAT", "tensorShape": {"dim": [{"size": "144"}]}}}, "dtype": {"type": "DT_FLOAT"}}}, {"name": "StatefulPartitionedCall/center_net_mobile_net_v2fpn_feature_extractor/model_1/model/block_3_depthwise/depthwise_weights", "op": "Const", "attr": {"value": {"tensor": {"dtype": "DT_FLOAT", "tensorShape": {"dim": [{"size": "3"}, {"size": "3"}, {"size": "144"}, {"size": "1"}]}}}, "dtype": {"type": "DT_FLOAT"}}}, {"name": "StatefulPartitionedCall/center_net_mobile_net_v2fpn_feature_extractor/model_1/model/block_3_depthwise/depthwise_bn_offset", "op": "Const", "attr": {"value": {"tensor": {"dtype": "DT_FLOAT", "tensorShape": {"dim": [{"size": "144"}]}}}, "dtype": {"type": "DT_FLOAT"}}}, {"name": "StatefulPartitionedCall/center_net_mobile_net_v2fpn_feature_extractor/model_1/model/block_3_project/Conv2D_weights", "op": "Const", "attr": {"value": {"tensor": {"dtype": "DT_FLOAT", "tensorShape": {"dim": [{"size": "1"}, {"size": "1"}, {"size": "144"}, {"size": "32"}]}}}, "dtype": {"type": "DT_FLOAT"}}}, {"name": "StatefulPartitionedCall/center_net_mobile_net_v2fpn_feature_extractor/model_1/model/block_3_project/Conv2D_bn_offset", "op": "Const", "attr": {"value": {"tensor": {"dtype": "DT_FLOAT", "tensorShape": {"dim": [{"size": "32"}]}}}, "dtype": {"type": "DT_FLOAT"}}}, {"name": "StatefulPartitionedCall/center_net_mobile_net_v2fpn_feature_extractor/model_1/model/block_4_expand/Conv2D_weights", "op": "Const", "attr": {"value": {"tensor": {"dtype": "DT_FLOAT", "tensorShape": {"dim": [{"size": "1"}, {"size": "1"}, {"size": "32"}, {"size": "192"}]}}}, "dtype": {"type": "DT_FLOAT"}}}, {"name": "StatefulPartitionedCall/center_net_mobile_net_v2fpn_feature_extractor/model_1/model/block_4_expand/Conv2D_bn_offset", "op": "Const", "attr": {"dtype": {"type": "DT_FLOAT"}, "value": {"tensor": {"dtype": "DT_FLOAT", "tensorShape": {"dim": [{"size": "192"}]}}}}}, {"name": "StatefulPartitionedCall/center_net_mobile_net_v2fpn_feature_extractor/model_1/model/block_4_depthwise/depthwise_weights", "op": "Const", "attr": {"dtype": {"type": "DT_FLOAT"}, "value": {"tensor": {"dtype": "DT_FLOAT", "tensorShape": {"dim": [{"size": "3"}, {"size": "3"}, {"size": "192"}, {"size": "1"}]}}}}}, {"name": "StatefulPartitionedCall/center_net_mobile_net_v2fpn_feature_extractor/model_1/model/block_4_depthwise/depthwise_bn_offset", "op": "Const", "attr": {"value": {"tensor": {"dtype": "DT_FLOAT", "tensorShape": {"dim": [{"size": "192"}]}}}, "dtype": {"type": "DT_FLOAT"}}}, {"name": "StatefulPartitionedCall/center_net_mobile_net_v2fpn_feature_extractor/model_1/model/block_4_project/Conv2D_weights", "op": "Const", "attr": {"value": {"tensor": {"dtype": "DT_FLOAT", "tensorShape": {"dim": [{"size": "1"}, {"size": "1"}, {"size": "192"}, {"size": "32"}]}}}, "dtype": {"type": "DT_FLOAT"}}}, {"name": "StatefulPartitionedCall/center_net_mobile_net_v2fpn_feature_extractor/model_1/model/block_4_project/Conv2D_bn_offset", "op": "Const", "attr": {"dtype": {"type": "DT_FLOAT"}, "value": {"tensor": {"dtype": "DT_FLOAT", "tensorShape": {"dim": [{"size": "32"}]}}}}}, {"name": "StatefulPartitionedCall/center_net_mobile_net_v2fpn_feature_extractor/model_1/model/block_5_expand/Conv2D_weights", "op": "Const", "attr": {"value": {"tensor": {"dtype": "DT_FLOAT", "tensorShape": {"dim": [{"size": "1"}, {"size": "1"}, {"size": "32"}, {"size": "192"}]}}}, "dtype": {"type": "DT_FLOAT"}}}, {"name": "StatefulPartitionedCall/center_net_mobile_net_v2fpn_feature_extractor/model_1/model/block_5_expand/Conv2D_bn_offset", "op": "Const", "attr": {"dtype": {"type": "DT_FLOAT"}, "value": {"tensor": {"dtype": "DT_FLOAT", "tensorShape": {"dim": [{"size": "192"}]}}}}}, {"name": "StatefulPartitionedCall/center_net_mobile_net_v2fpn_feature_extractor/model_1/model/block_5_depthwise/depthwise_weights", "op": "Const", "attr": {"value": {"tensor": {"dtype": "DT_FLOAT", "tensorShape": {"dim": [{"size": "3"}, {"size": "3"}, {"size": "192"}, {"size": "1"}]}}}, "dtype": {"type": "DT_FLOAT"}}}, {"name": "StatefulPartitionedCall/center_net_mobile_net_v2fpn_feature_extractor/model_1/model/block_5_depthwise/depthwise_bn_offset", "op": "Const", "attr": {"value": {"tensor": {"dtype": "DT_FLOAT", "tensorShape": {"dim": [{"size": "192"}]}}}, "dtype": {"type": "DT_FLOAT"}}}, {"name": "StatefulPartitionedCall/center_net_mobile_net_v2fpn_feature_extractor/model_1/model/block_5_project/Conv2D_weights", "op": "Const", "attr": {"value": {"tensor": {"dtype": "DT_FLOAT", "tensorShape": {"dim": [{"size": "1"}, {"size": "1"}, {"size": "192"}, {"size": "32"}]}}}, "dtype": {"type": "DT_FLOAT"}}}, {"name": "StatefulPartitionedCall/center_net_mobile_net_v2fpn_feature_extractor/model_1/model/block_5_project/Conv2D_bn_offset", "op": "Const", "attr": {"value": {"tensor": {"dtype": "DT_FLOAT", "tensorShape": {"dim": [{"size": "32"}]}}}, "dtype": {"type": "DT_FLOAT"}}}, {"name": "StatefulPartitionedCall/center_net_mobile_net_v2fpn_feature_extractor/model_1/model/block_6_expand/Conv2D_weights", "op": "Const", "attr": {"value": {"tensor": {"dtype": "DT_FLOAT", "tensorShape": {"dim": [{"size": "1"}, {"size": "1"}, {"size": "32"}, {"size": "192"}]}}}, "dtype": {"type": "DT_FLOAT"}}}, {"name": "StatefulPartitionedCall/center_net_mobile_net_v2fpn_feature_extractor/model_1/model/block_6_expand/Conv2D_bn_offset", "op": "Const", "attr": {"value": {"tensor": {"dtype": "DT_FLOAT", "tensorShape": {"dim": [{"size": "192"}]}}}, "dtype": {"type": "DT_FLOAT"}}}, {"name": "StatefulPartitionedCall/center_net_mobile_net_v2fpn_feature_extractor/model_1/model/block_6_depthwise/depthwise_weights", "op": "Const", "attr": {"value": {"tensor": {"dtype": "DT_FLOAT", "tensorShape": {"dim": [{"size": "3"}, {"size": "3"}, {"size": "192"}, {"size": "1"}]}}}, "dtype": {"type": "DT_FLOAT"}}}, {"name": "StatefulPartitionedCall/center_net_mobile_net_v2fpn_feature_extractor/model_1/model/block_6_depthwise/depthwise_bn_offset", "op": "Const", "attr": {"dtype": {"type": "DT_FLOAT"}, "value": {"tensor": {"dtype": "DT_FLOAT", "tensorShape": {"dim": [{"size": "192"}]}}}}}, {"name": "StatefulPartitionedCall/center_net_mobile_net_v2fpn_feature_extractor/model_1/model/block_6_project/Conv2D_weights", "op": "Const", "attr": {"value": {"tensor": {"dtype": "DT_FLOAT", "tensorShape": {"dim": [{"size": "1"}, {"size": "1"}, {"size": "192"}, {"size": "64"}]}}}, "dtype": {"type": "DT_FLOAT"}}}, {"name": "StatefulPartitionedCall/center_net_mobile_net_v2fpn_feature_extractor/model_1/model/block_6_project/Conv2D_bn_offset", "op": "Const", "attr": {"value": {"tensor": {"dtype": "DT_FLOAT", "tensorShape": {"dim": [{"size": "64"}]}}}, "dtype": {"type": "DT_FLOAT"}}}, {"name": "StatefulPartitionedCall/center_net_mobile_net_v2fpn_feature_extractor/model_1/model/block_7_expand/Conv2D_weights", "op": "Const", "attr": {"value": {"tensor": {"dtype": "DT_FLOAT", "tensorShape": {"dim": [{"size": "1"}, {"size": "1"}, {"size": "64"}, {"size": "384"}]}}}, "dtype": {"type": "DT_FLOAT"}}}, {"name": "StatefulPartitionedCall/center_net_mobile_net_v2fpn_feature_extractor/model_1/model/block_7_expand/Conv2D_bn_offset", "op": "Const", "attr": {"value": {"tensor": {"dtype": "DT_FLOAT", "tensorShape": {"dim": [{"size": "384"}]}}}, "dtype": {"type": "DT_FLOAT"}}}, {"name": "StatefulPartitionedCall/center_net_mobile_net_v2fpn_feature_extractor/model_1/model/block_7_depthwise/depthwise_weights", "op": "Const", "attr": {"value": {"tensor": {"dtype": "DT_FLOAT", "tensorShape": {"dim": [{"size": "3"}, {"size": "3"}, {"size": "384"}, {"size": "1"}]}}}, "dtype": {"type": "DT_FLOAT"}}}, {"name": "StatefulPartitionedCall/center_net_mobile_net_v2fpn_feature_extractor/model_1/model/block_7_depthwise/depthwise_bn_offset", "op": "Const", "attr": {"value": {"tensor": {"dtype": "DT_FLOAT", "tensorShape": {"dim": [{"size": "384"}]}}}, "dtype": {"type": "DT_FLOAT"}}}, {"name": "StatefulPartitionedCall/center_net_mobile_net_v2fpn_feature_extractor/model_1/model/block_7_project/Conv2D_weights", "op": "Const", "attr": {"dtype": {"type": "DT_FLOAT"}, "value": {"tensor": {"dtype": "DT_FLOAT", "tensorShape": {"dim": [{"size": "1"}, {"size": "1"}, {"size": "384"}, {"size": "64"}]}}}}}, {"name": "StatefulPartitionedCall/center_net_mobile_net_v2fpn_feature_extractor/model_1/model/block_7_project/Conv2D_bn_offset", "op": "Const", "attr": {"value": {"tensor": {"dtype": "DT_FLOAT", "tensorShape": {"dim": [{"size": "64"}]}}}, "dtype": {"type": "DT_FLOAT"}}}, {"name": "StatefulPartitionedCall/center_net_mobile_net_v2fpn_feature_extractor/model_1/model/block_8_expand/Conv2D_weights", "op": "Const", "attr": {"dtype": {"type": "DT_FLOAT"}, "value": {"tensor": {"dtype": "DT_FLOAT", "tensorShape": {"dim": [{"size": "1"}, {"size": "1"}, {"size": "64"}, {"size": "384"}]}}}}}, {"name": "StatefulPartitionedCall/center_net_mobile_net_v2fpn_feature_extractor/model_1/model/block_8_expand/Conv2D_bn_offset", "op": "Const", "attr": {"value": {"tensor": {"dtype": "DT_FLOAT", "tensorShape": {"dim": [{"size": "384"}]}}}, "dtype": {"type": "DT_FLOAT"}}}, {"name": "StatefulPartitionedCall/center_net_mobile_net_v2fpn_feature_extractor/model_1/model/block_8_depthwise/depthwise_weights", "op": "Const", "attr": {"value": {"tensor": {"dtype": "DT_FLOAT", "tensorShape": {"dim": [{"size": "3"}, {"size": "3"}, {"size": "384"}, {"size": "1"}]}}}, "dtype": {"type": "DT_FLOAT"}}}, {"name": "StatefulPartitionedCall/center_net_mobile_net_v2fpn_feature_extractor/model_1/model/block_8_depthwise/depthwise_bn_offset", "op": "Const", "attr": {"value": {"tensor": {"dtype": "DT_FLOAT", "tensorShape": {"dim": [{"size": "384"}]}}}, "dtype": {"type": "DT_FLOAT"}}}, {"name": "StatefulPartitionedCall/center_net_mobile_net_v2fpn_feature_extractor/model_1/model/block_8_project/Conv2D_weights", "op": "Const", "attr": {"value": {"tensor": {"dtype": "DT_FLOAT", "tensorShape": {"dim": [{"size": "1"}, {"size": "1"}, {"size": "384"}, {"size": "64"}]}}}, "dtype": {"type": "DT_FLOAT"}}}, {"name": "StatefulPartitionedCall/center_net_mobile_net_v2fpn_feature_extractor/model_1/model/block_8_project/Conv2D_bn_offset", "op": "Const", "attr": {"dtype": {"type": "DT_FLOAT"}, "value": {"tensor": {"dtype": "DT_FLOAT", "tensorShape": {"dim": [{"size": "64"}]}}}}}, {"name": "StatefulPartitionedCall/center_net_mobile_net_v2fpn_feature_extractor/model_1/model/block_9_expand/Conv2D_weights", "op": "Const", "attr": {"value": {"tensor": {"dtype": "DT_FLOAT", "tensorShape": {"dim": [{"size": "1"}, {"size": "1"}, {"size": "64"}, {"size": "384"}]}}}, "dtype": {"type": "DT_FLOAT"}}}, {"name": "StatefulPartitionedCall/center_net_mobile_net_v2fpn_feature_extractor/model_1/model/block_9_expand/Conv2D_bn_offset", "op": "Const", "attr": {"value": {"tensor": {"dtype": "DT_FLOAT", "tensorShape": {"dim": [{"size": "384"}]}}}, "dtype": {"type": "DT_FLOAT"}}}, {"name": "StatefulPartitionedCall/center_net_mobile_net_v2fpn_feature_extractor/model_1/model/block_9_depthwise/depthwise_weights", "op": "Const", "attr": {"dtype": {"type": "DT_FLOAT"}, "value": {"tensor": {"dtype": "DT_FLOAT", "tensorShape": {"dim": [{"size": "3"}, {"size": "3"}, {"size": "384"}, {"size": "1"}]}}}}}, {"name": "StatefulPartitionedCall/center_net_mobile_net_v2fpn_feature_extractor/model_1/model/block_9_depthwise/depthwise_bn_offset", "op": "Const", "attr": {"value": {"tensor": {"dtype": "DT_FLOAT", "tensorShape": {"dim": [{"size": "384"}]}}}, "dtype": {"type": "DT_FLOAT"}}}, {"name": "StatefulPartitionedCall/center_net_mobile_net_v2fpn_feature_extractor/model_1/model/block_9_project/Conv2D_weights", "op": "Const", "attr": {"value": {"tensor": {"dtype": "DT_FLOAT", "tensorShape": {"dim": [{"size": "1"}, {"size": "1"}, {"size": "384"}, {"size": "64"}]}}}, "dtype": {"type": "DT_FLOAT"}}}, {"name": "StatefulPartitionedCall/center_net_mobile_net_v2fpn_feature_extractor/model_1/model/block_9_project/Conv2D_bn_offset", "op": "Const", "attr": {"dtype": {"type": "DT_FLOAT"}, "value": {"tensor": {"dtype": "DT_FLOAT", "tensorShape": {"dim": [{"size": "64"}]}}}}}, {"name": "StatefulPartitionedCall/center_net_mobile_net_v2fpn_feature_extractor/model_1/model/block_10_expand/Conv2D_weights", "op": "Const", "attr": {"dtype": {"type": "DT_FLOAT"}, "value": {"tensor": {"dtype": "DT_FLOAT", "tensorShape": {"dim": [{"size": "1"}, {"size": "1"}, {"size": "64"}, {"size": "384"}]}}}}}, {"name": "StatefulPartitionedCall/center_net_mobile_net_v2fpn_feature_extractor/model_1/model/block_10_expand/Conv2D_bn_offset", "op": "Const", "attr": {"value": {"tensor": {"dtype": "DT_FLOAT", "tensorShape": {"dim": [{"size": "384"}]}}}, "dtype": {"type": "DT_FLOAT"}}}, {"name": "StatefulPartitionedCall/center_net_mobile_net_v2fpn_feature_extractor/model_1/model/block_10_depthwise/depthwise_weights", "op": "Const", "attr": {"dtype": {"type": "DT_FLOAT"}, "value": {"tensor": {"dtype": "DT_FLOAT", "tensorShape": {"dim": [{"size": "3"}, {"size": "3"}, {"size": "384"}, {"size": "1"}]}}}}}, {"name": "StatefulPartitionedCall/center_net_mobile_net_v2fpn_feature_extractor/model_1/model/block_10_depthwise/depthwise_bn_offset", "op": "Const", "attr": {"dtype": {"type": "DT_FLOAT"}, "value": {"tensor": {"dtype": "DT_FLOAT", "tensorShape": {"dim": [{"size": "384"}]}}}}}, {"name": "StatefulPartitionedCall/center_net_mobile_net_v2fpn_feature_extractor/model_1/model/block_10_project/Conv2D_weights", "op": "Const", "attr": {"value": {"tensor": {"dtype": "DT_FLOAT", "tensorShape": {"dim": [{"size": "1"}, {"size": "1"}, {"size": "384"}, {"size": "96"}]}}}, "dtype": {"type": "DT_FLOAT"}}}, {"name": "StatefulPartitionedCall/center_net_mobile_net_v2fpn_feature_extractor/model_1/model/block_10_project/Conv2D_bn_offset", "op": "Const", "attr": {"value": {"tensor": {"dtype": "DT_FLOAT", "tensorShape": {"dim": [{"size": "96"}]}}}, "dtype": {"type": "DT_FLOAT"}}}, {"name": "StatefulPartitionedCall/center_net_mobile_net_v2fpn_feature_extractor/model_1/model/block_11_expand/Conv2D_weights", "op": "Const", "attr": {"value": {"tensor": {"dtype": "DT_FLOAT", "tensorShape": {"dim": [{"size": "1"}, {"size": "1"}, {"size": "96"}, {"size": "576"}]}}}, "dtype": {"type": "DT_FLOAT"}}}, {"name": "StatefulPartitionedCall/center_net_mobile_net_v2fpn_feature_extractor/model_1/model/block_11_expand/Conv2D_bn_offset", "op": "Const", "attr": {"dtype": {"type": "DT_FLOAT"}, "value": {"tensor": {"dtype": "DT_FLOAT", "tensorShape": {"dim": [{"size": "576"}]}}}}}, {"name": "StatefulPartitionedCall/center_net_mobile_net_v2fpn_feature_extractor/model_1/model/block_11_depthwise/depthwise_weights", "op": "Const", "attr": {"value": {"tensor": {"dtype": "DT_FLOAT", "tensorShape": {"dim": [{"size": "3"}, {"size": "3"}, {"size": "576"}, {"size": "1"}]}}}, "dtype": {"type": "DT_FLOAT"}}}, {"name": "StatefulPartitionedCall/center_net_mobile_net_v2fpn_feature_extractor/model_1/model/block_11_depthwise/depthwise_bn_offset", "op": "Const", "attr": {"value": {"tensor": {"dtype": "DT_FLOAT", "tensorShape": {"dim": [{"size": "576"}]}}}, "dtype": {"type": "DT_FLOAT"}}}, {"name": "StatefulPartitionedCall/center_net_mobile_net_v2fpn_feature_extractor/model_1/model/block_11_project/Conv2D_weights", "op": "Const", "attr": {"value": {"tensor": {"dtype": "DT_FLOAT", "tensorShape": {"dim": [{"size": "1"}, {"size": "1"}, {"size": "576"}, {"size": "96"}]}}}, "dtype": {"type": "DT_FLOAT"}}}, {"name": "StatefulPartitionedCall/center_net_mobile_net_v2fpn_feature_extractor/model_1/model/block_11_project/Conv2D_bn_offset", "op": "Const", "attr": {"value": {"tensor": {"dtype": "DT_FLOAT", "tensorShape": {"dim": [{"size": "96"}]}}}, "dtype": {"type": "DT_FLOAT"}}}, {"name": "StatefulPartitionedCall/center_net_mobile_net_v2fpn_feature_extractor/model_1/model/block_12_expand/Conv2D_weights", "op": "Const", "attr": {"value": {"tensor": {"dtype": "DT_FLOAT", "tensorShape": {"dim": [{"size": "1"}, {"size": "1"}, {"size": "96"}, {"size": "576"}]}}}, "dtype": {"type": "DT_FLOAT"}}}, {"name": "StatefulPartitionedCall/center_net_mobile_net_v2fpn_feature_extractor/model_1/model/block_12_expand/Conv2D_bn_offset", "op": "Const", "attr": {"value": {"tensor": {"dtype": "DT_FLOAT", "tensorShape": {"dim": [{"size": "576"}]}}}, "dtype": {"type": "DT_FLOAT"}}}, {"name": "StatefulPartitionedCall/center_net_mobile_net_v2fpn_feature_extractor/model_1/model/block_12_depthwise/depthwise_weights", "op": "Const", "attr": {"dtype": {"type": "DT_FLOAT"}, "value": {"tensor": {"dtype": "DT_FLOAT", "tensorShape": {"dim": [{"size": "3"}, {"size": "3"}, {"size": "576"}, {"size": "1"}]}}}}}, {"name": "StatefulPartitionedCall/center_net_mobile_net_v2fpn_feature_extractor/model_1/model/block_12_depthwise/depthwise_bn_offset", "op": "Const", "attr": {"value": {"tensor": {"dtype": "DT_FLOAT", "tensorShape": {"dim": [{"size": "576"}]}}}, "dtype": {"type": "DT_FLOAT"}}}, {"name": "StatefulPartitionedCall/center_net_mobile_net_v2fpn_feature_extractor/model_1/model/block_12_project/Conv2D_weights", "op": "Const", "attr": {"value": {"tensor": {"dtype": "DT_FLOAT", "tensorShape": {"dim": [{"size": "1"}, {"size": "1"}, {"size": "576"}, {"size": "96"}]}}}, "dtype": {"type": "DT_FLOAT"}}}, {"name": "StatefulPartitionedCall/center_net_mobile_net_v2fpn_feature_extractor/model_1/model/block_12_project/Conv2D_bn_offset", "op": "Const", "attr": {"value": {"tensor": {"dtype": "DT_FLOAT", "tensorShape": {"dim": [{"size": "96"}]}}}, "dtype": {"type": "DT_FLOAT"}}}, {"name": "StatefulPartitionedCall/center_net_mobile_net_v2fpn_feature_extractor/model_1/model/block_13_expand/Conv2D_weights", "op": "Const", "attr": {"dtype": {"type": "DT_FLOAT"}, "value": {"tensor": {"dtype": "DT_FLOAT", "tensorShape": {"dim": [{"size": "1"}, {"size": "1"}, {"size": "96"}, {"size": "576"}]}}}}}, {"name": "StatefulPartitionedCall/center_net_mobile_net_v2fpn_feature_extractor/model_1/model/block_13_expand/Conv2D_bn_offset", "op": "Const", "attr": {"value": {"tensor": {"dtype": "DT_FLOAT", "tensorShape": {"dim": [{"size": "576"}]}}}, "dtype": {"type": "DT_FLOAT"}}}, {"name": "StatefulPartitionedCall/center_net_mobile_net_v2fpn_feature_extractor/model_1/model/block_13_depthwise/depthwise_weights", "op": "Const", "attr": {"value": {"tensor": {"dtype": "DT_FLOAT", "tensorShape": {"dim": [{"size": "3"}, {"size": "3"}, {"size": "576"}, {"size": "1"}]}}}, "dtype": {"type": "DT_FLOAT"}}}, {"name": "StatefulPartitionedCall/center_net_mobile_net_v2fpn_feature_extractor/model_1/model/block_13_depthwise/depthwise_bn_offset", "op": "Const", "attr": {"dtype": {"type": "DT_FLOAT"}, "value": {"tensor": {"dtype": "DT_FLOAT", "tensorShape": {"dim": [{"size": "576"}]}}}}}, {"name": "StatefulPartitionedCall/center_net_mobile_net_v2fpn_feature_extractor/model_1/model/block_13_project/Conv2D_weights", "op": "Const", "attr": {"value": {"tensor": {"dtype": "DT_FLOAT", "tensorShape": {"dim": [{"size": "1"}, {"size": "1"}, {"size": "576"}, {"size": "160"}]}}}, "dtype": {"type": "DT_FLOAT"}}}, {"name": "StatefulPartitionedCall/center_net_mobile_net_v2fpn_feature_extractor/model_1/model/block_13_project/Conv2D_bn_offset", "op": "Const", "attr": {"dtype": {"type": "DT_FLOAT"}, "value": {"tensor": {"dtype": "DT_FLOAT", "tensorShape": {"dim": [{"size": "160"}]}}}}}, {"name": "StatefulPartitionedCall/center_net_mobile_net_v2fpn_feature_extractor/model_1/model/block_14_expand/Conv2D_weights", "op": "Const", "attr": {"value": {"tensor": {"dtype": "DT_FLOAT", "tensorShape": {"dim": [{"size": "1"}, {"size": "1"}, {"size": "160"}, {"size": "960"}]}}}, "dtype": {"type": "DT_FLOAT"}}}, {"name": "StatefulPartitionedCall/center_net_mobile_net_v2fpn_feature_extractor/model_1/model/block_14_expand/Conv2D_bn_offset", "op": "Const", "attr": {"dtype": {"type": "DT_FLOAT"}, "value": {"tensor": {"dtype": "DT_FLOAT", "tensorShape": {"dim": [{"size": "960"}]}}}}}, {"name": "StatefulPartitionedCall/center_net_mobile_net_v2fpn_feature_extractor/model_1/model/block_14_depthwise/depthwise_weights", "op": "Const", "attr": {"value": {"tensor": {"dtype": "DT_FLOAT", "tensorShape": {"dim": [{"size": "3"}, {"size": "3"}, {"size": "960"}, {"size": "1"}]}}}, "dtype": {"type": "DT_FLOAT"}}}, {"name": "StatefulPartitionedCall/center_net_mobile_net_v2fpn_feature_extractor/model_1/model/block_14_depthwise/depthwise_bn_offset", "op": "Const", "attr": {"dtype": {"type": "DT_FLOAT"}, "value": {"tensor": {"dtype": "DT_FLOAT", "tensorShape": {"dim": [{"size": "960"}]}}}}}, {"name": "StatefulPartitionedCall/center_net_mobile_net_v2fpn_feature_extractor/model_1/model/block_14_project/Conv2D_weights", "op": "Const", "attr": {"dtype": {"type": "DT_FLOAT"}, "value": {"tensor": {"dtype": "DT_FLOAT", "tensorShape": {"dim": [{"size": "1"}, {"size": "1"}, {"size": "960"}, {"size": "160"}]}}}}}, {"name": "StatefulPartitionedCall/center_net_mobile_net_v2fpn_feature_extractor/model_1/model/block_14_project/Conv2D_bn_offset", "op": "Const", "attr": {"value": {"tensor": {"dtype": "DT_FLOAT", "tensorShape": {"dim": [{"size": "160"}]}}}, "dtype": {"type": "DT_FLOAT"}}}, {"name": "StatefulPartitionedCall/center_net_mobile_net_v2fpn_feature_extractor/model_1/model/block_15_expand/Conv2D_weights", "op": "Const", "attr": {"value": {"tensor": {"dtype": "DT_FLOAT", "tensorShape": {"dim": [{"size": "1"}, {"size": "1"}, {"size": "160"}, {"size": "960"}]}}}, "dtype": {"type": "DT_FLOAT"}}}, {"name": "StatefulPartitionedCall/center_net_mobile_net_v2fpn_feature_extractor/model_1/model/block_15_expand/Conv2D_bn_offset", "op": "Const", "attr": {"value": {"tensor": {"dtype": "DT_FLOAT", "tensorShape": {"dim": [{"size": "960"}]}}}, "dtype": {"type": "DT_FLOAT"}}}, {"name": "StatefulPartitionedCall/center_net_mobile_net_v2fpn_feature_extractor/model_1/model/block_15_depthwise/depthwise_weights", "op": "Const", "attr": {"value": {"tensor": {"dtype": "DT_FLOAT", "tensorShape": {"dim": [{"size": "3"}, {"size": "3"}, {"size": "960"}, {"size": "1"}]}}}, "dtype": {"type": "DT_FLOAT"}}}, {"name": "StatefulPartitionedCall/center_net_mobile_net_v2fpn_feature_extractor/model_1/model/block_15_depthwise/depthwise_bn_offset", "op": "Const", "attr": {"value": {"tensor": {"dtype": "DT_FLOAT", "tensorShape": {"dim": [{"size": "960"}]}}}, "dtype": {"type": "DT_FLOAT"}}}, {"name": "StatefulPartitionedCall/center_net_mobile_net_v2fpn_feature_extractor/model_1/model/block_15_project/Conv2D_weights", "op": "Const", "attr": {"dtype": {"type": "DT_FLOAT"}, "value": {"tensor": {"dtype": "DT_FLOAT", "tensorShape": {"dim": [{"size": "1"}, {"size": "1"}, {"size": "960"}, {"size": "160"}]}}}}}, {"name": "StatefulPartitionedCall/center_net_mobile_net_v2fpn_feature_extractor/model_1/model/block_15_project/Conv2D_bn_offset", "op": "Const", "attr": {"value": {"tensor": {"dtype": "DT_FLOAT", "tensorShape": {"dim": [{"size": "160"}]}}}, "dtype": {"type": "DT_FLOAT"}}}, {"name": "StatefulPartitionedCall/center_net_mobile_net_v2fpn_feature_extractor/model_1/model/block_16_expand/Conv2D_weights", "op": "Const", "attr": {"value": {"tensor": {"dtype": "DT_FLOAT", "tensorShape": {"dim": [{"size": "1"}, {"size": "1"}, {"size": "160"}, {"size": "960"}]}}}, "dtype": {"type": "DT_FLOAT"}}}, {"name": "StatefulPartitionedCall/center_net_mobile_net_v2fpn_feature_extractor/model_1/model/block_16_expand/Conv2D_bn_offset", "op": "Const", "attr": {"dtype": {"type": "DT_FLOAT"}, "value": {"tensor": {"dtype": "DT_FLOAT", "tensorShape": {"dim": [{"size": "960"}]}}}}}, {"name": "StatefulPartitionedCall/center_net_mobile_net_v2fpn_feature_extractor/model_1/model/block_16_depthwise/depthwise_weights", "op": "Const", "attr": {"value": {"tensor": {"dtype": "DT_FLOAT", "tensorShape": {"dim": [{"size": "3"}, {"size": "3"}, {"size": "960"}, {"size": "1"}]}}}, "dtype": {"type": "DT_FLOAT"}}}, {"name": "StatefulPartitionedCall/center_net_mobile_net_v2fpn_feature_extractor/model_1/model/block_16_depthwise/depthwise_bn_offset", "op": "Const", "attr": {"dtype": {"type": "DT_FLOAT"}, "value": {"tensor": {"dtype": "DT_FLOAT", "tensorShape": {"dim": [{"size": "960"}]}}}}}, {"name": "StatefulPartitionedCall/center_net_mobile_net_v2fpn_feature_extractor/model_1/model/block_16_project/Conv2D_weights", "op": "Const", "attr": {"value": {"tensor": {"dtype": "DT_FLOAT", "tensorShape": {"dim": [{"size": "1"}, {"size": "1"}, {"size": "960"}, {"size": "320"}]}}}, "dtype": {"type": "DT_FLOAT"}}}, {"name": "StatefulPartitionedCall/center_net_mobile_net_v2fpn_feature_extractor/model_1/model/block_16_project/Conv2D_bn_offset", "op": "Const", "attr": {"value": {"tensor": {"dtype": "DT_FLOAT", "tensorShape": {"dim": [{"size": "320"}]}}}, "dtype": {"type": "DT_FLOAT"}}}, {"name": "StatefulPartitionedCall/center_net_mobile_net_v2fpn_feature_extractor/model_1/model/Conv_1/Conv2D_weights", "op": "Const", "attr": {"value": {"tensor": {"dtype": "DT_FLOAT", "tensorShape": {"dim": [{"size": "1"}, {"size": "1"}, {"size": "320"}, {"size": "1280"}]}}}, "dtype": {"type": "DT_FLOAT"}}}, {"name": "StatefulPartitionedCall/center_net_mobile_net_v2fpn_feature_extractor/model_1/model/Conv_1/Conv2D_bn_offset", "op": "Const", "attr": {"value": {"tensor": {"dtype": "DT_FLOAT", "tensorShape": {"dim": [{"size": "1280"}]}}}, "dtype": {"type": "DT_FLOAT"}}}, {"name": "StatefulPartitionedCall/center_net_mobile_net_v2fpn_feature_extractor/model_1/separable_conv2d/separable_conv2d_weights", "op": "Const", "attr": {"value": {"tensor": {"dtype": "DT_FLOAT", "tensorShape": {"dim": [{"size": "1"}, {"size": "1"}, {"size": "64"}, {"size": "32"}]}}}, "dtype": {"type": "DT_FLOAT"}}}, {"name": "StatefulPartitionedCall/center_net_mobile_net_v2fpn_feature_extractor/model_1/separable_conv2d/separable_conv2d_bn_offset", "op": "Const", "attr": {"value": {"tensor": {"dtype": "DT_FLOAT", "tensorShape": {"dim": [{"size": "32"}]}}}, "dtype": {"type": "DT_FLOAT"}}}, {"name": "StatefulPartitionedCall/center_net_mobile_net_v2fpn_feature_extractor/model_1/separable_conv2d_1/separable_conv2d_weights", "op": "Const", "attr": {"value": {"tensor": {"dtype": "DT_FLOAT", "tensorShape": {"dim": [{"size": "1"}, {"size": "1"}, {"size": "32"}, {"size": "24"}]}}}, "dtype": {"type": "DT_FLOAT"}}}, {"name": "StatefulPartitionedCall/center_net_mobile_net_v2fpn_feature_extractor/model_1/separable_conv2d_1/separable_conv2d_bn_offset", "op": "Const", "attr": {"value": {"tensor": {"dtype": "DT_FLOAT", "tensorShape": {"dim": [{"size": "24"}]}}}, "dtype": {"type": "DT_FLOAT"}}}, {"name": "StatefulPartitionedCall/center_net_mobile_net_v2fpn_feature_extractor/model_1/separable_conv2d_2/separable_conv2d_weights", "op": "Const", "attr": {"dtype": {"type": "DT_FLOAT"}, "value": {"tensor": {"dtype": "DT_FLOAT", "tensorShape": {"dim": [{"size": "1"}, {"size": "1"}, {"size": "24"}, {"size": "24"}]}}}}}, {"name": "StatefulPartitionedCall/center_net_mobile_net_v2fpn_feature_extractor/model_1/separable_conv2d_2/separable_conv2d_bn_offset", "op": "Const", "attr": {"value": {"tensor": {"dtype": "DT_FLOAT", "tensorShape": {"dim": [{"size": "24"}]}}}, "dtype": {"type": "DT_FLOAT"}}}, {"name": "StatefulPartitionedCall/map/TensorArrayV2_2", "op": "TensorListReserve", "input": ["StatefulPartitionedCall/map/TensorArrayV2_2/element_shape", "StatefulPartitionedCall/map/TensorArrayV2_2/num_elements"], "attr": {"shape_type": {"type": "DT_INT32"}, "element_dtype": {"type": "DT_INT32"}}}, {"name": "StatefulPartitionedCall/map/TensorArrayV2_1", "op": "TensorListReserve", "input": ["StatefulPartitionedCall/map/TensorArrayV2_1/element_shape", "StatefulPartitionedCall/map/TensorArrayV2_1/num_elements"], "attr": {"shape_type": {"type": "DT_INT32"}, "element_dtype": {"type": "DT_FLOAT"}}}, {"name": "StatefulPartitionedCall/map/while/enter/_312", "op": "Enter", "input": ["StatefulPartitionedCall/map/while/maximum_iterations"], "attr": {"T": {"type": "DT_INT32"}, "is_constant": {"b": false}, "parallel_iterations": {"i": "32"}, "frame_name": {"s": "U3RhdGVmdWxQYXJ0aXRpb25lZENhbGwvbWFwL3doaWxl"}}}, {"name": "StatefulPartitionedCall/map/while/enter/_313", "op": "Enter", "input": ["StatefulPartitionedCall/map/Const"], "attr": {"T": {"type": "DT_INT32"}, "is_constant": {"b": false}, "parallel_iterations": {"i": "32"}, "frame_name": {"s": "U3RhdGVmdWxQYXJ0aXRpb25lZENhbGwvbWFwL3doaWxl"}}}, {"name": "StatefulPartitionedCall/map/while/enter/_311", "op": "Enter", "input": ["StatefulPartitionedCall/map/while/loop_counter"], "attr": {"T": {"type": "DT_INT32"}, "is_constant": {"b": false}, "parallel_iterations": {"i": "32"}, "frame_name": {"s": "U3RhdGVmdWxQYXJ0aXRpb25lZENhbGwvbWFwL3doaWxl"}}}, {"name": "StatefulPartitionedCall/map/TensorArrayUnstack/TensorListFromTensor", "op": "TensorListFromTensor", "input": ["input_tensor", "StatefulPartitionedCall/map/TensorArrayUnstack/TensorListFromTensor/element_shape"], "attr": {"shape_type": {"type": "DT_INT32"}, "element_dtype": {"type": "DT_UINT8"}}}, {"name": "StatefulPartitionedCall/map/while/enter/_315", "op": "Enter", "input": ["StatefulPartitionedCall/map/TensorArrayV2_2"], "attr": {"T": {"type": "DT_VARIANT"}, "is_constant": {"b": false}, "parallel_iterations": {"i": "32"}, "frame_name": {"s": "U3RhdGVmdWxQYXJ0aXRpb25lZENhbGwvbWFwL3doaWxl"}}}, {"name": "StatefulPartitionedCall/map/while/enter/_314", "op": "Enter", "input": ["StatefulPartitionedCall/map/TensorArrayV2_1"], "attr": {"T": {"type": "DT_VARIANT"}, "is_constant": {"b": false}, "parallel_iterations": {"i": "32"}, "frame_name": {"s": "U3RhdGVmdWxQYXJ0aXRpb25lZENhbGwvbWFwL3doaWxl"}}}, {"name": "StatefulPartitionedCall/map/while/merge/_318", "op": "Merge", "input": ["StatefulPartitionedCall/map/while/enter/_312", "StatefulPartitionedCall/map/while/next_iteration/_339"], "attr": {"N": {"i": "2"}, "T": {"type": "DT_INT32"}}}, {"name": "StatefulPartitionedCall/map/while/merge/_319", "op": "Merge", "input": ["StatefulPartitionedCall/map/while/enter/_313", "StatefulPartitionedCall/map/while/next_iteration/_340"], "attr": {"T": {"type": "DT_INT32"}, "N": {"i": "2"}}}, {"name": "StatefulPartitionedCall/map/while/merge/_317", "op": "Merge", "input": ["StatefulPartitionedCall/map/while/enter/_311", "StatefulPartitionedCall/map/while/next_iteration/_338"], "attr": {"T": {"type": "DT_INT32"}, "N": {"i": "2"}}}, {"name": "StatefulPartitionedCall/map/while/enter/_316", "op": "Enter", "input": ["StatefulPartitionedCall/map/TensorArrayUnstack/TensorListFromTensor"], "attr": {"T": {"type": "DT_VARIANT"}, "is_constant": {"b": false}, "parallel_iterations": {"i": "32"}, "frame_name": {"s": "U3RhdGVmdWxQYXJ0aXRpb25lZENhbGwvbWFwL3doaWxl"}}}, {"name": "StatefulPartitionedCall/map/while/merge/_321", "op": "Merge", "input": ["StatefulPartitionedCall/map/while/enter/_315", "StatefulPartitionedCall/map/while/next_iteration/_342"], "attr": {"T": {"type": "DT_VARIANT"}, "N": {"i": "2"}}}, {"name": "StatefulPartitionedCall/map/while/merge/_320", "op": "Merge", "input": ["StatefulPartitionedCall/map/while/enter/_314", "StatefulPartitionedCall/map/while/next_iteration/_341"], "attr": {"N": {"i": "2"}, "T": {"type": "DT_VARIANT"}}}, {"name": "StatefulPartitionedCall/map/while/cond/_309/map/while/Less_1", "op": "Less", "input": ["StatefulPartitionedCall/map/while/merge/_317", "StatefulPartitionedCall/map/while/merge/_318"], "attr": {"T": {"type": "DT_INT32"}}}, {"name": "StatefulPartitionedCall/map/while/cond/_309/map/while/Less/y", "op": "Const", "input": ["^StatefulPartitionedCall/map/while/merge/_317"], "attr": {"value": {"tensor": {"dtype": "DT_INT32", "tensorShape": {}}}, "dtype": {"type": "DT_INT32"}}}, {"name": "StatefulPartitionedCall/map/while/merge/_322", "op": "Merge", "input": ["StatefulPartitionedCall/map/while/enter/_316", "StatefulPartitionedCall/map/while/next_iteration/_343"], "attr": {"T": {"type": "DT_VARIANT"}, "N": {"i": "2"}}}, {"name": "StatefulPartitionedCall/map/while/cond/_309/map/while/Less", "op": "Less", "input": ["StatefulPartitionedCall/map/while/merge/_319", "StatefulPartitionedCall/map/while/cond/_309/map/while/Less/y", "^StatefulPartitionedCall/map/while/merge/_317"], "attr": {"T": {"type": "DT_INT32"}}}, {"name": "StatefulPartitionedCall/map/while/cond/_309/map/while/LogicalAnd", "op": "LogicalAnd", "input": ["StatefulPartitionedCall/map/while/cond/_309/map/while/Less_1", "StatefulPartitionedCall/map/while/cond/_309/map/while/Less"]}, {"name": "StatefulPartitionedCall/map/while/LoopCond/_323", "op": "LoopCond", "input": ["StatefulPartitionedCall/map/while/cond/_309/map/while/LogicalAnd"]}, {"name": "StatefulPartitionedCall/map/while/StatefulPartitionedCall/map/TensorArrayV2_2_switch/_328", "op": "Switch", "input": ["StatefulPartitionedCall/map/while/merge/_321", "StatefulPartitionedCall/map/while/LoopCond/_323"], "attr": {"T": {"type": "DT_VARIANT"}}}, {"name": "StatefulPartitionedCall/map/while/StatefulPartitionedCall/map/while/maximum_iterations_switch/_325", "op": "Switch", "input": ["StatefulPartitionedCall/map/while/merge/_318", "StatefulPartitionedCall/map/while/LoopCond/_323"], "attr": {"T": {"type": "DT_INT32"}}}, {"name": "StatefulPartitionedCall/map/while/StatefulPartitionedCall/map/Const_switch/_326", "op": "Switch", "input": ["StatefulPartitionedCall/map/while/merge/_319", "StatefulPartitionedCall/map/while/LoopCond/_323"], "attr": {"T": {"type": "DT_INT32"}}}, {"name": "StatefulPartitionedCall/map/while/StatefulPartitionedCall/map/while/loop_counter_switch/_324", "op": "Switch", "input": ["StatefulPartitionedCall/map/while/merge/_317", "StatefulPartitionedCall/map/while/LoopCond/_323"], "attr": {"T": {"type": "DT_INT32"}}}, {"name": "StatefulPartitionedCall/map/while/StatefulPartitionedCall/map/TensorArrayV2_1_switch/_327", "op": "Switch", "input": ["StatefulPartitionedCall/map/while/merge/_320", "StatefulPartitionedCall/map/while/LoopCond/_323"], "attr": {"T": {"type": "DT_VARIANT"}}}, {"name": "StatefulPartitionedCall/map/while/StatefulPartitionedCall/map/TensorArrayUnstack/TensorListFromTensor_switch/_329", "op": "Switch", "input": ["StatefulPartitionedCall/map/while/merge/_322", "StatefulPartitionedCall/map/while/LoopCond/_323"], "attr": {"T": {"type": "DT_VARIANT"}}}, {"name": "StatefulPartitionedCall/map/while/exit/_335", "op": "Exit", "input": ["StatefulPartitionedCall/map/while/StatefulPartitionedCall/map/TensorArrayV2_2_switch/_328"], "attr": {"T": {"type": "DT_VARIANT"}}}, {"name": "StatefulPartitionedCall/map/while/loop_body_control/_330", "op": "Identity", "input": ["StatefulPartitionedCall/map/while/StatefulPartitionedCall/map/while/loop_counter_switch/_324:1"], "attr": {"T": {"type": "DT_INT32"}}}, {"name": "StatefulPartitionedCall/map/while/exit/_334", "op": "Exit", "input": ["StatefulPartitionedCall/map/while/StatefulPartitionedCall/map/TensorArrayV2_1_switch/_327"], "attr": {"T": {"type": "DT_VARIANT"}}}, {"name": "StatefulPartitionedCall/map/TensorArrayV2Stack_1/TensorListStack", "op": "TensorListStack", "input": ["StatefulPartitionedCall/map/while/exit/_335", "StatefulPartitionedCall/map/TensorArrayV2Stack_1/TensorListStack/element_shape"], "attr": {"element_dtype": {"type": "DT_INT32"}, "num_elements": {"i": "1"}}}, {"name": "StatefulPartitionedCall/map/while/body/_310/map/while/strided_slice_2/stack", "op": "Const", "input": ["^StatefulPartitionedCall/map/while/loop_body_control/_330"], "attr": {"value": {"tensor": {"dtype": "DT_INT32", "tensorShape": {"dim": [{"size": "1"}]}}}, "dtype": {"type": "DT_INT32"}}}, {"name": "StatefulPartitionedCall/map/while/body/_310/map/while/strided_slice_2/stack_1", "op": "Const", "input": ["^StatefulPartitionedCall/map/while/loop_body_control/_330"], "attr": {"dtype": {"type": "DT_INT32"}, "value": {"tensor": {"dtype": "DT_INT32", "tensorShape": {"dim": [{"size": "1"}]}}}}}, {"name": "StatefulPartitionedCall/map/while/body/_310/map/while/strided_slice_2/stack_2", "op": "Const", "input": ["^StatefulPartitionedCall/map/while/loop_body_control/_330"], "attr": {"value": {"tensor": {"dtype": "DT_INT32", "tensorShape": {"dim": [{"size": "1"}]}}}, "dtype": {"type": "DT_INT32"}}}, {"name": "StatefulPartitionedCall/map/while/body/_310/map/while/ResizeToRange/Pad/paddings/0/0", "op": "Const", "input": ["^StatefulPartitionedCall/map/while/loop_body_control/_330"], "attr": {"value": {"tensor": {"dtype": "DT_INT32", "tensorShape": {}}}, "dtype": {"type": "DT_INT32"}}}, {"name": "StatefulPartitionedCall/map/while/body/_310/map/while/ResizeToRange/sub/x", "op": "Const", "input": ["^StatefulPartitionedCall/map/while/loop_body_control/_330"], "attr": {"value": {"tensor": {"dtype": "DT_INT32", "tensorShape": {}}}, "dtype": {"type": "DT_INT32"}}}, {"name": "StatefulPartitionedCall/map/while/body/_310/map/while/ResizeToRange/strided_slice_2/stack", "op": "Const", "input": ["^StatefulPartitionedCall/map/while/loop_body_control/_330"], "attr": {"value": {"tensor": {"dtype": "DT_INT32", "tensorShape": {"dim": [{"size": "1"}]}}}, "dtype": {"type": "DT_INT32"}}}, {"name": "StatefulPartitionedCall/map/while/body/_310/map/while/ResizeToRange/strided_slice_2/stack_1", "op": "Const", "input": ["^StatefulPartitionedCall/map/while/loop_body_control/_330"], "attr": {"dtype": {"type": "DT_INT32"}, "value": {"tensor": {"dtype": "DT_INT32", "tensorShape": {"dim": [{"size": "1"}]}}}}}, {"name": "StatefulPartitionedCall/map/while/body/_310/map/while/ResizeToRange/strided_slice_2/stack_2", "op": "Const", "input": ["^StatefulPartitionedCall/map/while/loop_body_control/_330"], "attr": {"value": {"tensor": {"dtype": "DT_INT32", "tensorShape": {"dim": [{"size": "1"}]}}}, "dtype": {"type": "DT_INT32"}}}, {"name": "StatefulPartitionedCall/map/while/body/_310/map/while/ResizeToRange/Pad/paddings/1/0", "op": "Const", "input": ["^StatefulPartitionedCall/map/while/loop_body_control/_330"], "attr": {"value": {"tensor": {"dtype": "DT_INT32", "tensorShape": {}}}, "dtype": {"type": "DT_INT32"}}}, {"name": "StatefulPartitionedCall/map/while/body/_310/map/while/ResizeToRange/sub_1/x", "op": "Const", "input": ["^StatefulPartitionedCall/map/while/loop_body_control/_330"], "attr": {"value": {"tensor": {"dtype": "DT_INT32", "tensorShape": {}}}, "dtype": {"type": "DT_INT32"}}}, {"name": "StatefulPartitionedCall/map/while/body/_310/map/while/ResizeToRange/strided_slice_3/stack", "op": "Const", "input": ["^StatefulPartitionedCall/map/while/loop_body_control/_330"], "attr": {"value": {"tensor": {"dtype": "DT_INT32", "tensorShape": {"dim": [{"size": "1"}]}}}, "dtype": {"type": "DT_INT32"}}}, {"name": "StatefulPartitionedCall/map/while/body/_310/map/while/ResizeToRange/strided_slice_3/stack_1", "op": "Const", "input": ["^StatefulPartitionedCall/map/while/loop_body_control/_330"], "attr": {"value": {"tensor": {"dtype": "DT_INT32", "tensorShape": {"dim": [{"size": "1"}]}}}, "dtype": {"type": "DT_INT32"}}}, {"name": "StatefulPartitionedCall/map/while/body/_310/map/while/ResizeToRange/strided_slice_3/stack_2", "op": "Const", "input": ["^StatefulPartitionedCall/map/while/loop_body_control/_330"], "attr": {"value": {"tensor": {"dtype": "DT_INT32", "tensorShape": {"dim": [{"size": "1"}]}}}, "dtype": {"type": "DT_INT32"}}}, {"name": "StatefulPartitionedCall/map/while/body/_310/map/while/ResizeToRange/Pad_1/paddings/0/0", "op": "Const", "input": ["^StatefulPartitionedCall/map/while/loop_body_control/_330"], "attr": {"dtype": {"type": "DT_INT32"}, "value": {"tensor": {"dtype": "DT_INT32", "tensorShape": {}}}}}, {"name": "StatefulPartitionedCall/map/while/body/_310/map/while/ResizeToRange/sub_2/x", "op": "Const", "input": ["^StatefulPartitionedCall/map/while/loop_body_control/_330"], "attr": {"value": {"tensor": {"dtype": "DT_INT32", "tensorShape": {}}}, "dtype": {"type": "DT_INT32"}}}, {"name": "StatefulPartitionedCall/map/while/body/_310/map/while/ResizeToRange/strided_slice_4/stack", "op": "Const", "input": ["^StatefulPartitionedCall/map/while/loop_body_control/_330"], "attr": {"dtype": {"type": "DT_INT32"}, "value": {"tensor": {"dtype": "DT_INT32", "tensorShape": {"dim": [{"size": "1"}]}}}}}, {"name": "StatefulPartitionedCall/map/while/body/_310/map/while/ResizeToRange/strided_slice_4/stack_1", "op": "Const", "input": ["^StatefulPartitionedCall/map/while/loop_body_control/_330"], "attr": {"dtype": {"type": "DT_INT32"}, "value": {"tensor": {"dtype": "DT_INT32", "tensorShape": {"dim": [{"size": "1"}]}}}}}, {"name": "StatefulPartitionedCall/map/while/body/_310/map/while/ResizeToRange/strided_slice_4/stack_2", "op": "Const", "input": ["^StatefulPartitionedCall/map/while/loop_body_control/_330"], "attr": {"value": {"tensor": {"dtype": "DT_INT32", "tensorShape": {"dim": [{"size": "1"}]}}}, "dtype": {"type": "DT_INT32"}}}, {"name": "StatefulPartitionedCall/map/while/body/_310/map/while/ResizeToRange/Pad_1/paddings/1/0", "op": "Const", "input": ["^StatefulPartitionedCall/map/while/loop_body_control/_330"], "attr": {"value": {"tensor": {"dtype": "DT_INT32", "tensorShape": {}}}, "dtype": {"type": "DT_INT32"}}}, {"name": "StatefulPartitionedCall/map/while/body/_310/map/while/ResizeToRange/sub_3/x", "op": "Const", "input": ["^StatefulPartitionedCall/map/while/loop_body_control/_330"], "attr": {"dtype": {"type": "DT_INT32"}, "value": {"tensor": {"dtype": "DT_INT32", "tensorShape": {}}}}}, {"name": "StatefulPartitionedCall/map/while/body/_310/map/while/ResizeToRange/strided_slice_5/stack", "op": "Const", "input": ["^StatefulPartitionedCall/map/while/loop_body_control/_330"], "attr": {"value": {"tensor": {"dtype": "DT_INT32", "tensorShape": {"dim": [{"size": "1"}]}}}, "dtype": {"type": "DT_INT32"}}}, {"name": "StatefulPartitionedCall/map/while/body/_310/map/while/ResizeToRange/strided_slice_5/stack_1", "op": "Const", "input": ["^StatefulPartitionedCall/map/while/loop_body_control/_330"], "attr": {"value": {"tensor": {"dtype": "DT_INT32", "tensorShape": {"dim": [{"size": "1"}]}}}, "dtype": {"type": "DT_INT32"}}}, {"name": "StatefulPartitionedCall/map/while/body/_310/map/while/ResizeToRange/strided_slice_5/stack_2", "op": "Const", "input": ["^StatefulPartitionedCall/map/while/loop_body_control/_330"], "attr": {"value": {"tensor": {"dtype": "DT_INT32", "tensorShape": {"dim": [{"size": "1"}]}}}, "dtype": {"type": "DT_INT32"}}}, {"name": "StatefulPartitionedCall/map/while/body/_310/map/while/ResizeToRange/Pad_2/paddings/0/0", "op": "Const", "input": ["^StatefulPartitionedCall/map/while/loop_body_control/_330"], "attr": {"value": {"tensor": {"dtype": "DT_INT32", "tensorShape": {}}}, "dtype": {"type": "DT_INT32"}}}, {"name": "StatefulPartitionedCall/map/while/body/_310/map/while/ResizeToRange/sub_4/x", "op": "Const", "input": ["^StatefulPartitionedCall/map/while/loop_body_control/_330"], "attr": {"value": {"tensor": {"dtype": "DT_INT32", "tensorShape": {}}}, "dtype": {"type": "DT_INT32"}}}, {"name": "StatefulPartitionedCall/map/while/body/_310/map/while/ResizeToRange/strided_slice_6/stack", "op": "Const", "input": ["^StatefulPartitionedCall/map/while/loop_body_control/_330"], "attr": {"dtype": {"type": "DT_INT32"}, "value": {"tensor": {"dtype": "DT_INT32", "tensorShape": {"dim": [{"size": "1"}]}}}}}, {"name": "StatefulPartitionedCall/map/while/body/_310/map/while/ResizeToRange/strided_slice_6/stack_1", "op": "Const", "input": ["^StatefulPartitionedCall/map/while/loop_body_control/_330"], "attr": {"dtype": {"type": "DT_INT32"}, "value": {"tensor": {"dtype": "DT_INT32", "tensorShape": {"dim": [{"size": "1"}]}}}}}, {"name": "StatefulPartitionedCall/map/while/body/_310/map/while/ResizeToRange/strided_slice_6/stack_2", "op": "Const", "input": ["^StatefulPartitionedCall/map/while/loop_body_control/_330"], "attr": {"dtype": {"type": "DT_INT32"}, "value": {"tensor": {"dtype": "DT_INT32", "tensorShape": {"dim": [{"size": "1"}]}}}}}, {"name": "StatefulPartitionedCall/map/while/body/_310/map/while/ResizeToRange/Pad_2/paddings/1/0", "op": "Const", "input": ["^StatefulPartitionedCall/map/while/loop_body_control/_330"], "attr": {"value": {"tensor": {"dtype": "DT_INT32", "tensorShape": {}}}, "dtype": {"type": "DT_INT32"}}}, {"name": "StatefulPartitionedCall/map/while/body/_310/map/while/ResizeToRange/sub_5/x", "op": "Const", "input": ["^StatefulPartitionedCall/map/while/loop_body_control/_330"], "attr": {"value": {"tensor": {"dtype": "DT_INT32", "tensorShape": {}}}, "dtype": {"type": "DT_INT32"}}}, {"name": "StatefulPartitionedCall/map/while/body/_310/map/while/ResizeToRange/strided_slice/stack", "op": "Const", "input": ["^StatefulPartitionedCall/map/while/loop_body_control/_330"], "attr": {"value": {"tensor": {"dtype": "DT_INT32", "tensorShape": {"dim": [{"size": "1"}]}}}, "dtype": {"type": "DT_INT32"}}}, {"name": "StatefulPartitionedCall/map/while/body/_310/map/while/ResizeToRange/strided_slice/stack_1", "op": "Const", "input": ["^StatefulPartitionedCall/map/while/loop_body_control/_330"], "attr": {"dtype": {"type": "DT_INT32"}, "value": {"tensor": {"dtype": "DT_INT32", "tensorShape": {"dim": [{"size": "1"}]}}}}}, {"name": "StatefulPartitionedCall/map/while/body/_310/map/while/ResizeToRange/strided_slice/stack_2", "op": "Const", "input": ["^StatefulPartitionedCall/map/while/loop_body_control/_330"], "attr": {"value": {"tensor": {"dtype": "DT_INT32", "tensorShape": {"dim": [{"size": "1"}]}}}, "dtype": {"type": "DT_INT32"}}}, {"name": "StatefulPartitionedCall/map/while/body/_310/map/while/TensorArrayV2Read/TensorListGetItem/element_shape", "op": "Const", "input": ["^StatefulPartitionedCall/map/while/loop_body_control/_330"], "attr": {"value": {"tensor": {"dtype": "DT_INT32", "tensorShape": {"dim": [{"size": "3"}]}}}, "dtype": {"type": "DT_INT32"}}}, {"name": "StatefulPartitionedCall/map/while/body/_310/map/while/strided_slice/stack", "op": "Const", "input": ["^StatefulPartitionedCall/map/while/loop_body_control/_330"], "attr": {"value": {"tensor": {"dtype": "DT_INT32", "tensorShape": {"dim": [{"size": "4"}]}}}, "dtype": {"type": "DT_INT32"}}}, {"name": "StatefulPartitionedCall/map/while/body/_310/map/while/strided_slice/stack_1", "op": "Const", "input": ["^StatefulPartitionedCall/map/while/loop_body_control/_330"], "attr": {"value": {"tensor": {"dtype": "DT_INT32", "tensorShape": {"dim": [{"size": "4"}]}}}, "dtype": {"type": "DT_INT32"}}}, {"name": "StatefulPartitionedCall/map/while/body/_310/map/while/strided_slice/stack_2", "op": "Const", "input": ["^StatefulPartitionedCall/map/while/loop_body_control/_330"], "attr": {"dtype": {"type": "DT_INT32"}, "value": {"tensor": {"dtype": "DT_INT32", "tensorShape": {"dim": [{"size": "4"}]}}}}}, {"name": "StatefulPartitionedCall/map/while/body/_310/map/while/ResizeToRange/strided_slice_1/stack", "op": "Const", "input": ["^StatefulPartitionedCall/map/while/loop_body_control/_330"], "attr": {"value": {"tensor": {"dtype": "DT_INT32", "tensorShape": {"dim": [{"size": "1"}]}}}, "dtype": {"type": "DT_INT32"}}}, {"name": "StatefulPartitionedCall/map/while/body/_310/map/while/ResizeToRange/strided_slice_1/stack_1", "op": "Const", "input": ["^StatefulPartitionedCall/map/while/loop_body_control/_330"], "attr": {"value": {"tensor": {"dtype": "DT_INT32", "tensorShape": {"dim": [{"size": "1"}]}}}, "dtype": {"type": "DT_INT32"}}}, {"name": "StatefulPartitionedCall/map/while/body/_310/map/while/ResizeToRange/strided_slice_1/stack_2", "op": "Const", "input": ["^StatefulPartitionedCall/map/while/loop_body_control/_330"], "attr": {"value": {"tensor": {"dtype": "DT_INT32", "tensorShape": {"dim": [{"size": "1"}]}}}, "dtype": {"type": "DT_INT32"}}}, {"name": "StatefulPartitionedCall/map/while/body/_310/map/while/ResizeToRange/strided_slice_7/stack", "op": "Const", "input": ["^StatefulPartitionedCall/map/while/loop_body_control/_330"], "attr": {"value": {"tensor": {"dtype": "DT_INT32", "tensorShape": {"dim": [{"size": "1"}]}}}, "dtype": {"type": "DT_INT32"}}}, {"name": "StatefulPartitionedCall/map/while/body/_310/map/while/ResizeToRange/strided_slice_7/stack_1", "op": "Const", "input": ["^StatefulPartitionedCall/map/while/loop_body_control/_330"], "attr": {"value": {"tensor": {"dtype": "DT_INT32", "tensorShape": {"dim": [{"size": "1"}]}}}, "dtype": {"type": "DT_INT32"}}}, {"name": "StatefulPartitionedCall/map/while/body/_310/map/while/ResizeToRange/strided_slice_7/stack_2", "op": "Const", "input": ["^StatefulPartitionedCall/map/while/loop_body_control/_330"], "attr": {"value": {"tensor": {"dtype": "DT_INT32", "tensorShape": {"dim": [{"size": "1"}]}}}, "dtype": {"type": "DT_INT32"}}}, {"name": "ConstantFolding/StatefulPartitionedCall/map/while/body/_310/map/while/truediv_1_recip", "op": "Const", "input": ["^StatefulPartitionedCall/map/while/loop_body_control/_330"], "attr": {"value": {"tensor": {"dtype": "DT_FLOAT", "tensorShape": {}}}, "dtype": {"type": "DT_FLOAT"}}}, {"name": "StatefulPartitionedCall/map/while/body/_310/map/while/sub_1/y", "op": "Const", "input": ["^StatefulPartitionedCall/map/while/loop_body_control/_330"], "attr": {"dtype": {"type": "DT_FLOAT"}, "value": {"tensor": {"dtype": "DT_FLOAT", "tensorShape": {}}}}}, {"name": "StatefulPartitionedCall/map/while/body/_310/map/while/strided_slice_1/stack", "op": "Const", "input": ["^StatefulPartitionedCall/map/while/loop_body_control/_330"], "attr": {"value": {"tensor": {"dtype": "DT_INT32", "tensorShape": {"dim": [{"size": "1"}]}}}, "dtype": {"type": "DT_INT32"}}}, {"name": "StatefulPartitionedCall/map/while/body/_310/map/while/strided_slice_1/stack_1", "op": "Const", "input": ["^StatefulPartitionedCall/map/while/loop_body_control/_330"], "attr": {"value": {"tensor": {"dtype": "DT_INT32", "tensorShape": {"dim": [{"size": "1"}]}}}, "dtype": {"type": "DT_INT32"}}}, {"name": "StatefulPartitionedCall/map/while/body/_310/map/while/strided_slice_1/stack_2", "op": "Const", "input": ["^StatefulPartitionedCall/map/while/loop_body_control/_330"], "attr": {"value": {"tensor": {"dtype": "DT_INT32", "tensorShape": {"dim": [{"size": "1"}]}}}, "dtype": {"type": "DT_INT32"}}}, {"name": "StatefulPartitionedCall/map/while/next_iteration/_339", "op": "NextIteration", "input": ["StatefulPartitionedCall/map/while/StatefulPartitionedCall/map/while/maximum_iterations_switch/_325:1", "^StatefulPartitionedCall/map/while/loop_body_control/_330"], "attr": {"T": {"type": "DT_INT32"}}}, {"name": "Func/StatefulPartitionedCall/map/while/body/_310/input/_355", "op": "Identity", "input": ["StatefulPartitionedCall/map/while/StatefulPartitionedCall/map/Const_switch/_326:1", "^StatefulPartitionedCall/map/while/loop_body_control/_330"], "attr": {"T": {"type": "DT_INT32"}}}, {"name": "StatefulPartitionedCall/map/while/body/_310/map/while/add/y", "op": "Const", "input": ["^StatefulPartitionedCall/map/while/loop_body_control/_330"], "attr": {"value": {"tensor": {"dtype": "DT_INT32", "tensorShape": {}}}, "dtype": {"type": "DT_INT32"}}}, {"name": "StatefulPartitionedCall/map/while/body/_310/map/while/add_1/y", "op": "Const", "input": ["^StatefulPartitionedCall/map/while/loop_body_control/_330"], "attr": {"value": {"tensor": {"dtype": "DT_INT32", "tensorShape": {}}}, "dtype": {"type": "DT_INT32"}}}, {"name": "StatefulPartitionedCall/map/while/next_iteration/_343", "op": "NextIteration", "input": ["StatefulPartitionedCall/map/while/StatefulPartitionedCall/map/TensorArrayUnstack/TensorListFromTensor_switch/_329:1", "^StatefulPartitionedCall/map/while/loop_body_control/_330"], "attr": {"T": {"type": "DT_VARIANT"}}}, {"name": "StatefulPartitionedCall/map/TensorArrayV2Stack/TensorListStack", "op": "TensorListStack", "input": ["StatefulPartitionedCall/map/while/exit/_334", "StatefulPartitionedCall/map/TensorArrayV2Stack/TensorListStack/element_shape"], "attr": {"num_elements": {"i": "1"}, "element_dtype": {"type": "DT_FLOAT"}}}, {"name": "StatefulPartitionedCall/strided_slice", "op": "StridedSlice", "input": ["StatefulPartitionedCall/map/TensorArrayV2Stack_1/TensorListStack", "StatefulPartitionedCall/strided_slice/stack", "StatefulPartitionedCall/strided_slice/stack_1", "StatefulPartitionedCall/strided_slice/stack_2"], "attr": {"shrink_axis_mask": {"i": "0"}, "ellipsis_mask": {"i": "0"}, "begin_mask": {"i": "5"}, "new_axis_mask": {"i": "2"}, "end_mask": {"i": "1"}, "T": {"type": "DT_INT32"}, "Index": {"type": "DT_INT32"}}}, {"name": "StatefulPartitionedCall/map/while/body/_310/map/while/TensorArrayV2Read/TensorListGetItem", "op": "TensorListGetItem", "input": ["StatefulPartitionedCall/map/while/StatefulPartitionedCall/map/TensorArrayUnstack/TensorListFromTensor_switch/_329:1", "Func/StatefulPartitionedCall/map/while/body/_310/input/_355", "StatefulPartitionedCall/map/while/body/_310/map/while/TensorArrayV2Read/TensorListGetItem/element_shape"], "attr": {"element_dtype": {"type": "DT_UINT8"}}}, {"name": "StatefulPartitionedCall/map/while/body/_310/map/while/add", "op": "AddV2", "input": ["Func/StatefulPartitionedCall/map/while/body/_310/input/_355", "StatefulPartitionedCall/map/while/body/_310/map/while/add/y"], "attr": {"T": {"type": "DT_INT32"}}}, {"name": "StatefulPartitionedCall/map/while/body/_310/map/while/add_1", "op": "AddV2", "input": ["StatefulPartitionedCall/map/while/StatefulPartitionedCall/map/while/loop_counter_switch/_324:1", "StatefulPartitionedCall/map/while/body/_310/map/while/add_1/y"], "attr": {"T": {"type": "DT_INT32"}}}, {"name": "StatefulPartitionedCall/center_net_mobile_net_v2fpn_feature_extractor/model_1/model/Conv1_relu/Relu6", "op": "_FusedConv2D", "input": ["StatefulPartitionedCall/map/TensorArrayV2Stack/TensorListStack", "StatefulPartitionedCall/center_net_mobile_net_v2fpn_feature_extractor/model_1/model/Conv1/Conv2D_weights", "StatefulPartitionedCall/center_net_mobile_net_v2fpn_feature_extractor/model_1/model/Conv1/Conv2D_bn_offset"], "device": "/device:CPU:0", "attr": {"dilations": {"list": {"i": ["1", "1", "1", "1"]}}, "T": {"type": "DT_FLOAT"}, "strides": {"list": {"i": ["1", "2", "2", "1"]}}, "data_format": {"s": "TkhXQw=="}, "use_cudnn_on_gpu": {"b": true}, "explicit_paddings": {"list": {}}, "num_args": {"i": "1"}, "epsilon": {"f": 0.0}, "padding": {"s": "U0FNRQ=="}, "fused_ops": {"list": {"s": ["Qmlhc0FkZA==", "UmVsdTY="]}}}}, {"name": "StatefulPartitionedCall/Tile_1", "op": "Tile", "input": ["StatefulPartitionedCall/strided_slice", "StatefulPartitionedCall/Tile_1/multiples"], "attr": {"Tmultiples": {"type": "DT_INT32"}, "T": {"type": "DT_INT32"}}}, {"name": "StatefulPartitionedCall/map/while/body/_310/map/while/Cast", "op": "Cast", "input": ["StatefulPartitionedCall/map/while/body/_310/map/while/TensorArrayV2Read/TensorListGetItem"], "attr": {"SrcT": {"type": "DT_UINT8"}, "Truncate": {"b": false}, "DstT": {"type": "DT_FLOAT"}}}, {"name": "StatefulPartitionedCall/map/while/next_iteration/_340", "op": "NextIteration", "input": ["StatefulPartitionedCall/map/while/body/_310/map/while/add", "^StatefulPartitionedCall/map/while/loop_body_control/_330"], "attr": {"T": {"type": "DT_INT32"}}}, {"name": "StatefulPartitionedCall/map/while/next_iteration/_338", "op": "NextIteration", "input": ["StatefulPartitionedCall/map/while/body/_310/map/while/add_1", "^StatefulPartitionedCall/map/while/loop_body_control/_330"], "attr": {"T": {"type": "DT_INT32"}}}, {"name": "StatefulPartitionedCall/center_net_mobile_net_v2fpn_feature_extractor/model_1/model/expanded_conv_depthwise/depthwise", "op": "FusedDepthwiseConv2dNative", "input": ["StatefulPartitionedCall/center_net_mobile_net_v2fpn_feature_extractor/model_1/model/Conv1_relu/Relu6", "StatefulPartitionedCall/center_net_mobile_net_v2fpn_feature_extractor/model_1/model/expanded_conv_depthwise/depthwise_weights", "StatefulPartitionedCall/center_net_mobile_net_v2fpn_feature_extractor/model_1/model/expanded_conv_depthwise/depthwise_bn_offset"], "attr": {"fused_ops": {"list": {"s": ["Qmlhc0FkZA==", "UmVsdTY="]}}, "dilations": {"list": {"i": ["1", "1", "1", "1"]}}, "T": {"type": "DT_FLOAT"}, "data_format": {"s": "TkhXQw=="}, "strides": {"list": {"i": ["1", "1", "1", "1"]}}, "explicit_paddings": {"list": {}}, "num_args": {"i": "1"}, "padding": {"s": "U0FNRQ=="}}}, {"name": "StatefulPartitionedCall/Cast_5", "op": "Cast", "input": ["StatefulPartitionedCall/Tile_1"], "attr": {"SrcT": {"type": "DT_INT32"}, "Truncate": {"b": false}, "DstT": {"type": "DT_FLOAT"}}}, {"name": "StatefulPartitionedCall/map/while/body/_310/map/while/strided_slice", "op": "StridedSlice", "input": ["StatefulPartitionedCall/map/while/body/_310/map/while/Cast", "StatefulPartitionedCall/map/while/body/_310/map/while/strided_slice/stack", "StatefulPartitionedCall/map/while/body/_310/map/while/strided_slice/stack_1", "StatefulPartitionedCall/map/while/body/_310/map/while/strided_slice/stack_2"], "attr": {"begin_mask": {"i": "14"}, "ellipsis_mask": {"i": "0"}, "new_axis_mask": {"i": "1"}, "end_mask": {"i": "14"}, "T": {"type": "DT_FLOAT"}, "Index": {"type": "DT_INT32"}, "shrink_axis_mask": {"i": "0"}}}, {"name": "StatefulPartitionedCall/map/while/body/_310/map/while/unstack", "op": "Unpack", "input": ["StatefulPartitionedCall/map/while/body/_310/map/while/strided_slice"], "attr": {"T": {"type": "DT_FLOAT"}, "num": {"i": "1"}, "axis": {"i": "0"}}}, {"name": "StatefulPartitionedCall/map/while/body/_310/map/while/ResizeToRange/Shape", "op": "Shape", "input": ["StatefulPartitionedCall/map/while/body/_310/map/while/unstack"], "attr": {"T": {"type": "DT_FLOAT"}, "out_type": {"type": "DT_INT32"}}}, {"name": "StatefulPartitionedCall/map/while/body/_310/map/while/ResizeToRange/Shape_1", "op": "Shape", "input": ["StatefulPartitionedCall/map/while/body/_310/map/while/unstack"], "attr": {"T": {"type": "DT_FLOAT"}, "out_type": {"type": "DT_INT32"}}}, {"name": "StatefulPartitionedCall/center_net_mobile_net_v2fpn_feature_extractor/model_1/model/expanded_conv_project_BN/FusedBatchNormV3", "op": "_FusedConv2D", "input": ["StatefulPartitionedCall/center_net_mobile_net_v2fpn_feature_extractor/model_1/model/expanded_conv_depthwise/depthwise", "StatefulPartitionedCall/center_net_mobile_net_v2fpn_feature_extractor/model_1/model/expanded_conv_project/Conv2D_weights", "StatefulPartitionedCall/center_net_mobile_net_v2fpn_feature_extractor/model_1/model/expanded_conv_project/Conv2D_bn_offset"], "device": "/device:CPU:0", "attr": {"dilations": {"list": {"i": ["1", "1", "1", "1"]}}, "T": {"type": "DT_FLOAT"}, "strides": {"list": {"i": ["1", "1", "1", "1"]}}, "data_format": {"s": "TkhXQw=="}, "explicit_paddings": {"list": {}}, "use_cudnn_on_gpu": {"b": true}, "num_args": {"i": "1"}, "epsilon": {"f": 0.0}, "padding": {"s": "U0FNRQ=="}, "fused_ops": {"list": {"s": ["Qmlhc0FkZA=="]}}}}, {"name": "StatefulPartitionedCall/map/while/body/_310/map/while/ResizeToRange/strided_slice", "op": "StridedSlice", "input": ["StatefulPartitionedCall/map/while/body/_310/map/while/ResizeToRange/Shape", "StatefulPartitionedCall/map/while/body/_310/map/while/ResizeToRange/strided_slice/stack", "StatefulPartitionedCall/map/while/body/_310/map/while/ResizeToRange/strided_slice/stack_1", "StatefulPartitionedCall/map/while/body/_310/map/while/ResizeToRange/strided_slice/stack_2"], "attr": {"Index": {"type": "DT_INT32"}, "T": {"type": "DT_INT32"}, "shrink_axis_mask": {"i": "1"}, "ellipsis_mask": {"i": "0"}, "begin_mask": {"i": "0"}, "new_axis_mask": {"i": "0"}, "end_mask": {"i": "0"}}}, {"name": "StatefulPartitionedCall/map/while/body/_310/map/while/ResizeToRange/strided_slice_1", "op": "StridedSlice", "input": ["StatefulPartitionedCall/map/while/body/_310/map/while/ResizeToRange/Shape_1", "StatefulPartitionedCall/map/while/body/_310/map/while/ResizeToRange/strided_slice_1/stack", "StatefulPartitionedCall/map/while/body/_310/map/while/ResizeToRange/strided_slice_1/stack_1", "StatefulPartitionedCall/map/while/body/_310/map/while/ResizeToRange/strided_slice_1/stack_2"], "attr": {"Index": {"type": "DT_INT32"}, "T": {"type": "DT_INT32"}, "shrink_axis_mask": {"i": "1"}, "begin_mask": {"i": "0"}, "ellipsis_mask": {"i": "0"}, "new_axis_mask": {"i": "0"}, "end_mask": {"i": "0"}}}, {"name": "StatefulPartitionedCall/center_net_mobile_net_v2fpn_feature_extractor/model_1/model/block_1_expand_relu/Relu6", "op": "_FusedConv2D", "input": ["StatefulPartitionedCall/center_net_mobile_net_v2fpn_feature_extractor/model_1/model/expanded_conv_project_BN/FusedBatchNormV3", "StatefulPartitionedCall/center_net_mobile_net_v2fpn_feature_extractor/model_1/model/block_1_expand/Conv2D_weights", "StatefulPartitionedCall/center_net_mobile_net_v2fpn_feature_extractor/model_1/model/block_1_expand/Conv2D_bn_offset"], "device": "/device:CPU:0", "attr": {"fused_ops": {"list": {"s": ["Qmlhc0FkZA==", "UmVsdTY="]}}, "dilations": {"list": {"i": ["1", "1", "1", "1"]}}, "T": {"type": "DT_FLOAT"}, "data_format": {"s": "TkhXQw=="}, "strides": {"list": {"i": ["1", "1", "1", "1"]}}, "use_cudnn_on_gpu": {"b": true}, "explicit_paddings": {"list": {}}, "num_args": {"i": "1"}, "epsilon": {"f": 0.0}, "padding": {"s": "U0FNRQ=="}}}, {"name": "StatefulPartitionedCall/map/while/body/_310/map/while/ResizeToRange/Less", "op": "Less", "input": ["StatefulPartitionedCall/map/while/body/_310/map/while/ResizeToRange/strided_slice", "StatefulPartitionedCall/map/while/body/_310/map/while/ResizeToRange/strided_slice_1"], "attr": {"T": {"type": "DT_INT32"}}}, {"name": "StatefulPartitionedCall/center_net_mobile_net_v2fpn_feature_extractor/model_1/model/block_1_depthwise/depthwise", "op": "FusedDepthwiseConv2dNative", "input": ["StatefulPartitionedCall/center_net_mobile_net_v2fpn_feature_extractor/model_1/model/block_1_expand_relu/Relu6", "StatefulPartitionedCall/center_net_mobile_net_v2fpn_feature_extractor/model_1/model/block_1_depthwise/depthwise_weights", "StatefulPartitionedCall/center_net_mobile_net_v2fpn_feature_extractor/model_1/model/block_1_depthwise/depthwise_bn_offset"], "attr": {"dilations": {"list": {"i": ["1", "1", "1", "1"]}}, "T": {"type": "DT_FLOAT"}, "strides": {"list": {"i": ["1", "2", "2", "1"]}}, "data_format": {"s": "TkhXQw=="}, "explicit_paddings": {"list": {}}, "num_args": {"i": "1"}, "padding": {"s": "U0FNRQ=="}, "fused_ops": {"list": {"s": ["Qmlhc0FkZA==", "UmVsdTY="]}}}}, {"name": "StatefulPartitionedCall/map/while/body/_310/map/while/ResizeToRange/cond/switch_pred/_368", "op": "Switch", "input": ["StatefulPartitionedCall/map/while/body/_310/map/while/ResizeToRange/Less", "StatefulPartitionedCall/map/while/body/_310/map/while/ResizeToRange/Less"], "device": "/device:CPU:0", "attr": {"_PivotSwitch": {"b": true}, "T": {"type": "DT_BOOL"}}}, {"name": "StatefulPartitionedCall/map/while/body/_310/map/while/ResizeToRange/cond/StatefulPartitionedCall/map/while/body/_310/map/while/unstack/_371", "op": "Switch", "input": ["StatefulPartitionedCall/map/while/body/_310/map/while/unstack", "StatefulPartitionedCall/map/while/body/_310/map/while/ResizeToRange/Less"], "attr": {"T": {"type": "DT_FLOAT"}}}, {"name": "StatefulPartitionedCall/map/while/body/_310/map/while/ResizeToRange/cond/pivot_f/_369", "op": "Identity", "input": ["StatefulPartitionedCall/map/while/body/_310/map/while/ResizeToRange/cond/switch_pred/_368"], "attr": {"T": {"type": "DT_BOOL"}}}, {"name": "StatefulPartitionedCall/map/while/body/_310/map/while/ResizeToRange/cond/pivot_t/_370", "op": "Identity", "input": ["StatefulPartitionedCall/map/while/body/_310/map/while/ResizeToRange/cond/switch_pred/_368:1"], "attr": {"T": {"type": "DT_BOOL"}}}, {"name": "StatefulPartitionedCall/map/while/body/_310/map/while/ResizeToRange/cond/else/_367/map/while/ResizeToRange/cond/resize/Cast", "op": "Const", "input": ["^StatefulPartitionedCall/map/while/body/_310/map/while/ResizeToRange/cond/pivot_f/_369"], "attr": {"value": {"tensor": {"dtype": "DT_FLOAT", "tensorShape": {}}}, "dtype": {"type": "DT_FLOAT"}}}, {"name": "StatefulPartitionedCall/map/while/body/_310/map/while/ResizeToRange/cond/else/_367/map/while/ResizeToRange/cond/resize/Cast_2", "op": "Const", "input": ["^StatefulPartitionedCall/map/while/body/_310/map/while/ResizeToRange/cond/pivot_f/_369"], "attr": {"value": {"tensor": {"dtype": "DT_FLOAT", "tensorShape": {}}}, "dtype": {"type": "DT_FLOAT"}}}, {"name": "StatefulPartitionedCall/map/while/body/_310/map/while/ResizeToRange/cond/else/_367/map/while/ResizeToRange/cond/resize/ExpandDims/dim", "op": "Const", "input": ["^StatefulPartitionedCall/map/while/body/_310/map/while/ResizeToRange/cond/pivot_f/_369"], "attr": {"value": {"tensor": {"dtype": "DT_INT32", "tensorShape": {}}}, "dtype": {"type": "DT_INT32"}}}, {"name": "StatefulPartitionedCall/map/while/body/_310/map/while/ResizeToRange/cond/then/_366/map/while/ResizeToRange/cond/resize/Cast", "op": "Const", "input": ["^StatefulPartitionedCall/map/while/body/_310/map/while/ResizeToRange/cond/pivot_t/_370"], "attr": {"value": {"tensor": {"dtype": "DT_FLOAT", "tensorShape": {}}}, "dtype": {"type": "DT_FLOAT"}}}, {"name": "StatefulPartitionedCall/map/while/body/_310/map/while/ResizeToRange/cond/then/_366/map/while/ResizeToRange/cond/resize/Cast_2", "op": "Const", "input": ["^StatefulPartitionedCall/map/while/body/_310/map/while/ResizeToRange/cond/pivot_t/_370"], "attr": {"value": {"tensor": {"dtype": "DT_FLOAT", "tensorShape": {}}}, "dtype": {"type": "DT_FLOAT"}}}, {"name": "StatefulPartitionedCall/map/while/body/_310/map/while/ResizeToRange/cond/then/_366/map/while/ResizeToRange/cond/resize/ExpandDims/dim", "op": "Const", "input": ["^StatefulPartitionedCall/map/while/body/_310/map/while/ResizeToRange/cond/pivot_t/_370"], "attr": {"dtype": {"type": "DT_INT32"}, "value": {"tensor": {"dtype": "DT_INT32", "tensorShape": {}}}}}, {"name": "StatefulPartitionedCall/center_net_mobile_net_v2fpn_feature_extractor/model_1/model/block_1_project_BN/FusedBatchNormV3", "op": "_FusedConv2D", "input": ["StatefulPartitionedCall/center_net_mobile_net_v2fpn_feature_extractor/model_1/model/block_1_depthwise/depthwise", "StatefulPartitionedCall/center_net_mobile_net_v2fpn_feature_extractor/model_1/model/block_1_project/Conv2D_weights", "StatefulPartitionedCall/center_net_mobile_net_v2fpn_feature_extractor/model_1/model/block_1_project/Conv2D_bn_offset"], "device": "/device:CPU:0", "attr": {"data_format": {"s": "TkhXQw=="}, "strides": {"list": {"i": ["1", "1", "1", "1"]}}, "explicit_paddings": {"list": {}}, "use_cudnn_on_gpu": {"b": true}, "num_args": {"i": "1"}, "epsilon": {"f": 0.0}, "padding": {"s": "U0FNRQ=="}, "fused_ops": {"list": {"s": ["Qmlhc0FkZA=="]}}, "dilations": {"list": {"i": ["1", "1", "1", "1"]}}, "T": {"type": "DT_FLOAT"}}}, {"name": "StatefulPartitionedCall/map/while/body/_310/map/while/ResizeToRange/cond/else/_367/map/while/ResizeToRange/cond/resize/ExpandDims", "op": "ExpandDims", "input": ["StatefulPartitionedCall/map/while/body/_310/map/while/ResizeToRange/cond/StatefulPartitionedCall/map/while/body/_310/map/while/unstack/_371", "StatefulPartitionedCall/map/while/body/_310/map/while/ResizeToRange/cond/else/_367/map/while/ResizeToRange/cond/resize/ExpandDims/dim"], "attr": {"Tdim": {"type": "DT_INT32"}, "T": {"type": "DT_FLOAT"}}}, {"name": "StatefulPartitionedCall/map/while/body/_310/map/while/ResizeToRange/cond/then/_366/map/while/ResizeToRange/cond/resize/ExpandDims", "op": "ExpandDims", "input": ["StatefulPartitionedCall/map/while/body/_310/map/while/ResizeToRange/cond/StatefulPartitionedCall/map/while/body/_310/map/while/unstack/_371:1", "StatefulPartitionedCall/map/while/body/_310/map/while/ResizeToRange/cond/then/_366/map/while/ResizeToRange/cond/resize/ExpandDims/dim"], "attr": {"Tdim": {"type": "DT_INT32"}, "T": {"type": "DT_FLOAT"}}}, {"name": "StatefulPartitionedCall/center_net_mobile_net_v2fpn_feature_extractor/model_1/model/block_2_expand_relu/Relu6", "op": "_FusedConv2D", "input": ["StatefulPartitionedCall/center_net_mobile_net_v2fpn_feature_extractor/model_1/model/block_1_project_BN/FusedBatchNormV3", "StatefulPartitionedCall/center_net_mobile_net_v2fpn_feature_extractor/model_1/model/block_2_expand/Conv2D_weights", "StatefulPartitionedCall/center_net_mobile_net_v2fpn_feature_extractor/model_1/model/block_2_expand/Conv2D_bn_offset"], "device": "/device:CPU:0", "attr": {"strides": {"list": {"i": ["1", "1", "1", "1"]}}, "data_format": {"s": "TkhXQw=="}, "use_cudnn_on_gpu": {"b": true}, "explicit_paddings": {"list": {}}, "num_args": {"i": "1"}, "epsilon": {"f": 0.0}, "padding": {"s": "U0FNRQ=="}, "fused_ops": {"list": {"s": ["Qmlhc0FkZA==", "UmVsdTY="]}}, "dilations": {"list": {"i": ["1", "1", "1", "1"]}}, "T": {"type": "DT_FLOAT"}}}, {"name": "StatefulPartitionedCall/map/while/body/_310/map/while/ResizeToRange/cond/else/_367/map/while/ResizeToRange/cond/resize/Shape", "op": "Shape", "input": ["StatefulPartitionedCall/map/while/body/_310/map/while/ResizeToRange/cond/else/_367/map/while/ResizeToRange/cond/resize/ExpandDims"], "attr": {"T": {"type": "DT_FLOAT"}, "out_type": {"type": "DT_INT32"}}}, {"name": "StatefulPartitionedCall/map/while/body/_310/map/while/ResizeToRange/cond/then/_366/map/while/ResizeToRange/cond/resize/Shape", "op": "Shape", "input": ["StatefulPartitionedCall/map/while/body/_310/map/while/ResizeToRange/cond/then/_366/map/while/ResizeToRange/cond/resize/ExpandDims"], "attr": {"T": {"type": "DT_FLOAT"}, "out_type": {"type": "DT_INT32"}}}, {"name": "StatefulPartitionedCall/center_net_mobile_net_v2fpn_feature_extractor/model_1/model/block_2_depthwise/depthwise", "op": "FusedDepthwiseConv2dNative", "input": ["StatefulPartitionedCall/center_net_mobile_net_v2fpn_feature_extractor/model_1/model/block_2_expand_relu/Relu6", "StatefulPartitionedCall/center_net_mobile_net_v2fpn_feature_extractor/model_1/model/block_2_depthwise/depthwise_weights", "StatefulPartitionedCall/center_net_mobile_net_v2fpn_feature_extractor/model_1/model/block_2_depthwise/depthwise_bn_offset"], "attr": {"dilations": {"list": {"i": ["1", "1", "1", "1"]}}, "T": {"type": "DT_FLOAT"}, "data_format": {"s": "TkhXQw=="}, "strides": {"list": {"i": ["1", "1", "1", "1"]}}, "explicit_paddings": {"list": {}}, "num_args": {"i": "1"}, "padding": {"s": "U0FNRQ=="}, "fused_ops": {"list": {"s": ["Qmlhc0FkZA==", "UmVsdTY="]}}}}, {"name": "StatefulPartitionedCall/map/while/body/_310/map/while/ResizeToRange/cond/else/_367/map/while/ResizeToRange/cond/resize/unstack", "op": "Unpack", "input": ["StatefulPartitionedCall/map/while/body/_310/map/while/ResizeToRange/cond/else/_367/map/while/ResizeToRange/cond/resize/Shape"], "attr": {"T": {"type": "DT_INT32"}, "num": {"i": "4"}, "axis": {"i": "0"}}}, {"name": "StatefulPartitionedCall/map/while/body/_310/map/while/ResizeToRange/cond/then/_366/map/while/ResizeToRange/cond/resize/unstack", "op": "Unpack", "input": ["StatefulPartitionedCall/map/while/body/_310/map/while/ResizeToRange/cond/then/_366/map/while/ResizeToRange/cond/resize/Shape"], "attr": {"T": {"type": "DT_INT32"}, "num": {"i": "4"}, "axis": {"i": "0"}}}, {"name": "StatefulPartitionedCall/map/while/body/_310/map/while/ResizeToRange/cond/else/_367/map/while/ResizeToRange/cond/resize/Cast_4", "op": "Cast", "input": ["StatefulPartitionedCall/map/while/body/_310/map/while/ResizeToRange/cond/else/_367/map/while/ResizeToRange/cond/resize/unstack:1"], "attr": {"SrcT": {"type": "DT_INT32"}, "Truncate": {"b": false}, "DstT": {"type": "DT_FLOAT"}}}, {"name": "StatefulPartitionedCall/map/while/body/_310/map/while/ResizeToRange/cond/else/_367/map/while/ResizeToRange/cond/resize/Cast_1", "op": "Cast", "input": ["StatefulPartitionedCall/map/while/body/_310/map/while/ResizeToRange/cond/else/_367/map/while/ResizeToRange/cond/resize/unstack:1"], "attr": {"SrcT": {"type": "DT_INT32"}, "Truncate": {"b": false}, "DstT": {"type": "DT_FLOAT"}}}, {"name": "StatefulPartitionedCall/map/while/body/_310/map/while/ResizeToRange/cond/else/_367/map/while/ResizeToRange/cond/resize/Cast_3", "op": "Cast", "input": ["StatefulPartitionedCall/map/while/body/_310/map/while/ResizeToRange/cond/else/_367/map/while/ResizeToRange/cond/resize/unstack:2"], "attr": {"SrcT": {"type": "DT_INT32"}, "Truncate": {"b": false}, "DstT": {"type": "DT_FLOAT"}}}, {"name": "StatefulPartitionedCall/map/while/body/_310/map/while/ResizeToRange/cond/else/_367/map/while/ResizeToRange/cond/resize/Cast_6", "op": "Cast", "input": ["StatefulPartitionedCall/map/while/body/_310/map/while/ResizeToRange/cond/else/_367/map/while/ResizeToRange/cond/resize/unstack:2"], "attr": {"SrcT": {"type": "DT_INT32"}, "Truncate": {"b": false}, "DstT": {"type": "DT_FLOAT"}}}, {"name": "StatefulPartitionedCall/map/while/body/_310/map/while/ResizeToRange/cond/then/_366/map/while/ResizeToRange/cond/resize/Cast_4", "op": "Cast", "input": ["StatefulPartitionedCall/map/while/body/_310/map/while/ResizeToRange/cond/then/_366/map/while/ResizeToRange/cond/resize/unstack:1"], "attr": {"SrcT": {"type": "DT_INT32"}, "Truncate": {"b": false}, "DstT": {"type": "DT_FLOAT"}}}, {"name": "StatefulPartitionedCall/map/while/body/_310/map/while/ResizeToRange/cond/then/_366/map/while/ResizeToRange/cond/resize/Cast_1", "op": "Cast", "input": ["StatefulPartitionedCall/map/while/body/_310/map/while/ResizeToRange/cond/then/_366/map/while/ResizeToRange/cond/resize/unstack:1"], "attr": {"SrcT": {"type": "DT_INT32"}, "Truncate": {"b": false}, "DstT": {"type": "DT_FLOAT"}}}, {"name": "StatefulPartitionedCall/map/while/body/_310/map/while/ResizeToRange/cond/then/_366/map/while/ResizeToRange/cond/resize/Cast_3", "op": "Cast", "input": ["StatefulPartitionedCall/map/while/body/_310/map/while/ResizeToRange/cond/then/_366/map/while/ResizeToRange/cond/resize/unstack:2"], "attr": {"SrcT": {"type": "DT_INT32"}, "Truncate": {"b": false}, "DstT": {"type": "DT_FLOAT"}}}, {"name": "StatefulPartitionedCall/map/while/body/_310/map/while/ResizeToRange/cond/then/_366/map/while/ResizeToRange/cond/resize/Cast_6", "op": "Cast", "input": ["StatefulPartitionedCall/map/while/body/_310/map/while/ResizeToRange/cond/then/_366/map/while/ResizeToRange/cond/resize/unstack:2"], "attr": {"SrcT": {"type": "DT_INT32"}, "Truncate": {"b": false}, "DstT": {"type": "DT_FLOAT"}}}, {"name": "StatefulPartitionedCall/map/while/body/_310/map/while/ResizeToRange/cond/else/_367/map/while/ResizeToRange/cond/resize/truediv", "op": "RealDiv", "input": ["StatefulPartitionedCall/map/while/body/_310/map/while/ResizeToRange/cond/else/_367/map/while/ResizeToRange/cond/resize/Cast", "StatefulPartitionedCall/map/while/body/_310/map/while/ResizeToRange/cond/else/_367/map/while/ResizeToRange/cond/resize/Cast_1"], "attr": {"T": {"type": "DT_FLOAT"}}}, {"name": "StatefulPartitionedCall/map/while/body/_310/map/while/ResizeToRange/cond/else/_367/map/while/ResizeToRange/cond/resize/truediv_1", "op": "RealDiv", "input": ["StatefulPartitionedCall/map/while/body/_310/map/while/ResizeToRange/cond/else/_367/map/while/ResizeToRange/cond/resize/Cast_2", "StatefulPartitionedCall/map/while/body/_310/map/while/ResizeToRange/cond/else/_367/map/while/ResizeToRange/cond/resize/Cast_3"], "attr": {"T": {"type": "DT_FLOAT"}}}, {"name": "StatefulPartitionedCall/map/while/body/_310/map/while/ResizeToRange/cond/then/_366/map/while/ResizeToRange/cond/resize/truediv", "op": "RealDiv", "input": ["StatefulPartitionedCall/map/while/body/_310/map/while/ResizeToRange/cond/then/_366/map/while/ResizeToRange/cond/resize/Cast", "StatefulPartitionedCall/map/while/body/_310/map/while/ResizeToRange/cond/then/_366/map/while/ResizeToRange/cond/resize/Cast_1"], "attr": {"T": {"type": "DT_FLOAT"}}}, {"name": "StatefulPartitionedCall/map/while/body/_310/map/while/ResizeToRange/cond/then/_366/map/while/ResizeToRange/cond/resize/truediv_1", "op": "RealDiv", "input": ["StatefulPartitionedCall/map/while/body/_310/map/while/ResizeToRange/cond/then/_366/map/while/ResizeToRange/cond/resize/Cast_2", "StatefulPartitionedCall/map/while/body/_310/map/while/ResizeToRange/cond/then/_366/map/while/ResizeToRange/cond/resize/Cast_3"], "attr": {"T": {"type": "DT_FLOAT"}}}, {"name": "StatefulPartitionedCall/center_net_mobile_net_v2fpn_feature_extractor/model_1/model/block_2_project_BN/FusedBatchNormV3", "op": "_FusedConv2D", "input": ["StatefulPartitionedCall/center_net_mobile_net_v2fpn_feature_extractor/model_1/model/block_2_depthwise/depthwise", "StatefulPartitionedCall/center_net_mobile_net_v2fpn_feature_extractor/model_1/model/block_2_project/Conv2D_weights", "StatefulPartitionedCall/center_net_mobile_net_v2fpn_feature_extractor/model_1/model/block_2_project/Conv2D_bn_offset"], "device": "/device:CPU:0", "attr": {"strides": {"list": {"i": ["1", "1", "1", "1"]}}, "data_format": {"s": "TkhXQw=="}, "explicit_paddings": {"list": {}}, "use_cudnn_on_gpu": {"b": true}, "num_args": {"i": "1"}, "epsilon": {"f": 0.0}, "padding": {"s": "U0FNRQ=="}, "fused_ops": {"list": {"s": ["Qmlhc0FkZA=="]}}, "dilations": {"list": {"i": ["1", "1", "1", "1"]}}, "T": {"type": "DT_FLOAT"}}}, {"name": "StatefulPartitionedCall/map/while/body/_310/map/while/ResizeToRange/cond/else/_367/map/while/ResizeToRange/cond/resize/Minimum", "op": "Minimum", "input": ["StatefulPartitionedCall/map/while/body/_310/map/while/ResizeToRange/cond/else/_367/map/while/ResizeToRange/cond/resize/truediv", "StatefulPartitionedCall/map/while/body/_310/map/while/ResizeToRange/cond/else/_367/map/while/ResizeToRange/cond/resize/truediv_1"], "attr": {"T": {"type": "DT_FLOAT"}}}, {"name": "StatefulPartitionedCall/map/while/body/_310/map/while/ResizeToRange/cond/then/_366/map/while/ResizeToRange/cond/resize/Minimum", "op": "Minimum", "input": ["StatefulPartitionedCall/map/while/body/_310/map/while/ResizeToRange/cond/then/_366/map/while/ResizeToRange/cond/resize/truediv", "StatefulPartitionedCall/map/while/body/_310/map/while/ResizeToRange/cond/then/_366/map/while/ResizeToRange/cond/resize/truediv_1"], "attr": {"T": {"type": "DT_FLOAT"}}}, {"name": "StatefulPartitionedCall/center_net_mobile_net_v2fpn_feature_extractor/model_1/model/block_2_add/add", "op": "AddV2", "input": ["StatefulPartitionedCall/center_net_mobile_net_v2fpn_feature_extractor/model_1/model/block_1_project_BN/FusedBatchNormV3", "StatefulPartitionedCall/center_net_mobile_net_v2fpn_feature_extractor/model_1/model/block_2_project_BN/FusedBatchNormV3"], "attr": {"T": {"type": "DT_FLOAT"}}}, {"name": "StatefulPartitionedCall/map/while/body/_310/map/while/ResizeToRange/cond/else/_367/map/while/ResizeToRange/cond/resize/mul", "op": "Mul", "input": ["StatefulPartitionedCall/map/while/body/_310/map/while/ResizeToRange/cond/else/_367/map/while/ResizeToRange/cond/resize/Minimum", "StatefulPartitionedCall/map/while/body/_310/map/while/ResizeToRange/cond/else/_367/map/while/ResizeToRange/cond/resize/Cast_4"], "attr": {"T": {"type": "DT_FLOAT"}}}, {"name": "StatefulPartitionedCall/map/while/body/_310/map/while/ResizeToRange/cond/else/_367/map/while/ResizeToRange/cond/resize/mul_1", "op": "Mul", "input": ["StatefulPartitionedCall/map/while/body/_310/map/while/ResizeToRange/cond/else/_367/map/while/ResizeToRange/cond/resize/Minimum", "StatefulPartitionedCall/map/while/body/_310/map/while/ResizeToRange/cond/else/_367/map/while/ResizeToRange/cond/resize/Cast_6"], "attr": {"T": {"type": "DT_FLOAT"}}}, {"name": "StatefulPartitionedCall/map/while/body/_310/map/while/ResizeToRange/cond/then/_366/map/while/ResizeToRange/cond/resize/mul", "op": "Mul", "input": ["StatefulPartitionedCall/map/while/body/_310/map/while/ResizeToRange/cond/then/_366/map/while/ResizeToRange/cond/resize/Minimum", "StatefulPartitionedCall/map/while/body/_310/map/while/ResizeToRange/cond/then/_366/map/while/ResizeToRange/cond/resize/Cast_4"], "attr": {"T": {"type": "DT_FLOAT"}}}, {"name": "StatefulPartitionedCall/map/while/body/_310/map/while/ResizeToRange/cond/then/_366/map/while/ResizeToRange/cond/resize/mul_1", "op": "Mul", "input": ["StatefulPartitionedCall/map/while/body/_310/map/while/ResizeToRange/cond/then/_366/map/while/ResizeToRange/cond/resize/Minimum", "StatefulPartitionedCall/map/while/body/_310/map/while/ResizeToRange/cond/then/_366/map/while/ResizeToRange/cond/resize/Cast_6"], "attr": {"T": {"type": "DT_FLOAT"}}}, {"name": "StatefulPartitionedCall/center_net_mobile_net_v2fpn_feature_extractor/model_1/conv2d_3/BiasAdd", "op": "_FusedConv2D", "input": ["StatefulPartitionedCall/center_net_mobile_net_v2fpn_feature_extractor/model_1/model/block_2_add/add", "StatefulPartitionedCall/center_net_mobile_net_v2fpn_feature_extractor/model_1/conv2d_3/Conv2D/ReadVariableOp", "StatefulPartitionedCall/center_net_mobile_net_v2fpn_feature_extractor/model_1/conv2d_3/BiasAdd/ReadVariableOp"], "device": "/device:CPU:0", "attr": {"num_args": {"i": "1"}, "epsilon": {"f": 0.0}, "padding": {"s": "U0FNRQ=="}, "fused_ops": {"list": {"s": ["Qmlhc0FkZA=="]}}, "dilations": {"list": {"i": ["1", "1", "1", "1"]}}, "T": {"type": "DT_FLOAT"}, "strides": {"list": {"i": ["1", "1", "1", "1"]}}, "data_format": {"s": "TkhXQw=="}, "use_cudnn_on_gpu": {"b": true}, "explicit_paddings": {"list": {}}}}, {"name": "StatefulPartitionedCall/center_net_mobile_net_v2fpn_feature_extractor/model_1/model/block_3_expand_relu/Relu6", "op": "_FusedConv2D", "input": ["StatefulPartitionedCall/center_net_mobile_net_v2fpn_feature_extractor/model_1/model/block_2_add/add", "StatefulPartitionedCall/center_net_mobile_net_v2fpn_feature_extractor/model_1/model/block_3_expand/Conv2D_weights", "StatefulPartitionedCall/center_net_mobile_net_v2fpn_feature_extractor/model_1/model/block_3_expand/Conv2D_bn_offset"], "device": "/device:CPU:0", "attr": {"strides": {"list": {"i": ["1", "1", "1", "1"]}}, "data_format": {"s": "TkhXQw=="}, "use_cudnn_on_gpu": {"b": true}, "explicit_paddings": {"list": {}}, "num_args": {"i": "1"}, "epsilon": {"f": 0.0}, "padding": {"s": "U0FNRQ=="}, "fused_ops": {"list": {"s": ["Qmlhc0FkZA==", "UmVsdTY="]}}, "dilations": {"list": {"i": ["1", "1", "1", "1"]}}, "T": {"type": "DT_FLOAT"}}}, {"name": "StatefulPartitionedCall/map/while/body/_310/map/while/ResizeToRange/cond/else/_367/map/while/ResizeToRange/cond/resize/Round", "op": "Round", "input": ["StatefulPartitionedCall/map/while/body/_310/map/while/ResizeToRange/cond/else/_367/map/while/ResizeToRange/cond/resize/mul"], "attr": {"T": {"type": "DT_FLOAT"}}}, {"name": "StatefulPartitionedCall/map/while/body/_310/map/while/ResizeToRange/cond/else/_367/map/while/ResizeToRange/cond/resize/Round_1", "op": "Round", "input": ["StatefulPartitionedCall/map/while/body/_310/map/while/ResizeToRange/cond/else/_367/map/while/ResizeToRange/cond/resize/mul_1"], "attr": {"T": {"type": "DT_FLOAT"}}}, {"name": "StatefulPartitionedCall/map/while/body/_310/map/while/ResizeToRange/cond/then/_366/map/while/ResizeToRange/cond/resize/Round", "op": "Round", "input": ["StatefulPartitionedCall/map/while/body/_310/map/while/ResizeToRange/cond/then/_366/map/while/ResizeToRange/cond/resize/mul"], "attr": {"T": {"type": "DT_FLOAT"}}}, {"name": "StatefulPartitionedCall/map/while/body/_310/map/while/ResizeToRange/cond/then/_366/map/while/ResizeToRange/cond/resize/Round_1", "op": "Round", "input": ["StatefulPartitionedCall/map/while/body/_310/map/while/ResizeToRange/cond/then/_366/map/while/ResizeToRange/cond/resize/mul_1"], "attr": {"T": {"type": "DT_FLOAT"}}}, {"name": "StatefulPartitionedCall/center_net_mobile_net_v2fpn_feature_extractor/model_1/model/block_3_depthwise/depthwise", "op": "FusedDepthwiseConv2dNative", "input": ["StatefulPartitionedCall/center_net_mobile_net_v2fpn_feature_extractor/model_1/model/block_3_expand_relu/Relu6", "StatefulPartitionedCall/center_net_mobile_net_v2fpn_feature_extractor/model_1/model/block_3_depthwise/depthwise_weights", "StatefulPartitionedCall/center_net_mobile_net_v2fpn_feature_extractor/model_1/model/block_3_depthwise/depthwise_bn_offset"], "attr": {"dilations": {"list": {"i": ["1", "1", "1", "1"]}}, "T": {"type": "DT_FLOAT"}, "data_format": {"s": "TkhXQw=="}, "strides": {"list": {"i": ["1", "2", "2", "1"]}}, "explicit_paddings": {"list": {}}, "num_args": {"i": "1"}, "padding": {"s": "U0FNRQ=="}, "fused_ops": {"list": {"s": ["Qmlhc0FkZA==", "UmVsdTY="]}}}}, {"name": "StatefulPartitionedCall/map/while/body/_310/map/while/ResizeToRange/cond/else/_367/map/while/ResizeToRange/cond/resize/Cast_5", "op": "Cast", "input": ["StatefulPartitionedCall/map/while/body/_310/map/while/ResizeToRange/cond/else/_367/map/while/ResizeToRange/cond/resize/Round"], "attr": {"SrcT": {"type": "DT_FLOAT"}, "Truncate": {"b": false}, "DstT": {"type": "DT_INT32"}}}, {"name": "StatefulPartitionedCall/map/while/body/_310/map/while/ResizeToRange/cond/else/_367/map/while/ResizeToRange/cond/resize/Cast_7", "op": "Cast", "input": ["StatefulPartitionedCall/map/while/body/_310/map/while/ResizeToRange/cond/else/_367/map/while/ResizeToRange/cond/resize/Round_1"], "attr": {"SrcT": {"type": "DT_FLOAT"}, "Truncate": {"b": false}, "DstT": {"type": "DT_INT32"}}}, {"name": "StatefulPartitionedCall/map/while/body/_310/map/while/ResizeToRange/cond/then/_366/map/while/ResizeToRange/cond/resize/Cast_5", "op": "Cast", "input": ["StatefulPartitionedCall/map/while/body/_310/map/while/ResizeToRange/cond/then/_366/map/while/ResizeToRange/cond/resize/Round"], "attr": {"Truncate": {"b": false}, "DstT": {"type": "DT_INT32"}, "SrcT": {"type": "DT_FLOAT"}}}, {"name": "StatefulPartitionedCall/map/while/body/_310/map/while/ResizeToRange/cond/then/_366/map/while/ResizeToRange/cond/resize/Cast_7", "op": "Cast", "input": ["StatefulPartitionedCall/map/while/body/_310/map/while/ResizeToRange/cond/then/_366/map/while/ResizeToRange/cond/resize/Round_1"], "attr": {"SrcT": {"type": "DT_FLOAT"}, "Truncate": {"b": false}, "DstT": {"type": "DT_INT32"}}}, {"name": "StatefulPartitionedCall/map/while/body/_310/map/while/ResizeToRange/cond/else/_367/map/while/ResizeToRange/cond/resize/size", "op": "Pack", "input": ["StatefulPartitionedCall/map/while/body/_310/map/while/ResizeToRange/cond/else/_367/map/while/ResizeToRange/cond/resize/Cast_5", "StatefulPartitionedCall/map/while/body/_310/map/while/ResizeToRange/cond/else/_367/map/while/ResizeToRange/cond/resize/Cast_7"], "attr": {"N": {"i": "2"}, "T": {"type": "DT_INT32"}, "axis": {"i": "0"}}}, {"name": "StatefulPartitionedCall/map/while/body/_310/map/while/ResizeToRange/cond/then/_366/map/while/ResizeToRange/cond/resize/size", "op": "Pack", "input": ["StatefulPartitionedCall/map/while/body/_310/map/while/ResizeToRange/cond/then/_366/map/while/ResizeToRange/cond/resize/Cast_5", "StatefulPartitionedCall/map/while/body/_310/map/while/ResizeToRange/cond/then/_366/map/while/ResizeToRange/cond/resize/Cast_7"], "attr": {"T": {"type": "DT_INT32"}, "axis": {"i": "0"}, "N": {"i": "2"}}}, {"name": "StatefulPartitionedCall/map/while/body/_310/map/while/ResizeToRange/cond/else/_367/map/while/ResizeToRange/cond/resize/ResizeBilinear", "op": "ResizeBilinear", "input": ["StatefulPartitionedCall/map/while/body/_310/map/while/ResizeToRange/cond/else/_367/map/while/ResizeToRange/cond/resize/ExpandDims", "StatefulPartitionedCall/map/while/body/_310/map/while/ResizeToRange/cond/else/_367/map/while/ResizeToRange/cond/resize/size"], "attr": {"T": {"type": "DT_FLOAT"}, "align_corners": {"b": false}, "half_pixel_centers": {"b": false}}}, {"name": "StatefulPartitionedCall/map/while/body/_310/map/while/ResizeToRange/cond/then/_366/map/while/ResizeToRange/cond/resize/ResizeBilinear", "op": "ResizeBilinear", "input": ["StatefulPartitionedCall/map/while/body/_310/map/while/ResizeToRange/cond/then/_366/map/while/ResizeToRange/cond/resize/ExpandDims", "StatefulPartitionedCall/map/while/body/_310/map/while/ResizeToRange/cond/then/_366/map/while/ResizeToRange/cond/resize/size"], "attr": {"align_corners": {"b": false}, "half_pixel_centers": {"b": false}, "T": {"type": "DT_FLOAT"}}}, {"name": "StatefulPartitionedCall/center_net_mobile_net_v2fpn_feature_extractor/model_1/model/block_3_project_BN/FusedBatchNormV3", "op": "_FusedConv2D", "input": ["StatefulPartitionedCall/center_net_mobile_net_v2fpn_feature_extractor/model_1/model/block_3_depthwise/depthwise", "StatefulPartitionedCall/center_net_mobile_net_v2fpn_feature_extractor/model_1/model/block_3_project/Conv2D_weights", "StatefulPartitionedCall/center_net_mobile_net_v2fpn_feature_extractor/model_1/model/block_3_project/Conv2D_bn_offset"], "device": "/device:CPU:0", "attr": {"dilations": {"list": {"i": ["1", "1", "1", "1"]}}, "T": {"type": "DT_FLOAT"}, "strides": {"list": {"i": ["1", "1", "1", "1"]}}, "data_format": {"s": "TkhXQw=="}, "use_cudnn_on_gpu": {"b": true}, "explicit_paddings": {"list": {}}, "num_args": {"i": "1"}, "epsilon": {"f": 0.0}, "padding": {"s": "U0FNRQ=="}, "fused_ops": {"list": {"s": ["Qmlhc0FkZA=="]}}}}, {"name": "StatefulPartitionedCall/map/while/body/_310/map/while/ResizeToRange/cond/else/_367/map/while/ResizeToRange/cond/resize/Squeeze", "op": "Squeeze", "input": ["StatefulPartitionedCall/map/while/body/_310/map/while/ResizeToRange/cond/else/_367/map/while/ResizeToRange/cond/resize/ResizeBilinear"], "attr": {"squeeze_dims": {"list": {"i": ["0"]}}, "T": {"type": "DT_FLOAT"}}}, {"name": "StatefulPartitionedCall/map/while/body/_310/map/while/ResizeToRange/cond/then/_366/map/while/ResizeToRange/cond/resize/Squeeze", "op": "Squeeze", "input": ["StatefulPartitionedCall/map/while/body/_310/map/while/ResizeToRange/cond/then/_366/map/while/ResizeToRange/cond/resize/ResizeBilinear"], "attr": {"squeeze_dims": {"list": {"i": ["0"]}}, "T": {"type": "DT_FLOAT"}}}, {"name": "StatefulPartitionedCall/center_net_mobile_net_v2fpn_feature_extractor/model_1/model/block_4_expand_relu/Relu6", "op": "_FusedConv2D", "input": ["StatefulPartitionedCall/center_net_mobile_net_v2fpn_feature_extractor/model_1/model/block_3_project_BN/FusedBatchNormV3", "StatefulPartitionedCall/center_net_mobile_net_v2fpn_feature_extractor/model_1/model/block_4_expand/Conv2D_weights", "StatefulPartitionedCall/center_net_mobile_net_v2fpn_feature_extractor/model_1/model/block_4_expand/Conv2D_bn_offset"], "device": "/device:CPU:0", "attr": {"dilations": {"list": {"i": ["1", "1", "1", "1"]}}, "T": {"type": "DT_FLOAT"}, "data_format": {"s": "TkhXQw=="}, "strides": {"list": {"i": ["1", "1", "1", "1"]}}, "explicit_paddings": {"list": {}}, "use_cudnn_on_gpu": {"b": true}, "num_args": {"i": "1"}, "epsilon": {"f": 0.0}, "padding": {"s": "U0FNRQ=="}, "fused_ops": {"list": {"s": ["Qmlhc0FkZA==", "UmVsdTY="]}}}}, {"name": "StatefulPartitionedCall/map/while/body/_310/map/while/ResizeToRange/cond/output/_372", "op": "Merge", "input": ["StatefulPartitionedCall/map/while/body/_310/map/while/ResizeToRange/cond/then/_366/map/while/ResizeToRange/cond/resize/Squeeze", "StatefulPartitionedCall/map/while/body/_310/map/while/ResizeToRange/cond/else/_367/map/while/ResizeToRange/cond/resize/Squeeze"], "attr": {"T": {"type": "DT_FLOAT"}, "N": {"i": "2"}}}, {"name": "StatefulPartitionedCall/center_net_mobile_net_v2fpn_feature_extractor/model_1/model/block_4_depthwise/depthwise", "op": "FusedDepthwiseConv2dNative", "input": ["StatefulPartitionedCall/center_net_mobile_net_v2fpn_feature_extractor/model_1/model/block_4_expand_relu/Relu6", "StatefulPartitionedCall/center_net_mobile_net_v2fpn_feature_extractor/model_1/model/block_4_depthwise/depthwise_weights", "StatefulPartitionedCall/center_net_mobile_net_v2fpn_feature_extractor/model_1/model/block_4_depthwise/depthwise_bn_offset"], "attr": {"T": {"type": "DT_FLOAT"}, "data_format": {"s": "TkhXQw=="}, "strides": {"list": {"i": ["1", "1", "1", "1"]}}, "explicit_paddings": {"list": {}}, "num_args": {"i": "1"}, "padding": {"s": "U0FNRQ=="}, "fused_ops": {"list": {"s": ["Qmlhc0FkZA==", "UmVsdTY="]}}, "dilations": {"list": {"i": ["1", "1", "1", "1"]}}}}, {"name": "StatefulPartitionedCall/map/while/body/_310/map/while/ResizeToRange/unstack", "op": "Unpack", "input": ["StatefulPartitionedCall/map/while/body/_310/map/while/ResizeToRange/cond/output/_372"], "attr": {"T": {"type": "DT_FLOAT"}, "num": {"i": "3"}, "axis": {"i": "2"}}}, {"name": "StatefulPartitionedCall/map/while/body/_310/map/while/ResizeToRange/Shape_2", "op": "Shape", "input": ["StatefulPartitionedCall/map/while/body/_310/map/while/ResizeToRange/cond/output/_372"], "attr": {"T": {"type": "DT_FLOAT"}, "out_type": {"type": "DT_INT32"}}}, {"name": "StatefulPartitionedCall/map/while/body/_310/map/while/ResizeToRange/strided_slice_2", "op": "StridedSlice", "input": ["StatefulPartitionedCall/map/while/body/_310/map/while/ResizeToRange/Shape_2", "StatefulPartitionedCall/map/while/body/_310/map/while/ResizeToRange/strided_slice_2/stack", "StatefulPartitionedCall/map/while/body/_310/map/while/ResizeToRange/strided_slice_2/stack_1", "StatefulPartitionedCall/map/while/body/_310/map/while/ResizeToRange/strided_slice_2/stack_2"], "attr": {"begin_mask": {"i": "0"}, "ellipsis_mask": {"i": "0"}, "new_axis_mask": {"i": "0"}, "end_mask": {"i": "0"}, "T": {"type": "DT_INT32"}, "Index": {"type": "DT_INT32"}, "shrink_axis_mask": {"i": "1"}}}, {"name": "StatefulPartitionedCall/map/while/body/_310/map/while/ResizeToRange/strided_slice_3", "op": "StridedSlice", "input": ["StatefulPartitionedCall/map/while/body/_310/map/while/ResizeToRange/Shape_2", "StatefulPartitionedCall/map/while/body/_310/map/while/ResizeToRange/strided_slice_3/stack", "StatefulPartitionedCall/map/while/body/_310/map/while/ResizeToRange/strided_slice_3/stack_1", "StatefulPartitionedCall/map/while/body/_310/map/while/ResizeToRange/strided_slice_3/stack_2"], "attr": {"ellipsis_mask": {"i": "0"}, "begin_mask": {"i": "0"}, "new_axis_mask": {"i": "0"}, "end_mask": {"i": "0"}, "T": {"type": "DT_INT32"}, "Index": {"type": "DT_INT32"}, "shrink_axis_mask": {"i": "1"}}}, {"name": "StatefulPartitionedCall/map/while/body/_310/map/while/ResizeToRange/strided_slice_4", "op": "StridedSlice", "input": ["StatefulPartitionedCall/map/while/body/_310/map/while/ResizeToRange/Shape_2", "StatefulPartitionedCall/map/while/body/_310/map/while/ResizeToRange/strided_slice_4/stack", "StatefulPartitionedCall/map/while/body/_310/map/while/ResizeToRange/strided_slice_4/stack_1", "StatefulPartitionedCall/map/while/body/_310/map/while/ResizeToRange/strided_slice_4/stack_2"], "attr": {"T": {"type": "DT_INT32"}, "Index": {"type": "DT_INT32"}, "shrink_axis_mask": {"i": "1"}, "begin_mask": {"i": "0"}, "ellipsis_mask": {"i": "0"}, "new_axis_mask": {"i": "0"}, "end_mask": {"i": "0"}}}, {"name": "StatefulPartitionedCall/map/while/body/_310/map/while/ResizeToRange/strided_slice_5", "op": "StridedSlice", "input": ["StatefulPartitionedCall/map/while/body/_310/map/while/ResizeToRange/Shape_2", "StatefulPartitionedCall/map/while/body/_310/map/while/ResizeToRange/strided_slice_5/stack", "StatefulPartitionedCall/map/while/body/_310/map/while/ResizeToRange/strided_slice_5/stack_1", "StatefulPartitionedCall/map/while/body/_310/map/while/ResizeToRange/strided_slice_5/stack_2"], "attr": {"T": {"type": "DT_INT32"}, "Index": {"type": "DT_INT32"}, "shrink_axis_mask": {"i": "1"}, "ellipsis_mask": {"i": "0"}, "begin_mask": {"i": "0"}, "new_axis_mask": {"i": "0"}, "end_mask": {"i": "0"}}}, {"name": "StatefulPartitionedCall/map/while/body/_310/map/while/ResizeToRange/strided_slice_6", "op": "StridedSlice", "input": ["StatefulPartitionedCall/map/while/body/_310/map/while/ResizeToRange/Shape_2", "StatefulPartitionedCall/map/while/body/_310/map/while/ResizeToRange/strided_slice_6/stack", "StatefulPartitionedCall/map/while/body/_310/map/while/ResizeToRange/strided_slice_6/stack_1", "StatefulPartitionedCall/map/while/body/_310/map/while/ResizeToRange/strided_slice_6/stack_2"], "attr": {"Index": {"type": "DT_INT32"}, "T": {"type": "DT_INT32"}, "shrink_axis_mask": {"i": "1"}, "begin_mask": {"i": "0"}, "ellipsis_mask": {"i": "0"}, "new_axis_mask": {"i": "0"}, "end_mask": {"i": "0"}}}, {"name": "StatefulPartitionedCall/map/while/body/_310/map/while/ResizeToRange/strided_slice_7", "op": "StridedSlice", "input": ["StatefulPartitionedCall/map/while/body/_310/map/while/ResizeToRange/Shape_2", "StatefulPartitionedCall/map/while/body/_310/map/while/ResizeToRange/strided_slice_7/stack", "StatefulPartitionedCall/map/while/body/_310/map/while/ResizeToRange/strided_slice_7/stack_1", "StatefulPartitionedCall/map/while/body/_310/map/while/ResizeToRange/strided_slice_7/stack_2"], "attr": {"T": {"type": "DT_INT32"}, "Index": {"type": "DT_INT32"}, "shrink_axis_mask": {"i": "1"}, "ellipsis_mask": {"i": "0"}, "begin_mask": {"i": "0"}, "new_axis_mask": {"i": "0"}, "end_mask": {"i": "0"}}}, {"name": "ConstantFolding/StatefulPartitionedCall/map/while/body/_310/map/while/stack_1_const_axis", "op": "Const", "input": ["^StatefulPartitionedCall/map/while/body/_310/map/while/ResizeToRange/Shape_2"], "attr": {"value": {"tensor": {"dtype": "DT_INT32", "tensorShape": {}}}, "dtype": {"type": "DT_INT32"}}}, {"name": "StatefulPartitionedCall/map/while/body/_310/map/while/ResizeToRange/sub", "op": "Sub", "input": ["StatefulPartitionedCall/map/while/body/_310/map/while/ResizeToRange/sub/x", "StatefulPartitionedCall/map/while/body/_310/map/while/ResizeToRange/strided_slice_2"], "attr": {"T": {"type": "DT_INT32"}}}, {"name": "StatefulPartitionedCall/map/while/body/_310/map/while/ResizeToRange/sub_1", "op": "Sub", "input": ["StatefulPartitionedCall/map/while/body/_310/map/while/ResizeToRange/sub_1/x", "StatefulPartitionedCall/map/while/body/_310/map/while/ResizeToRange/strided_slice_3"], "attr": {"T": {"type": "DT_INT32"}}}, {"name": "StatefulPartitionedCall/map/while/body/_310/map/while/ResizeToRange/sub_2", "op": "Sub", "input": ["StatefulPartitionedCall/map/while/body/_310/map/while/ResizeToRange/sub_2/x", "StatefulPartitionedCall/map/while/body/_310/map/while/ResizeToRange/strided_slice_4"], "attr": {"T": {"type": "DT_INT32"}}}, {"name": "StatefulPartitionedCall/map/while/body/_310/map/while/ResizeToRange/sub_3", "op": "Sub", "input": ["StatefulPartitionedCall/map/while/body/_310/map/while/ResizeToRange/sub_3/x", "StatefulPartitionedCall/map/while/body/_310/map/while/ResizeToRange/strided_slice_5"], "attr": {"T": {"type": "DT_INT32"}}}, {"name": "StatefulPartitionedCall/map/while/body/_310/map/while/ResizeToRange/sub_4", "op": "Sub", "input": ["StatefulPartitionedCall/map/while/body/_310/map/while/ResizeToRange/sub_4/x", "StatefulPartitionedCall/map/while/body/_310/map/while/ResizeToRange/strided_slice_6"], "attr": {"T": {"type": "DT_INT32"}}}, {"name": "StatefulPartitionedCall/map/while/body/_310/map/while/ResizeToRange/sub_5", "op": "Sub", "input": ["StatefulPartitionedCall/map/while/body/_310/map/while/ResizeToRange/sub_5/x", "StatefulPartitionedCall/map/while/body/_310/map/while/ResizeToRange/strided_slice_7"], "attr": {"T": {"type": "DT_INT32"}}}, {"name": "StatefulPartitionedCall/map/while/body/_310/map/while/stack_1", "op": "ExpandDims", "input": ["StatefulPartitionedCall/map/while/body/_310/map/while/ResizeToRange/Shape_2", "ConstantFolding/StatefulPartitionedCall/map/while/body/_310/map/while/stack_1_const_axis"], "attr": {"Tdim": {"type": "DT_INT32"}, "T": {"type": "DT_INT32"}}}, {"name": "StatefulPartitionedCall/center_net_mobile_net_v2fpn_feature_extractor/model_1/model/block_4_project_BN/FusedBatchNormV3", "op": "_FusedConv2D", "input": ["StatefulPartitionedCall/center_net_mobile_net_v2fpn_feature_extractor/model_1/model/block_4_depthwise/depthwise", "StatefulPartitionedCall/center_net_mobile_net_v2fpn_feature_extractor/model_1/model/block_4_project/Conv2D_weights", "StatefulPartitionedCall/center_net_mobile_net_v2fpn_feature_extractor/model_1/model/block_4_project/Conv2D_bn_offset"], "device": "/device:CPU:0", "attr": {"num_args": {"i": "1"}, "epsilon": {"f": 0.0}, "padding": {"s": "U0FNRQ=="}, "fused_ops": {"list": {"s": ["Qmlhc0FkZA=="]}}, "dilations": {"list": {"i": ["1", "1", "1", "1"]}}, "T": {"type": "DT_FLOAT"}, "data_format": {"s": "TkhXQw=="}, "strides": {"list": {"i": ["1", "1", "1", "1"]}}, "use_cudnn_on_gpu": {"b": true}, "explicit_paddings": {"list": {}}}}, {"name": "StatefulPartitionedCall/map/while/body/_310/map/while/ResizeToRange/Pad/paddings/0", "op": "Pack", "input": ["StatefulPartitionedCall/map/while/body/_310/map/while/ResizeToRange/Pad/paddings/0/0", "StatefulPartitionedCall/map/while/body/_310/map/while/ResizeToRange/sub"], "attr": {"T": {"type": "DT_INT32"}, "axis": {"i": "0"}, "N": {"i": "2"}}}, {"name": "StatefulPartitionedCall/map/while/body/_310/map/while/ResizeToRange/Pad/paddings/1", "op": "Pack", "input": ["StatefulPartitionedCall/map/while/body/_310/map/while/ResizeToRange/Pad/paddings/1/0", "StatefulPartitionedCall/map/while/body/_310/map/while/ResizeToRange/sub_1"], "attr": {"T": {"type": "DT_INT32"}, "axis": {"i": "0"}, "N": {"i": "2"}}}, {"name": "StatefulPartitionedCall/map/while/body/_310/map/while/ResizeToRange/Pad_1/paddings/0", "op": "Pack", "input": ["StatefulPartitionedCall/map/while/body/_310/map/while/ResizeToRange/Pad_1/paddings/0/0", "StatefulPartitionedCall/map/while/body/_310/map/while/ResizeToRange/sub_2"], "attr": {"T": {"type": "DT_INT32"}, "axis": {"i": "0"}, "N": {"i": "2"}}}, {"name": "StatefulPartitionedCall/map/while/body/_310/map/while/ResizeToRange/Pad_1/paddings/1", "op": "Pack", "input": ["StatefulPartitionedCall/map/while/body/_310/map/while/ResizeToRange/Pad_1/paddings/1/0", "StatefulPartitionedCall/map/while/body/_310/map/while/ResizeToRange/sub_3"], "attr": {"T": {"type": "DT_INT32"}, "axis": {"i": "0"}, "N": {"i": "2"}}}, {"name": "StatefulPartitionedCall/map/while/body/_310/map/while/ResizeToRange/Pad_2/paddings/0", "op": "Pack", "input": ["StatefulPartitionedCall/map/while/body/_310/map/while/ResizeToRange/Pad_2/paddings/0/0", "StatefulPartitionedCall/map/while/body/_310/map/while/ResizeToRange/sub_4"], "attr": {"T": {"type": "DT_INT32"}, "axis": {"i": "0"}, "N": {"i": "2"}}}, {"name": "StatefulPartitionedCall/map/while/body/_310/map/while/ResizeToRange/Pad_2/paddings/1", "op": "Pack", "input": ["StatefulPartitionedCall/map/while/body/_310/map/while/ResizeToRange/Pad_2/paddings/1/0", "StatefulPartitionedCall/map/while/body/_310/map/while/ResizeToRange/sub_5"], "attr": {"N": {"i": "2"}, "T": {"type": "DT_INT32"}, "axis": {"i": "0"}}}, {"name": "StatefulPartitionedCall/map/while/body/_310/map/while/strided_slice_2", "op": "StridedSlice", "input": ["StatefulPartitionedCall/map/while/body/_310/map/while/stack_1", "StatefulPartitionedCall/map/while/body/_310/map/while/strided_slice_2/stack", "StatefulPartitionedCall/map/while/body/_310/map/while/strided_slice_2/stack_1", "StatefulPartitionedCall/map/while/body/_310/map/while/strided_slice_2/stack_2"], "attr": {"begin_mask": {"i": "0"}, "ellipsis_mask": {"i": "0"}, "new_axis_mask": {"i": "0"}, "end_mask": {"i": "0"}, "Index": {"type": "DT_INT32"}, "T": {"type": "DT_INT32"}, "shrink_axis_mask": {"i": "1"}}}, {"name": "StatefulPartitionedCall/center_net_mobile_net_v2fpn_feature_extractor/model_1/model/block_4_add/add", "op": "AddV2", "input": ["StatefulPartitionedCall/center_net_mobile_net_v2fpn_feature_extractor/model_1/model/block_3_project_BN/FusedBatchNormV3", "StatefulPartitionedCall/center_net_mobile_net_v2fpn_feature_extractor/model_1/model/block_4_project_BN/FusedBatchNormV3"], "attr": {"T": {"type": "DT_FLOAT"}}}, {"name": "StatefulPartitionedCall/map/while/body/_310/map/while/ResizeToRange/Pad/paddings", "op": "Pack", "input": ["StatefulPartitionedCall/map/while/body/_310/map/while/ResizeToRange/Pad/paddings/0", "StatefulPartitionedCall/map/while/body/_310/map/while/ResizeToRange/Pad/paddings/1"], "attr": {"T": {"type": "DT_INT32"}, "axis": {"i": "0"}, "N": {"i": "2"}}}, {"name": "StatefulPartitionedCall/map/while/body/_310/map/while/ResizeToRange/Pad_1/paddings", "op": "Pack", "input": ["StatefulPartitionedCall/map/while/body/_310/map/while/ResizeToRange/Pad_1/paddings/0", "StatefulPartitionedCall/map/while/body/_310/map/while/ResizeToRange/Pad_1/paddings/1"], "attr": {"T": {"type": "DT_INT32"}, "axis": {"i": "0"}, "N": {"i": "2"}}}, {"name": "StatefulPartitionedCall/map/while/body/_310/map/while/ResizeToRange/Pad_2/paddings", "op": "Pack", "input": ["StatefulPartitionedCall/map/while/body/_310/map/while/ResizeToRange/Pad_2/paddings/0", "StatefulPartitionedCall/map/while/body/_310/map/while/ResizeToRange/Pad_2/paddings/1"], "attr": {"T": {"type": "DT_INT32"}, "axis": {"i": "0"}, "N": {"i": "2"}}}, {"name": "StatefulPartitionedCall/map/while/body/_310/map/while/TensorArrayV2Write_1/TensorListSetItem", "op": "TensorListSetItem", "input": ["StatefulPartitionedCall/map/while/StatefulPartitionedCall/map/TensorArrayV2_2_switch/_328:1", "Func/StatefulPartitionedCall/map/while/body/_310/input/_355", "StatefulPartitionedCall/map/while/body/_310/map/while/strided_slice_2"], "attr": {"element_dtype": {"type": "DT_INT32"}}}, {"name": "StatefulPartitionedCall/center_net_mobile_net_v2fpn_feature_extractor/model_1/model/block_5_expand_relu/Relu6", "op": "_FusedConv2D", "input": ["StatefulPartitionedCall/center_net_mobile_net_v2fpn_feature_extractor/model_1/model/block_4_add/add", "StatefulPartitionedCall/center_net_mobile_net_v2fpn_feature_extractor/model_1/model/block_5_expand/Conv2D_weights", "StatefulPartitionedCall/center_net_mobile_net_v2fpn_feature_extractor/model_1/model/block_5_expand/Conv2D_bn_offset"], "device": "/device:CPU:0", "attr": {"data_format": {"s": "TkhXQw=="}, "strides": {"list": {"i": ["1", "1", "1", "1"]}}, "use_cudnn_on_gpu": {"b": true}, "explicit_paddings": {"list": {}}, "num_args": {"i": "1"}, "epsilon": {"f": 0.0}, "padding": {"s": "U0FNRQ=="}, "fused_ops": {"list": {"s": ["Qmlhc0FkZA==", "UmVsdTY="]}}, "dilations": {"list": {"i": ["1", "1", "1", "1"]}}, "T": {"type": "DT_FLOAT"}}}, {"name": "StatefulPartitionedCall/map/while/body/_310/map/while/ResizeToRange/Pad", "op": "Pad", "input": ["StatefulPartitionedCall/map/while/body/_310/map/while/ResizeToRange/unstack", "StatefulPartitionedCall/map/while/body/_310/map/while/ResizeToRange/Pad/paddings"], "attr": {"T": {"type": "DT_FLOAT"}, "Tpaddings": {"type": "DT_INT32"}}}, {"name": "StatefulPartitionedCall/map/while/body/_310/map/while/ResizeToRange/Pad_1", "op": "Pad", "input": ["StatefulPartitionedCall/map/while/body/_310/map/while/ResizeToRange/unstack:1", "StatefulPartitionedCall/map/while/body/_310/map/while/ResizeToRange/Pad_1/paddings"], "attr": {"T": {"type": "DT_FLOAT"}, "Tpaddings": {"type": "DT_INT32"}}}, {"name": "StatefulPartitionedCall/map/while/body/_310/map/while/ResizeToRange/Pad_2", "op": "Pad", "input": ["StatefulPartitionedCall/map/while/body/_310/map/while/ResizeToRange/unstack:2", "StatefulPartitionedCall/map/while/body/_310/map/while/ResizeToRange/Pad_2/paddings"], "attr": {"Tpaddings": {"type": "DT_INT32"}, "T": {"type": "DT_FLOAT"}}}, {"name": "StatefulPartitionedCall/map/while/next_iteration/_342", "op": "NextIteration", "input": ["StatefulPartitionedCall/map/while/body/_310/map/while/TensorArrayV2Write_1/TensorListSetItem", "^StatefulPartitionedCall/map/while/loop_body_control/_330"], "attr": {"T": {"type": "DT_VARIANT"}}}, {"name": "StatefulPartitionedCall/center_net_mobile_net_v2fpn_feature_extractor/model_1/model/block_5_depthwise/depthwise", "op": "FusedDepthwiseConv2dNative", "input": ["StatefulPartitionedCall/center_net_mobile_net_v2fpn_feature_extractor/model_1/model/block_5_expand_relu/Relu6", "StatefulPartitionedCall/center_net_mobile_net_v2fpn_feature_extractor/model_1/model/block_5_depthwise/depthwise_weights", "StatefulPartitionedCall/center_net_mobile_net_v2fpn_feature_extractor/model_1/model/block_5_depthwise/depthwise_bn_offset"], "attr": {"T": {"type": "DT_FLOAT"}, "strides": {"list": {"i": ["1", "1", "1", "1"]}}, "data_format": {"s": "TkhXQw=="}, "explicit_paddings": {"list": {}}, "num_args": {"i": "1"}, "padding": {"s": "U0FNRQ=="}, "fused_ops": {"list": {"s": ["Qmlhc0FkZA==", "UmVsdTY="]}}, "dilations": {"list": {"i": ["1", "1", "1", "1"]}}}}, {"name": "StatefulPartitionedCall/map/while/body/_310/map/while/ResizeToRange/stack", "op": "Pack", "input": ["StatefulPartitionedCall/map/while/body/_310/map/while/ResizeToRange/Pad", "StatefulPartitionedCall/map/while/body/_310/map/while/ResizeToRange/Pad_1", "StatefulPartitionedCall/map/while/body/_310/map/while/ResizeToRange/Pad_2"], "attr": {"T": {"type": "DT_FLOAT"}, "axis": {"i": "2"}, "N": {"i": "3"}}}, {"name": "ConstantFolding/StatefulPartitionedCall/map/while/body/_310/map/while/stack_const_axis", "op": "Const", "input": ["^StatefulPartitionedCall/map/while/body/_310/map/while/ResizeToRange/stack"], "attr": {"dtype": {"type": "DT_INT32"}, "value": {"tensor": {"dtype": "DT_INT32", "tensorShape": {}}}}}, {"name": "StatefulPartitionedCall/map/while/body/_310/map/while/stack", "op": "ExpandDims", "input": ["StatefulPartitionedCall/map/while/body/_310/map/while/ResizeToRange/stack", "ConstantFolding/StatefulPartitionedCall/map/while/body/_310/map/while/stack_const_axis"], "attr": {"T": {"type": "DT_FLOAT"}, "Tdim": {"type": "DT_INT32"}}}, {"name": "StatefulPartitionedCall/center_net_mobile_net_v2fpn_feature_extractor/model_1/model/block_5_project_BN/FusedBatchNormV3", "op": "_FusedConv2D", "input": ["StatefulPartitionedCall/center_net_mobile_net_v2fpn_feature_extractor/model_1/model/block_5_depthwise/depthwise", "StatefulPartitionedCall/center_net_mobile_net_v2fpn_feature_extractor/model_1/model/block_5_project/Conv2D_weights", "StatefulPartitionedCall/center_net_mobile_net_v2fpn_feature_extractor/model_1/model/block_5_project/Conv2D_bn_offset"], "device": "/device:CPU:0", "attr": {"data_format": {"s": "TkhXQw=="}, "strides": {"list": {"i": ["1", "1", "1", "1"]}}, "explicit_paddings": {"list": {}}, "use_cudnn_on_gpu": {"b": true}, "num_args": {"i": "1"}, "epsilon": {"f": 0.0}, "padding": {"s": "U0FNRQ=="}, "fused_ops": {"list": {"s": ["Qmlhc0FkZA=="]}}, "dilations": {"list": {"i": ["1", "1", "1", "1"]}}, "T": {"type": "DT_FLOAT"}}}, {"name": "StatefulPartitionedCall/map/while/body/_310/map/while/truediv_1", "op": "Mul", "input": ["StatefulPartitionedCall/map/while/body/_310/map/while/stack", "ConstantFolding/StatefulPartitionedCall/map/while/body/_310/map/while/truediv_1_recip"], "attr": {"T": {"type": "DT_FLOAT"}}}, {"name": "StatefulPartitionedCall/center_net_mobile_net_v2fpn_feature_extractor/model_1/model/block_5_add/add", "op": "AddV2", "input": ["StatefulPartitionedCall/center_net_mobile_net_v2fpn_feature_extractor/model_1/model/block_4_add/add", "StatefulPartitionedCall/center_net_mobile_net_v2fpn_feature_extractor/model_1/model/block_5_project_BN/FusedBatchNormV3"], "attr": {"T": {"type": "DT_FLOAT"}}}, {"name": "StatefulPartitionedCall/map/while/body/_310/map/while/sub_1", "op": "Sub", "input": ["StatefulPartitionedCall/map/while/body/_310/map/while/truediv_1", "StatefulPartitionedCall/map/while/body/_310/map/while/sub_1/y"], "attr": {"T": {"type": "DT_FLOAT"}}}, {"name": "StatefulPartitionedCall/center_net_mobile_net_v2fpn_feature_extractor/model_1/conv2d_2/BiasAdd", "op": "_FusedConv2D", "input": ["StatefulPartitionedCall/center_net_mobile_net_v2fpn_feature_extractor/model_1/model/block_5_add/add", "StatefulPartitionedCall/center_net_mobile_net_v2fpn_feature_extractor/model_1/conv2d_2/Conv2D/ReadVariableOp", "StatefulPartitionedCall/center_net_mobile_net_v2fpn_feature_extractor/model_1/conv2d_2/BiasAdd/ReadVariableOp"], "device": "/device:CPU:0", "attr": {"strides": {"list": {"i": ["1", "1", "1", "1"]}}, "data_format": {"s": "TkhXQw=="}, "use_cudnn_on_gpu": {"b": true}, "explicit_paddings": {"list": {}}, "num_args": {"i": "1"}, "epsilon": {"f": 0.0}, "padding": {"s": "U0FNRQ=="}, "fused_ops": {"list": {"s": ["Qmlhc0FkZA=="]}}, "dilations": {"list": {"i": ["1", "1", "1", "1"]}}, "T": {"type": "DT_FLOAT"}}}, {"name": "StatefulPartitionedCall/center_net_mobile_net_v2fpn_feature_extractor/model_1/model/block_6_expand_relu/Relu6", "op": "_FusedConv2D", "input": ["StatefulPartitionedCall/center_net_mobile_net_v2fpn_feature_extractor/model_1/model/block_5_add/add", "StatefulPartitionedCall/center_net_mobile_net_v2fpn_feature_extractor/model_1/model/block_6_expand/Conv2D_weights", "StatefulPartitionedCall/center_net_mobile_net_v2fpn_feature_extractor/model_1/model/block_6_expand/Conv2D_bn_offset"], "device": "/device:CPU:0", "attr": {"dilations": {"list": {"i": ["1", "1", "1", "1"]}}, "T": {"type": "DT_FLOAT"}, "data_format": {"s": "TkhXQw=="}, "strides": {"list": {"i": ["1", "1", "1", "1"]}}, "use_cudnn_on_gpu": {"b": true}, "explicit_paddings": {"list": {}}, "num_args": {"i": "1"}, "epsilon": {"f": 0.0}, "padding": {"s": "U0FNRQ=="}, "fused_ops": {"list": {"s": ["Qmlhc0FkZA==", "UmVsdTY="]}}}}, {"name": "StatefulPartitionedCall/map/while/body/_310/map/while/strided_slice_1", "op": "StridedSlice", "input": ["StatefulPartitionedCall/map/while/body/_310/map/while/sub_1", "StatefulPartitionedCall/map/while/body/_310/map/while/strided_slice_1/stack", "StatefulPartitionedCall/map/while/body/_310/map/while/strided_slice_1/stack_1", "StatefulPartitionedCall/map/while/body/_310/map/while/strided_slice_1/stack_2"], "attr": {"begin_mask": {"i": "0"}, "ellipsis_mask": {"i": "0"}, "new_axis_mask": {"i": "0"}, "end_mask": {"i": "0"}, "Index": {"type": "DT_INT32"}, "T": {"type": "DT_FLOAT"}, "shrink_axis_mask": {"i": "1"}}}, {"name": "StatefulPartitionedCall/center_net_mobile_net_v2fpn_feature_extractor/model_1/model/block_6_depthwise/depthwise", "op": "FusedDepthwiseConv2dNative", "input": ["StatefulPartitionedCall/center_net_mobile_net_v2fpn_feature_extractor/model_1/model/block_6_expand_relu/Relu6", "StatefulPartitionedCall/center_net_mobile_net_v2fpn_feature_extractor/model_1/model/block_6_depthwise/depthwise_weights", "StatefulPartitionedCall/center_net_mobile_net_v2fpn_feature_extractor/model_1/model/block_6_depthwise/depthwise_bn_offset"], "attr": {"fused_ops": {"list": {"s": ["Qmlhc0FkZA==", "UmVsdTY="]}}, "dilations": {"list": {"i": ["1", "1", "1", "1"]}}, "T": {"type": "DT_FLOAT"}, "strides": {"list": {"i": ["1", "2", "2", "1"]}}, "data_format": {"s": "TkhXQw=="}, "explicit_paddings": {"list": {}}, "num_args": {"i": "1"}, "padding": {"s": "U0FNRQ=="}}}, {"name": "StatefulPartitionedCall/map/while/body/_310/map/while/TensorArrayV2Write/TensorListSetItem", "op": "TensorListSetItem", "input": ["StatefulPartitionedCall/map/while/StatefulPartitionedCall/map/TensorArrayV2_1_switch/_327:1", "Func/StatefulPartitionedCall/map/while/body/_310/input/_355", "StatefulPartitionedCall/map/while/body/_310/map/while/strided_slice_1"], "attr": {"element_dtype": {"type": "DT_FLOAT"}}}, {"name": "StatefulPartitionedCall/map/while/next_iteration/_341", "op": "NextIteration", "input": ["StatefulPartitionedCall/map/while/body/_310/map/while/TensorArrayV2Write/TensorListSetItem", "^StatefulPartitionedCall/map/while/loop_body_control/_330"], "attr": {"T": {"type": "DT_VARIANT"}}}, {"name": "StatefulPartitionedCall/center_net_mobile_net_v2fpn_feature_extractor/model_1/model/block_6_project_BN/FusedBatchNormV3", "op": "_FusedConv2D", "input": ["StatefulPartitionedCall/center_net_mobile_net_v2fpn_feature_extractor/model_1/model/block_6_depthwise/depthwise", "StatefulPartitionedCall/center_net_mobile_net_v2fpn_feature_extractor/model_1/model/block_6_project/Conv2D_weights", "StatefulPartitionedCall/center_net_mobile_net_v2fpn_feature_extractor/model_1/model/block_6_project/Conv2D_bn_offset"], "device": "/device:CPU:0", "attr": {"epsilon": {"f": 0.0}, "padding": {"s": "U0FNRQ=="}, "fused_ops": {"list": {"s": ["Qmlhc0FkZA=="]}}, "dilations": {"list": {"i": ["1", "1", "1", "1"]}}, "T": {"type": "DT_FLOAT"}, "strides": {"list": {"i": ["1", "1", "1", "1"]}}, "data_format": {"s": "TkhXQw=="}, "explicit_paddings": {"list": {}}, "use_cudnn_on_gpu": {"b": true}, "num_args": {"i": "1"}}}, {"name": "StatefulPartitionedCall/center_net_mobile_net_v2fpn_feature_extractor/model_1/model/block_7_expand_relu/Relu6", "op": "_FusedConv2D", "input": ["StatefulPartitionedCall/center_net_mobile_net_v2fpn_feature_extractor/model_1/model/block_6_project_BN/FusedBatchNormV3", "StatefulPartitionedCall/center_net_mobile_net_v2fpn_feature_extractor/model_1/model/block_7_expand/Conv2D_weights", "StatefulPartitionedCall/center_net_mobile_net_v2fpn_feature_extractor/model_1/model/block_7_expand/Conv2D_bn_offset"], "device": "/device:CPU:0", "attr": {"strides": {"list": {"i": ["1", "1", "1", "1"]}}, "data_format": {"s": "TkhXQw=="}, "use_cudnn_on_gpu": {"b": true}, "explicit_paddings": {"list": {}}, "num_args": {"i": "1"}, "epsilon": {"f": 0.0}, "padding": {"s": "U0FNRQ=="}, "fused_ops": {"list": {"s": ["Qmlhc0FkZA==", "UmVsdTY="]}}, "dilations": {"list": {"i": ["1", "1", "1", "1"]}}, "T": {"type": "DT_FLOAT"}}}, {"name": "StatefulPartitionedCall/center_net_mobile_net_v2fpn_feature_extractor/model_1/model/block_7_depthwise/depthwise", "op": "FusedDepthwiseConv2dNative", "input": ["StatefulPartitionedCall/center_net_mobile_net_v2fpn_feature_extractor/model_1/model/block_7_expand_relu/Relu6", "StatefulPartitionedCall/center_net_mobile_net_v2fpn_feature_extractor/model_1/model/block_7_depthwise/depthwise_weights", "StatefulPartitionedCall/center_net_mobile_net_v2fpn_feature_extractor/model_1/model/block_7_depthwise/depthwise_bn_offset"], "attr": {"T": {"type": "DT_FLOAT"}, "strides": {"list": {"i": ["1", "1", "1", "1"]}}, "data_format": {"s": "TkhXQw=="}, "explicit_paddings": {"list": {}}, "num_args": {"i": "1"}, "padding": {"s": "U0FNRQ=="}, "fused_ops": {"list": {"s": ["Qmlhc0FkZA==", "UmVsdTY="]}}, "dilations": {"list": {"i": ["1", "1", "1", "1"]}}}}, {"name": "StatefulPartitionedCall/center_net_mobile_net_v2fpn_feature_extractor/model_1/model/block_7_project_BN/FusedBatchNormV3", "op": "_FusedConv2D", "input": ["StatefulPartitionedCall/center_net_mobile_net_v2fpn_feature_extractor/model_1/model/block_7_depthwise/depthwise", "StatefulPartitionedCall/center_net_mobile_net_v2fpn_feature_extractor/model_1/model/block_7_project/Conv2D_weights", "StatefulPartitionedCall/center_net_mobile_net_v2fpn_feature_extractor/model_1/model/block_7_project/Conv2D_bn_offset"], "device": "/device:CPU:0", "attr": {"strides": {"list": {"i": ["1", "1", "1", "1"]}}, "data_format": {"s": "TkhXQw=="}, "explicit_paddings": {"list": {}}, "use_cudnn_on_gpu": {"b": true}, "num_args": {"i": "1"}, "epsilon": {"f": 0.0}, "padding": {"s": "U0FNRQ=="}, "fused_ops": {"list": {"s": ["Qmlhc0FkZA=="]}}, "dilations": {"list": {"i": ["1", "1", "1", "1"]}}, "T": {"type": "DT_FLOAT"}}}, {"name": "StatefulPartitionedCall/center_net_mobile_net_v2fpn_feature_extractor/model_1/model/block_7_add/add", "op": "AddV2", "input": ["StatefulPartitionedCall/center_net_mobile_net_v2fpn_feature_extractor/model_1/model/block_6_project_BN/FusedBatchNormV3", "StatefulPartitionedCall/center_net_mobile_net_v2fpn_feature_extractor/model_1/model/block_7_project_BN/FusedBatchNormV3"], "attr": {"T": {"type": "DT_FLOAT"}}}, {"name": "StatefulPartitionedCall/center_net_mobile_net_v2fpn_feature_extractor/model_1/model/block_8_expand_relu/Relu6", "op": "_FusedConv2D", "input": ["StatefulPartitionedCall/center_net_mobile_net_v2fpn_feature_extractor/model_1/model/block_7_add/add", "StatefulPartitionedCall/center_net_mobile_net_v2fpn_feature_extractor/model_1/model/block_8_expand/Conv2D_weights", "StatefulPartitionedCall/center_net_mobile_net_v2fpn_feature_extractor/model_1/model/block_8_expand/Conv2D_bn_offset"], "device": "/device:CPU:0", "attr": {"T": {"type": "DT_FLOAT"}, "strides": {"list": {"i": ["1", "1", "1", "1"]}}, "data_format": {"s": "TkhXQw=="}, "use_cudnn_on_gpu": {"b": true}, "explicit_paddings": {"list": {}}, "num_args": {"i": "1"}, "epsilon": {"f": 0.0}, "padding": {"s": "U0FNRQ=="}, "fused_ops": {"list": {"s": ["Qmlhc0FkZA==", "UmVsdTY="]}}, "dilations": {"list": {"i": ["1", "1", "1", "1"]}}}}, {"name": "StatefulPartitionedCall/center_net_mobile_net_v2fpn_feature_extractor/model_1/model/block_8_depthwise/depthwise", "op": "FusedDepthwiseConv2dNative", "input": ["StatefulPartitionedCall/center_net_mobile_net_v2fpn_feature_extractor/model_1/model/block_8_expand_relu/Relu6", "StatefulPartitionedCall/center_net_mobile_net_v2fpn_feature_extractor/model_1/model/block_8_depthwise/depthwise_weights", "StatefulPartitionedCall/center_net_mobile_net_v2fpn_feature_extractor/model_1/model/block_8_depthwise/depthwise_bn_offset"], "attr": {"padding": {"s": "U0FNRQ=="}, "fused_ops": {"list": {"s": ["Qmlhc0FkZA==", "UmVsdTY="]}}, "dilations": {"list": {"i": ["1", "1", "1", "1"]}}, "T": {"type": "DT_FLOAT"}, "strides": {"list": {"i": ["1", "1", "1", "1"]}}, "data_format": {"s": "TkhXQw=="}, "explicit_paddings": {"list": {}}, "num_args": {"i": "1"}}}, {"name": "StatefulPartitionedCall/center_net_mobile_net_v2fpn_feature_extractor/model_1/model/block_8_project_BN/FusedBatchNormV3", "op": "_FusedConv2D", "input": ["StatefulPartitionedCall/center_net_mobile_net_v2fpn_feature_extractor/model_1/model/block_8_depthwise/depthwise", "StatefulPartitionedCall/center_net_mobile_net_v2fpn_feature_extractor/model_1/model/block_8_project/Conv2D_weights", "StatefulPartitionedCall/center_net_mobile_net_v2fpn_feature_extractor/model_1/model/block_8_project/Conv2D_bn_offset"], "device": "/device:CPU:0", "attr": {"data_format": {"s": "TkhXQw=="}, "strides": {"list": {"i": ["1", "1", "1", "1"]}}, "explicit_paddings": {"list": {}}, "use_cudnn_on_gpu": {"b": true}, "num_args": {"i": "1"}, "epsilon": {"f": 0.0}, "padding": {"s": "U0FNRQ=="}, "fused_ops": {"list": {"s": ["Qmlhc0FkZA=="]}}, "dilations": {"list": {"i": ["1", "1", "1", "1"]}}, "T": {"type": "DT_FLOAT"}}}, {"name": "StatefulPartitionedCall/center_net_mobile_net_v2fpn_feature_extractor/model_1/model/block_8_add/add", "op": "AddV2", "input": ["StatefulPartitionedCall/center_net_mobile_net_v2fpn_feature_extractor/model_1/model/block_7_add/add", "StatefulPartitionedCall/center_net_mobile_net_v2fpn_feature_extractor/model_1/model/block_8_project_BN/FusedBatchNormV3"], "attr": {"T": {"type": "DT_FLOAT"}}}, {"name": "StatefulPartitionedCall/center_net_mobile_net_v2fpn_feature_extractor/model_1/model/block_9_expand_relu/Relu6", "op": "_FusedConv2D", "input": ["StatefulPartitionedCall/center_net_mobile_net_v2fpn_feature_extractor/model_1/model/block_8_add/add", "StatefulPartitionedCall/center_net_mobile_net_v2fpn_feature_extractor/model_1/model/block_9_expand/Conv2D_weights", "StatefulPartitionedCall/center_net_mobile_net_v2fpn_feature_extractor/model_1/model/block_9_expand/Conv2D_bn_offset"], "device": "/device:CPU:0", "attr": {"fused_ops": {"list": {"s": ["Qmlhc0FkZA==", "UmVsdTY="]}}, "dilations": {"list": {"i": ["1", "1", "1", "1"]}}, "T": {"type": "DT_FLOAT"}, "strides": {"list": {"i": ["1", "1", "1", "1"]}}, "data_format": {"s": "TkhXQw=="}, "use_cudnn_on_gpu": {"b": true}, "explicit_paddings": {"list": {}}, "num_args": {"i": "1"}, "epsilon": {"f": 0.0}, "padding": {"s": "U0FNRQ=="}}}, {"name": "StatefulPartitionedCall/center_net_mobile_net_v2fpn_feature_extractor/model_1/model/block_9_depthwise/depthwise", "op": "FusedDepthwiseConv2dNative", "input": ["StatefulPartitionedCall/center_net_mobile_net_v2fpn_feature_extractor/model_1/model/block_9_expand_relu/Relu6", "StatefulPartitionedCall/center_net_mobile_net_v2fpn_feature_extractor/model_1/model/block_9_depthwise/depthwise_weights", "StatefulPartitionedCall/center_net_mobile_net_v2fpn_feature_extractor/model_1/model/block_9_depthwise/depthwise_bn_offset"], "attr": {"T": {"type": "DT_FLOAT"}, "strides": {"list": {"i": ["1", "1", "1", "1"]}}, "data_format": {"s": "TkhXQw=="}, "explicit_paddings": {"list": {}}, "num_args": {"i": "1"}, "padding": {"s": "U0FNRQ=="}, "fused_ops": {"list": {"s": ["Qmlhc0FkZA==", "UmVsdTY="]}}, "dilations": {"list": {"i": ["1", "1", "1", "1"]}}}}, {"name": "StatefulPartitionedCall/center_net_mobile_net_v2fpn_feature_extractor/model_1/model/block_9_project_BN/FusedBatchNormV3", "op": "_FusedConv2D", "input": ["StatefulPartitionedCall/center_net_mobile_net_v2fpn_feature_extractor/model_1/model/block_9_depthwise/depthwise", "StatefulPartitionedCall/center_net_mobile_net_v2fpn_feature_extractor/model_1/model/block_9_project/Conv2D_weights", "StatefulPartitionedCall/center_net_mobile_net_v2fpn_feature_extractor/model_1/model/block_9_project/Conv2D_bn_offset"], "device": "/device:CPU:0", "attr": {"num_args": {"i": "1"}, "epsilon": {"f": 0.0}, "padding": {"s": "U0FNRQ=="}, "fused_ops": {"list": {"s": ["Qmlhc0FkZA=="]}}, "dilations": {"list": {"i": ["1", "1", "1", "1"]}}, "T": {"type": "DT_FLOAT"}, "data_format": {"s": "TkhXQw=="}, "strides": {"list": {"i": ["1", "1", "1", "1"]}}, "use_cudnn_on_gpu": {"b": true}, "explicit_paddings": {"list": {}}}}, {"name": "StatefulPartitionedCall/center_net_mobile_net_v2fpn_feature_extractor/model_1/model/block_9_add/add", "op": "AddV2", "input": ["StatefulPartitionedCall/center_net_mobile_net_v2fpn_feature_extractor/model_1/model/block_8_add/add", "StatefulPartitionedCall/center_net_mobile_net_v2fpn_feature_extractor/model_1/model/block_9_project_BN/FusedBatchNormV3"], "attr": {"T": {"type": "DT_FLOAT"}}}, {"name": "StatefulPartitionedCall/center_net_mobile_net_v2fpn_feature_extractor/model_1/conv2d_1/BiasAdd", "op": "_FusedConv2D", "input": ["StatefulPartitionedCall/center_net_mobile_net_v2fpn_feature_extractor/model_1/model/block_9_add/add", "StatefulPartitionedCall/center_net_mobile_net_v2fpn_feature_extractor/model_1/conv2d_1/Conv2D/ReadVariableOp", "StatefulPartitionedCall/center_net_mobile_net_v2fpn_feature_extractor/model_1/conv2d_1/BiasAdd/ReadVariableOp"], "device": "/device:CPU:0", "attr": {"T": {"type": "DT_FLOAT"}, "strides": {"list": {"i": ["1", "1", "1", "1"]}}, "data_format": {"s": "TkhXQw=="}, "explicit_paddings": {"list": {}}, "use_cudnn_on_gpu": {"b": true}, "num_args": {"i": "1"}, "epsilon": {"f": 0.0}, "padding": {"s": "U0FNRQ=="}, "fused_ops": {"list": {"s": ["Qmlhc0FkZA=="]}}, "dilations": {"list": {"i": ["1", "1", "1", "1"]}}}}, {"name": "StatefulPartitionedCall/center_net_mobile_net_v2fpn_feature_extractor/model_1/model/block_10_expand_relu/Relu6", "op": "_FusedConv2D", "input": ["StatefulPartitionedCall/center_net_mobile_net_v2fpn_feature_extractor/model_1/model/block_9_add/add", "StatefulPartitionedCall/center_net_mobile_net_v2fpn_feature_extractor/model_1/model/block_10_expand/Conv2D_weights", "StatefulPartitionedCall/center_net_mobile_net_v2fpn_feature_extractor/model_1/model/block_10_expand/Conv2D_bn_offset"], "device": "/device:CPU:0", "attr": {"T": {"type": "DT_FLOAT"}, "data_format": {"s": "TkhXQw=="}, "strides": {"list": {"i": ["1", "1", "1", "1"]}}, "explicit_paddings": {"list": {}}, "use_cudnn_on_gpu": {"b": true}, "num_args": {"i": "1"}, "epsilon": {"f": 0.0}, "padding": {"s": "U0FNRQ=="}, "fused_ops": {"list": {"s": ["Qmlhc0FkZA==", "UmVsdTY="]}}, "dilations": {"list": {"i": ["1", "1", "1", "1"]}}}}, {"name": "StatefulPartitionedCall/center_net_mobile_net_v2fpn_feature_extractor/model_1/model/block_10_depthwise/depthwise", "op": "FusedDepthwiseConv2dNative", "input": ["StatefulPartitionedCall/center_net_mobile_net_v2fpn_feature_extractor/model_1/model/block_10_expand_relu/Relu6", "StatefulPartitionedCall/center_net_mobile_net_v2fpn_feature_extractor/model_1/model/block_10_depthwise/depthwise_weights", "StatefulPartitionedCall/center_net_mobile_net_v2fpn_feature_extractor/model_1/model/block_10_depthwise/depthwise_bn_offset"], "attr": {"dilations": {"list": {"i": ["1", "1", "1", "1"]}}, "T": {"type": "DT_FLOAT"}, "data_format": {"s": "TkhXQw=="}, "strides": {"list": {"i": ["1", "1", "1", "1"]}}, "explicit_paddings": {"list": {}}, "num_args": {"i": "1"}, "padding": {"s": "U0FNRQ=="}, "fused_ops": {"list": {"s": ["Qmlhc0FkZA==", "UmVsdTY="]}}}}, {"name": "StatefulPartitionedCall/center_net_mobile_net_v2fpn_feature_extractor/model_1/model/block_10_project_BN/FusedBatchNormV3", "op": "_FusedConv2D", "input": ["StatefulPartitionedCall/center_net_mobile_net_v2fpn_feature_extractor/model_1/model/block_10_depthwise/depthwise", "StatefulPartitionedCall/center_net_mobile_net_v2fpn_feature_extractor/model_1/model/block_10_project/Conv2D_weights", "StatefulPartitionedCall/center_net_mobile_net_v2fpn_feature_extractor/model_1/model/block_10_project/Conv2D_bn_offset"], "device": "/device:CPU:0", "attr": {"strides": {"list": {"i": ["1", "1", "1", "1"]}}, "data_format": {"s": "TkhXQw=="}, "use_cudnn_on_gpu": {"b": true}, "explicit_paddings": {"list": {}}, "num_args": {"i": "1"}, "epsilon": {"f": 0.0}, "padding": {"s": "U0FNRQ=="}, "fused_ops": {"list": {"s": ["Qmlhc0FkZA=="]}}, "dilations": {"list": {"i": ["1", "1", "1", "1"]}}, "T": {"type": "DT_FLOAT"}}}, {"name": "StatefulPartitionedCall/center_net_mobile_net_v2fpn_feature_extractor/model_1/model/block_11_expand_relu/Relu6", "op": "_FusedConv2D", "input": ["StatefulPartitionedCall/center_net_mobile_net_v2fpn_feature_extractor/model_1/model/block_10_project_BN/FusedBatchNormV3", "StatefulPartitionedCall/center_net_mobile_net_v2fpn_feature_extractor/model_1/model/block_11_expand/Conv2D_weights", "StatefulPartitionedCall/center_net_mobile_net_v2fpn_feature_extractor/model_1/model/block_11_expand/Conv2D_bn_offset"], "device": "/device:CPU:0", "attr": {"strides": {"list": {"i": ["1", "1", "1", "1"]}}, "data_format": {"s": "TkhXQw=="}, "explicit_paddings": {"list": {}}, "use_cudnn_on_gpu": {"b": true}, "num_args": {"i": "1"}, "epsilon": {"f": 0.0}, "padding": {"s": "U0FNRQ=="}, "fused_ops": …
float32"}}, {"name": "StatefulPartitionedCall/clip_by_value_2/y", "shape": [], "dtype": "float32", "quantization": {"dtype": "uint8", "min": 0.0, "scale": 1.0, "original_dtype": "float32"}}, {"name": "StatefulPartitionedCall/box_offset_0/separable_conv2d_4/separable_conv2d/ReadVariableOp", "shape": [3, 3, 24, 1], "dtype": "float32", "quantization": {"dtype": "uint8", "min": -0.16150746538358576, "scale": 0.0012519958556867113, "original_dtype": "float32"}}, {"name": "StatefulPartitionedCall/box_offset_0/separable_conv2d_4/separable_conv2d/ReadVariableOp_1", "shape": [1, 1, 24, 256], "dtype": "float32", "quantization": {"dtype": "uint8", "min": -0.14689766378963695, "scale": 0.0011476379983565387, "original_dtype": "float32"}}, {"name": "StatefulPartitionedCall/box_offset_0/conv2d_6/Conv2D/ReadVariableOp", "shape": [1, 1, 256, 2], "dtype": "float32", "quantization": {"dtype": "uint8", "min": -0.1525620927997664, "scale": 0.001191891349998175, "original_dtype": "float32"}}, {"name": "StatefulPartitionedCall/Reshape_5/shape", "shape": [3], "dtype": "int32"}, {"name": "StatefulPartitionedCall/box_scale_0/separable_conv2d_3/separable_conv2d/ReadVariableOp", "shape": [3, 3, 24, 1], "dtype": "float32", "quantization": {"dtype": "uint8", "min": -0.1618288227156097, "scale": 0.0012642876774657007, "original_dtype": "float32"}}, {"name": "StatefulPartitionedCall/box_scale_0/separable_conv2d_3/separable_conv2d/ReadVariableOp_1", "shape": [1, 1, 24, 256], "dtype": "float32", "quantization": {"dtype": "uint8", "min": -0.14694000692928538, "scale": 0.001147968804135042, "original_dtype": "float32"}}, {"name": "StatefulPartitionedCall/box_scale_0/conv2d_5/Conv2D/ReadVariableOp", "shape": [1, 1, 256, 2], "dtype": "float32", "quantization": {"dtype": "uint8", "min": -0.15213283464020375, "scale": 0.0011885377706265918, "original_dtype": "float32"}}, {"name": "StatefulPartitionedCall/Reshape_1", "shape": [20], "dtype": "int32"}, {"name": "StatefulPartitionedCall/Reshape_2/shape", "shape": [1], "dtype": "int32"}, {"name": "StatefulPartitionedCall/Reshape_3/shape", "shape": [1], "dtype": "int32"}, {"name": "StatefulPartitionedCall/Reshape_4/shape", "shape": [3], "dtype": "int32"}, {"name": "StatefulPartitionedCall/Maximum/y", "shape": [], "dtype": "float32", "quantization": {"dtype": "uint8", "min": 0.0, "scale": 1.0, "original_dtype": "float32"}}, {"name": "ConstantFolding/StatefulPartitionedCall/truediv_3_recip", "shape": [], "dtype": "float32", "quantization": {"dtype": "uint8", "min": 0.5, "scale": 1.0, "original_dtype": "float32"}}, {"name": "StatefulPartitionedCall/Cast_2", "shape": [], "dtype": "float32", "quantization": {"dtype": "uint8", "min": 128.0, "scale": 1.0, "original_dtype": "float32"}}, {"name": "StatefulPartitionedCall/clip_by_value_3/y", "shape": [], "dtype": "float32", "quantization": {"dtype": "uint8", "min": 0.0, "scale": 1.0, "original_dtype": "float32"}}, {"name": "StatefulPartitionedCall/floordiv_3/y", "shape": [], "dtype": "int32"}, {"name": "StatefulPartitionedCall/mul_2/y", "shape": [], "dtype": "int32"}, {"name": "StatefulPartitionedCall/add_6/y", "shape": [], "dtype": "float32", "quantization": {"dtype": "uint8", "min": 1.0, "scale": 1.0, "original_dtype": "float32"}}, {"name": "StatefulPartitionedCall/BatchGatherND/Tile", "shape": [1, 20, 1], "dtype": "int32"}, {"name": "StatefulPartitionedCall/floordiv_2/y", "shape": [], "dtype": "int32"}, {"name": "StatefulPartitionedCall/floordiv/y", "shape": [], "dtype": "int32"}, {"name": "StatefulPartitionedCall/floordiv_1/y", "shape": [], "dtype": "int32"}, {"name": "StatefulPartitionedCall/mul_1/y", "shape": [], "dtype": "int32"}, {"name": "StatefulPartitionedCall/BatchGatherND/concat_3/axis", "shape": [], "dtype": "int32"}, {"name": "StatefulPartitionedCall/center_net_mobile_net_v2fpn_feature_extractor/model_1/conv2d/Conv2D/ReadVariableOp", "shape": [1, 1, 1280, 64], "dtype": "float32", "quantization": {"dtype": "uint8", "min": -17.987847900390623, "scale": 0.13226358750287223, "original_dtype": "float32"}}, {"name": "StatefulPartitionedCall/center_net_mobile_net_v2fpn_feature_extractor/model_1/conv2d/BiasAdd/ReadVariableOp", "shape": [64], "dtype": "float32", "quantization": {"dtype": "uint8", "min": -13.508781567741844, "scale": 0.08659475363937079, "original_dtype": "float32"}}, {"name": "StatefulPartitionedCall/center_net_mobile_net_v2fpn_feature_extractor/model_1/up_sampling2d/mul", "shape": [2], "dtype": "int32"}, {"name": "StatefulPartitionedCall/center_net_mobile_net_v2fpn_feature_extractor/model_1/conv2d_1/Conv2D/ReadVariableOp", "shape": [1, 1, 64, 64], "dtype": "float32", "quantization": {"dtype": "uint8", "min": -6.661306123172535, "scale": 0.04792306563433479, "original_dtype": "float32"}}, {"name": "StatefulPartitionedCall/center_net_mobile_net_v2fpn_feature_extractor/model_1/conv2d_1/BiasAdd/ReadVariableOp", "shape": [64], "dtype": "float32", "quantization": {"dtype": "uint8", "min": -20.88992453182445, "scale": 0.12737758860868567, "original_dtype": "float32"}}, {"name": "StatefulPartitionedCall/center_net_mobile_net_v2fpn_feature_extractor/model_1/separable_conv2d/separable_conv2d/ReadVariableOp", "shape": [3, 3, 64, 1], "dtype": "float32", "quantization": {"dtype": "uint8", "min": -4.557615770078173, "scale": 0.035886738347072226, "original_dtype": "float32"}}, {"name": "StatefulPartitionedCall/center_net_mobile_net_v2fpn_feature_extractor/model_1/up_sampling2d_1/mul", "shape": [2], "dtype": "int32"}, {"name": "StatefulPartitionedCall/center_net_mobile_net_v2fpn_feature_extractor/model_1/conv2d_2/Conv2D/ReadVariableOp", "shape": [1, 1, 32, 32], "dtype": "float32", "quantization": {"dtype": "uint8", "min": -2.913438112595502, "scale": 0.022071500852996227, "original_dtype": "float32"}}, {"name": "StatefulPartitionedCall/center_net_mobile_net_v2fpn_feature_extractor/model_1/conv2d_2/BiasAdd/ReadVariableOp", "shape": [32], "dtype": "float32", "quantization": {"dtype": "uint8", "min": -10.805342921088723, "scale": 0.06393694036147174, "original_dtype": "float32"}}, {"name": "StatefulPartitionedCall/center_net_mobile_net_v2fpn_feature_extractor/model_1/separable_conv2d_1/separable_conv2d/ReadVariableOp", "shape": [3, 3, 32, 1], "dtype": "float32", "quantization": {"dtype": "uint8", "min": -3.275902093625536, "scale": 0.02924912583594229, "original_dtype": "float32"}}, {"name": "StatefulPartitionedCall/center_net_mobile_net_v2fpn_feature_extractor/model_1/up_sampling2d_2/mul", "shape": [2], "dtype": "int32"}, {"name": "StatefulPartitionedCall/map/TensorArrayV2_1/element_shape", "shape": [], "dtype": "int32"}, {"name": "StatefulPartitionedCall/map/TensorArrayV2_1/num_elements", "shape": [], "dtype": "int32"}, {"name": "StatefulPartitionedCall/map/TensorArrayUnstack/TensorListFromTensor/element_shape", "shape": [3], "dtype": "int32"}, {"name": "StatefulPartitionedCall/map/while/maximum_iterations", "shape": [], "dtype": "int32"}, {"name": "StatefulPartitionedCall/map/Const", "shape": [], "dtype": "int32"}, {"name": "StatefulPartitionedCall/map/while/loop_counter", "shape": [], "dtype": "int32"}, {"name": "StatefulPartitionedCall/map/TensorArrayV2Stack/TensorListStack/element_shape", "shape": [3], "dtype": "int32"}, {"name": "StatefulPartitionedCall/center_net_mobile_net_v2fpn_feature_extractor/model_1/conv2d_3/Conv2D/ReadVariableOp", "shape": [1, 1, 24, 24], "dtype": "float32", "quantization": {"dtype": "uint8", "min": -2.383181216670018, "scale": 0.01876520643047258, "original_dtype": "float32"}}, {"name": "StatefulPartitionedCall/center_net_mobile_net_v2fpn_feature_extractor/model_1/conv2d_3/BiasAdd/ReadVariableOp", "shape": [24], "dtype": "float32", "quantization": {"dtype": "uint8", "min": -16.356090704600014, "scale": 0.08746572569304821, "original_dtype": "float32"}}, {"name": "StatefulPartitionedCall/center_net_mobile_net_v2fpn_feature_extractor/model_1/separable_conv2d_2/separable_conv2d/ReadVariableOp", "shape": [3, 3, 24, 1], "dtype": "float32", "quantization": {"dtype": "uint8", "min": -3.1120049869312965, "scale": 0.03241671861386767, "original_dtype": "float32"}}, {"name": "StatefulPartitionedCall/center_0/conv2d_4/Conv2D/ReadVariableOp", "shape": [1, 1, 24, 7], "dtype": "float32", "quantization": {"dtype": "uint8", "min": -0.4387804517558977, "scale": 0.0034279722793429507, "original_dtype": "float32"}}, {"name": "StatefulPartitionedCall/center_0/conv2d_4/BiasAdd/ReadVariableOp", "shape": [7], "dtype": "float32", "quantization": {"dtype": "uint8", "min": -2.190000057220459, "scale": 1.0, "original_dtype": "float32"}}, {"name": "StatefulPartitionedCall/Less/y", "shape": [], "dtype": "float32", "quantization": {"dtype": "uint8", "min": 9.999999974752427e-07, "scale": 1.0, "original_dtype": "float32"}}, {"name": "StatefulPartitionedCall/Reshape/shape", "shape": [2], "dtype": "int32"}, {"name": "StatefulPartitionedCall/TopKV2/k", "shape": [], "dtype": "int32"}, {"name": "StatefulPartitionedCall/Greater/y", "shape": [], "dtype": "float32", "quantization": {"dtype": "uint8", "min": 0.0, "scale": 1.0, "original_dtype": "float32"}}, {"name": "StatefulPartitionedCall/Sum/reduction_indices", "shape": [], "dtype": "int32"}, {"name": "StatefulPartitionedCall/center_net_mobile_net_v2fpn_feature_extractor/model_1/model/Conv1/Conv2D_weights", "shape": [3, 3, 3, 32], "dtype": "float32", "quantization": {"dtype": "uint8", "min": -5.486111749387255, "scale": 0.04286024804208793, "original_dtype": "float32"}}, {"name": "StatefulPartitionedCall/center_net_mobile_net_v2fpn_feature_extractor/model_1/model/Conv1/Conv2D_bn_offset", "shape": [32], "dtype": "float32", "quantization": {"dtype": "uint8", "min": -10.35847661635455, "scale": 0.06165759890687232, "original_dtype": "float32"}}, {"name": "StatefulPartitionedCall/center_net_mobile_net_v2fpn_feature_extractor/model_1/model/expanded_conv_depthwise/depthwise_weights", "shape": [3, 3, 32, 1], "dtype": "float32", "quantization": {"dtype": "uint8", "min": -56.487501705394074, "scale": 0.3423484951842065, "original_dtype": "float32"}}, {"name": "StatefulPartitionedCall/center_net_mobile_net_v2fpn_feature_extractor/model_1/model/expanded_conv_depthwise/depthwise_bn_offset", "shape": [32], "dtype": "float32", "quantization": {"dtype": "uint8", "min": -1.6049734082876466, "scale": 0.021985937099830776, "original_dtype": "float32"}}, {"name": "StatefulPartitionedCall/center_net_mobile_net_v2fpn_feature_extractor/model_1/model/expanded_conv_project/Conv2D_weights", "shape": [1, 1, 32, 16], "dtype": "float32", "quantization": {"dtype": "uint8", "min": -7.989648957346001, "scale": 0.05626513350243662, "original_dtype": "float32"}}, {"name": "StatefulPartitionedCall/center_net_mobile_net_v2fpn_feature_extractor/model_1/model/expanded_conv_project/Conv2D_bn_offset", "shape": [16], "dtype": "float32", "quantization": {"dtype": "uint8", "min": -24.160626849006203, "scale": 0.21766330494600183, "original_dtype": "float32"}}, {"name": "StatefulPartitionedCall/center_net_mobile_net_v2fpn_feature_extractor/model_1/model/block_1_expand/Conv2D_weights", "shape": [1, 1, 16, 96], "dtype": "float32", "quantization": {"dtype": "uint8", "min": -2.3602843845591828, "scale": 0.029877017526065603, "original_dtype": "float32"}}, {"name": "StatefulPartitionedCall/center_net_mobile_net_v2fpn_feature_extractor/model_1/model/block_1_expand/Conv2D_bn_offset", "shape": [96], "dtype": "float32", "quantization": {"dtype": "uint8", "min": -7.810227960698745, "scale": 0.052417637320125804, "original_dtype": "float32"}}, {"name": "StatefulPartitionedCall/center_net_mobile_net_v2fpn_feature_extractor/model_1/model/block_1_depthwise/depthwise_weights", "shape": [3, 3, 96, 1], "dtype": "float32", "quantization": {"dtype": "uint8", "min": -84.18628408394608, "scale": 0.6900515088848039, "original_dtype": "float32"}}, {"name": "StatefulPartitionedCall/center_net_mobile_net_v2fpn_feature_extractor/model_1/model/block_1_depthwise/depthwise_bn_offset", "shape": [96], "dtype": "float32", "quantization": {"dtype": "uint8", "min": -56.969881461648384, "scale": 0.2725831648882698, "original_dtype": "float32"}}, {"name": "StatefulPartitionedCall/center_net_mobile_net_v2fpn_feature_extractor/model_1/model/block_1_project/Conv2D_weights", "shape": [1, 1, 96, 24], "dtype": "float32", "quantization": {"dtype": "uint8", "min": -0.849959397315979, "scale": 0.005985629558563232, "original_dtype": "float32"}}, {"name": "StatefulPartitionedCall/center_net_mobile_net_v2fpn_feature_extractor/model_1/model/block_1_project/Conv2D_bn_offset", "shape": [24], "dtype": "float32", "quantization": {"dtype": "uint8", "min": -12.359931306278005, "scale": 0.09021847668816062, "original_dtype": "float32"}}, {"name": "StatefulPartitionedCall/center_net_mobile_net_v2fpn_feature_extractor/model_1/model/block_2_expand/Conv2D_weights", "shape": [1, 1, 24, 144], "dtype": "float32", "quantization": {"dtype": "uint8", "min": -3.0904979500116085, "scale": 0.021611873776304955, "original_dtype": "float32"}}, {"name": "StatefulPartitionedCall/center_net_mobile_net_v2fpn_feature_extractor/model_1/model/block_2_expand/Conv2D_bn_offset", "shape": [144], "dtype": "float32", "quantization": {"dtype": "uint8", "min": -31.638082586550244, "scale": 0.28248288023705576, "original_dtype": "float32"}}, {"name": "StatefulPartitionedCall/center_net_mobile_net_v2fpn_feature_extractor/model_1/model/block_2_depthwise/depthwise_weights", "shape": [3, 3, 144, 1], "dtype": "float32", "quantization": {"dtype": "uint8", "min": -69.9048770680147, "scale": 0.7281758027918198, "original_dtype": "float32"}}, {"name": "StatefulPartitionedCall/center_net_mobile_net_v2fpn_feature_extractor/model_1/model/block_2_depthwise/depthwise_bn_offset", "shape": [144], "dtype": "float32", "quantization": {"dtype": "uint8", "min": -3.845620368508732, "scale": 0.060087818257948934, "original_dtype": "float32"}}, {"name": "StatefulPartitionedCall/center_net_mobile_net_v2fpn_feature_extractor/model_1/model/block_2_project/Conv2D_weights", "shape": [1, 1, 144, 24], "dtype": "float32", "quantization": {"dtype": "uint8", "min": -0.6491872549057006, "scale": 0.006364580930448046, "original_dtype": "float32"}}, {"name": "StatefulPartitionedCall/center_net_mobile_net_v2fpn_feature_extractor/model_1/model/block_2_project/Conv2D_bn_offset", "shape": [24], "dtype": "float32", "quantization": {"dtype": "uint8", "min": -14.174367713928223, "scale": 0.11523876190185547, "original_dtype": "float32"}}, {"name": "StatefulPartitionedCall/center_net_mobile_net_v2fpn_feature_extractor/model_1/model/block_3_expand/Conv2D_weights", "shape": [1, 1, 24, 144], "dtype": "float32", "quantization": {"dtype": "uint8", "min": -2.1490143383250517, "scale": 0.01747166128719554, "original_dtype": "float32"}}, {"name": "StatefulPartitionedCall/center_net_mobile_net_v2fpn_feature_extractor/model_1/model/block_3_expand/Conv2D_bn_offset", "shape": [144], "dtype": "float32", "quantization": {"dtype": "uint8", "min": -45.354906822653376, "scale": 0.35158842498180914, "original_dtype": "float32"}}, {"name": "StatefulPartitionedCall/center_net_mobile_net_v2fpn_feature_extractor/model_1/model/block_3_depthwise/depthwise_weights", "shape": [3, 3, 144, 1], "dtype": "float32", "quantization": {"dtype": "uint8", "min": -28.317429449044024, "scale": 0.8090694128298292, "original_dtype": "float32"}}, {"name": "StatefulPartitionedCall/center_net_mobile_net_v2fpn_feature_extractor/model_1/model/block_3_depthwise/depthwise_bn_offset", "shape": [144], "dtype": "float32", "quantization": {"dtype": "uint8", "min": -2.6267651081085206, "scale": 0.05150519819820629, "original_dtype": "float32"}}, {"name": "StatefulPartitionedCall/center_net_mobile_net_v2fpn_feature_extractor/model_1/model/block_3_project/Conv2D_weights", "shape": [1, 1, 144, 32], "dtype": "float32", "quantization": {"dtype": "uint8", "min": -0.4818023227009119, "scale": 0.0033227746393166336, "original_dtype": "float32"}}, {"name": "StatefulPartitionedCall/center_net_mobile_net_v2fpn_feature_extractor/model_1/model/block_3_project/Conv2D_bn_offset", "shape": [32], "dtype": "float32", "quantization": {"dtype": "uint8", "min": -7.896357693391688, "scale": 0.06472424338845646, "original_dtype": "float32"}}, {"name": "StatefulPartitionedCall/center_net_mobile_net_v2fpn_feature_extractor/model_1/model/block_4_expand/Conv2D_weights", "shape": [1, 1, 32, 192], "dtype": "float32", "quantization": {"dtype": "uint8", "min": -1.569430576586256, "scale": 0.011455697639315737, "original_dtype": "float32"}}, {"name": "StatefulPartitionedCall/center_net_mobile_net_v2fpn_feature_extractor/model_1/model/block_4_expand/Conv2D_bn_offset", "shape": [192], "dtype": "float32", "quantization": {"dtype": "uint8", "min": -9.787170006247127, "scale": 0.07414522732005399, "original_dtype": "float32"}}, {"name": "StatefulPartitionedCall/center_net_mobile_net_v2fpn_feature_extractor/model_1/model/block_4_depthwise/depthwise_weights", "shape": [3, 3, 192, 1], "dtype": "float32", "quantization": {"dtype": "uint8", "min": -77.15921606924019, "scale": 0.6222517424938725, "original_dtype": "float32"}}, {"name": "StatefulPartitionedCall/center_net_mobile_net_v2fpn_feature_extractor/model_1/model/block_4_depthwise/depthwise_bn_offset", "shape": [192], "dtype": "float32", "quantization": {"dtype": "uint8", "min": -7.559714889526368, "scale": 0.060965442657470705, "original_dtype": "float32"}}, {"name": "StatefulPartitionedCall/center_net_mobile_net_v2fpn_feature_extractor/model_1/model/block_4_project/Conv2D_weights", "shape": [1, 1, 192, 32], "dtype": "float32", "quantization": {"dtype": "uint8", "min": -0.5082898986105826, "scale": 0.00400228266622506, "original_dtype": "float32"}}, {"name": "StatefulPartitionedCall/center_net_mobile_net_v2fpn_feature_extractor/model_1/model/block_4_project/Conv2D_bn_offset", "shape": [32], "dtype": "float32", "quantization": {"dtype": "uint8", "min": -5.388115901573031, "scale": 0.04310492721258425, "original_dtype": "float32"}}, {"name": "StatefulPartitionedCall/center_net_mobile_net_v2fpn_feature_extractor/model_1/model/block_5_expand/Conv2D_weights", "shape": [1, 1, 32, 192], "dtype": "float32", "quantization": {"dtype": "uint8", "min": -1.3424229434892243, "scale": 0.010326330334532495, "original_dtype": "float32"}}, {"name": "StatefulPartitionedCall/center_net_mobile_net_v2fpn_feature_extractor/model_1/model/block_5_expand/Conv2D_bn_offset", "shape": [192], "dtype": "float32", "quantization": {"dtype": "uint8", "min": -18.802385995902267, "scale": 0.19186108159083945, "original_dtype": "float32"}}, {"name": "StatefulPartitionedCall/center_net_mobile_net_v2fpn_feature_extractor/model_1/model/block_5_depthwise/depthwise_weights", "shape": [3, 3, 192, 1], "dtype": "float32", "quantization": {"dtype": "uint8", "min": -91.10053710937501, "scale": 0.6698568905101103, "original_dtype": "float32"}}, {"name": "StatefulPartitionedCall/center_net_mobile_net_v2fpn_feature_extractor/model_1/model/block_5_depthwise/depthwise_bn_offset", "shape": [192], "dtype": "float32", "quantization": {"dtype": "uint8", "min": -13.81372496661018, "scale": 0.10464943156522863, "original_dtype": "float32"}}, {"name": "StatefulPartitionedCall/center_net_mobile_net_v2fpn_feature_extractor/model_1/model/block_5_project/Conv2D_weights", "shape": [1, 1, 192, 32], "dtype": "float32", "quantization": {"dtype": "uint8", "min": -0.8027525672725603, "scale": 0.005498305255291509, "original_dtype": "float32"}}, {"name": "StatefulPartitionedCall/center_net_mobile_net_v2fpn_feature_extractor/model_1/model/block_5_project/Conv2D_bn_offset", "shape": [32], "dtype": "float32", "quantization": {"dtype": "uint8", "min": -8.480325351041905, "scale": 0.06014415142582912, "original_dtype": "float32"}}, {"name": "StatefulPartitionedCall/center_net_mobile_net_v2fpn_feature_extractor/model_1/model/block_6_expand/Conv2D_weights", "shape": [1, 1, 32, 192], "dtype": "float32", "quantization": {"dtype": "uint8", "min": -2.070977638282028, "scale": 0.014184778344397452, "original_dtype": "float32"}}, {"name": "StatefulPartitionedCall/center_net_mobile_net_v2fpn_feature_extractor/model_1/model/block_6_expand/Conv2D_bn_offset", "shape": [192], "dtype": "float32", "quantization": {"dtype": "uint8", "min": -28.6810053507487, "scale": 0.5853266398111979, "original_dtype": "float32"}}, {"name": "StatefulPartitionedCall/center_net_mobile_net_v2fpn_feature_extractor/model_1/model/block_6_depthwise/depthwise_weights", "shape": [3, 3, 192, 1], "dtype": "float32", "quantization": {"dtype": "uint8", "min": -1.287646539071027, "scale": 0.009981756116829667, "original_dtype": "float32"}}, {"name": "StatefulPartitionedCall/center_net_mobile_net_v2fpn_feature_extractor/model_1/model/block_6_depthwise/depthwise_bn_offset", "shape": [192], "dtype": "float32", "quantization": {"dtype": "uint8", "min": -1.3684289876152487, "scale": 0.04561429958717496, "original_dtype": "float32"}}, {"name": "StatefulPartitionedCall/center_net_mobile_net_v2fpn_feature_extractor/model_1/model/block_6_project/Conv2D_weights", "shape": [1, 1, 192, 64], "dtype": "float32", "quantization": {"dtype": "uint8", "min": -1.4683052862391752, "scale": 0.009008007891037884, "original_dtype": "float32"}}, {"name": "StatefulPartitionedCall/center_net_mobile_net_v2fpn_feature_extractor/model_1/model/block_6_project/Conv2D_bn_offset", "shape": [64], "dtype": "float32", "quantization": {"dtype": "uint8", "min": -8.478066657571231, "scale": 0.1009293649710861, "original_dtype": "float32"}}, {"name": "StatefulPartitionedCall/center_net_mobile_net_v2fpn_feature_extractor/model_1/model/block_7_expand/Conv2D_weights", "shape": [1, 1, 64, 384], "dtype": "float32", "quantization": {"dtype": "uint8", "min": -0.6532821038190055, "scale": 0.005268404063056497, "original_dtype": "float32"}}, {"name": "StatefulPartitionedCall/center_net_mobile_net_v2fpn_feature_extractor/model_1/model/block_7_expand/Conv2D_bn_offset", "shape": [384], "dtype": "float32", "quantization": {"dtype": "uint8", "min": -5.77245210946775, "scale": 0.04406451991960114, "original_dtype": "float32"}}, {"name": "StatefulPartitionedCall/center_net_mobile_net_v2fpn_feature_extractor/model_1/model/block_7_depthwise/depthwise_weights", "shape": [3, 3, 384, 1], "dtype": "float32", "quantization": {"dtype": "uint8", "min": -3.297535498001996, "scale": 0.032648866316851446, "original_dtype": "float32"}}, {"name": "StatefulPartitionedCall/center_net_mobile_net_v2fpn_feature_extractor/model_1/model/block_7_depthwise/depthwise_bn_offset", "shape": [384], "dtype": "float32", "quantization": {"dtype": "uint8", "min": -5.71575990190693, "scale": 0.15041473426070867, "original_dtype": "float32"}}, {"name": "StatefulPartitionedCall/center_net_mobile_net_v2fpn_feature_extractor/model_1/model/block_7_project/Conv2D_weights", "shape": [1, 1, 384, 64], "dtype": "float32", "quantization": {"dtype": "uint8", "min": -1.0527796857497271, "scale": 0.009747960053238214, "original_dtype": "float32"}}, {"name": "StatefulPartitionedCall/center_net_mobile_net_v2fpn_feature_extractor/model_1/model/block_7_project/Conv2D_bn_offset", "shape": [64], "dtype": "float32", "quantization": {"dtype": "uint8", "min": -8.422876975115607, "scale": 0.06239168129715265, "original_dtype": "float32"}}, {"name": "StatefulPartitionedCall/center_net_mobile_net_v2fpn_feature_extractor/model_1/model/block_8_expand/Conv2D_weights", "shape": [1, 1, 64, 384], "dtype": "float32", "quantization": {"dtype": "uint8", "min": -0.4261579936625911, "scale": 0.003611508420869416, "original_dtype": "float32"}}, {"name": "StatefulPartitionedCall/center_net_mobile_net_v2fpn_feature_extractor/model_1/model/block_8_expand/Conv2D_bn_offset", "shape": [384], "dtype": "float32", "quantization": {"dtype": "uint8", "min": -5.146848117603975, "scale": 0.042890400980033126, "original_dtype": "float32"}}, {"name": "StatefulPartitionedCall/center_net_mobile_net_v2fpn_feature_extractor/model_1/model/block_8_depthwise/depthwise_weights", "shape": [3, 3, 384, 1], "dtype": "float32", "quantization": {"dtype": "uint8", "min": -10.542639406989602, "scale": 0.19523406309240005, "original_dtype": "float32"}}, {"name": "StatefulPartitionedCall/center_net_mobile_net_v2fpn_feature_extractor/model_1/model/block_8_depthwise/depthwise_bn_offset", "shape": [384], "dtype": "float32", "quantization": {"dtype": "uint8", "min": -9.517719956940295, "scale": 0.08204930997362324, "original_dtype": "float32"}}, {"name": "StatefulPartitionedCall/center_net_mobile_net_v2fpn_feature_extractor/model_1/model/block_8_project/Conv2D_weights", "shape": [1, 1, 384, 64], "dtype": "float32", "quantization": {"dtype": "uint8", "min": -1.203768263611139, "scale": 0.008660203335331936, "original_dtype": "float32"}}, {"name": "StatefulPartitionedCall/center_net_mobile_net_v2fpn_feature_extractor/model_1/model/block_8_project/Conv2D_bn_offset", "shape": [64], "dtype": "float32", "quantization": {"dtype": "uint8", "min": -7.8015145133523385, "scale": 0.061429248136632586, "original_dtype": "float32"}}, {"name": "StatefulPartitionedCall/center_net_mobile_net_v2fpn_feature_extractor/model_1/model/block_9_expand/Conv2D_weights", "shape": [1, 1, 64, 384], "dtype": "float32", "quantization": {"dtype": "uint8", "min": -0.3337776209793839, "scale": 0.003148845480937584, "original_dtype": "float32"}}, {"name": "StatefulPartitionedCall/center_net_mobile_net_v2fpn_feature_extractor/model_1/model/block_9_expand/Conv2D_bn_offset", "shape": [384], "dtype": "float32", "quantization": {"dtype": "uint8", "min": -7.551561288272633, "scale": 0.06992186378030216, "original_dtype": "float32"}}, {"name": "StatefulPartitionedCall/center_net_mobile_net_v2fpn_feature_extractor/model_1/model/block_9_depthwise/depthwise_weights", "shape": [3, 3, 384, 1], "dtype": "float32", "quantization": {"dtype": "uint8", "min": -6.321331643123252, "scale": 0.057993868285534426, "original_dtype": "float32"}}, {"name": "StatefulPartitionedCall/center_net_mobile_net_v2fpn_feature_extractor/model_1/model/block_9_depthwise/depthwise_bn_offset", "shape": [384], "dtype": "float32", "quantization": {"dtype": "uint8", "min": -10.754147731556612, "scale": 0.09191579257740694, "original_dtype": "float32"}}, {"name": "StatefulPartitionedCall/center_net_mobile_net_v2fpn_feature_extractor/model_1/model/block_9_project/Conv2D_weights", "shape": [1, 1, 384, 64], "dtype": "float32", "quantization": {"dtype": "uint8", "min": -1.4098082542419434, "scale": 0.009858798980712891, "original_dtype": "float32"}}, {"name": "StatefulPartitionedCall/center_net_mobile_net_v2fpn_feature_extractor/model_1/model/block_9_project/Conv2D_bn_offset", "shape": [64], "dtype": "float32", "quantization": {"dtype": "uint8", "min": -7.575260843015185, "scale": 0.056956848443723194, "original_dtype": "float32"}}, {"name": "StatefulPartitionedCall/center_net_mobile_net_v2fpn_feature_extractor/model_1/model/block_10_expand/Conv2D_weights", "shape": [1, 1, 64, 384], "dtype": "float32", "quantization": {"dtype": "uint8", "min": -0.2344062701744192, "scale": 0.002694324944533554, "original_dtype": "float32"}}, {"name": "StatefulPartitionedCall/center_net_mobile_net_v2fpn_feature_extractor/model_1/model/block_10_expand/Conv2D_bn_offset", "shape": [384], "dtype": "float32", "quantization": {"dtype": "uint8", "min": -7.1353331584556425, "scale": 0.06546177209592333, "original_dtype": "float32"}}, {"name": "StatefulPartitionedCall/center_net_mobile_net_v2fpn_feature_extractor/model_1/model/block_10_depthwise/depthwise_weights", "shape": [3, 3, 384, 1], "dtype": "float32", "quantization": {"dtype": "uint8", "min": -2.8132816903731404, "scale": 0.02083912363239363, "original_dtype": "float32"}}, {"name": "StatefulPartitionedCall/center_net_mobile_net_v2fpn_feature_extractor/model_1/model/block_10_depthwise/depthwise_bn_offset", "shape": [384], "dtype": "float32", "quantization": {"dtype": "uint8", "min": -8.633897706574084, "scale": 0.0616706979041006, "original_dtype": "float32"}}, {"name": "StatefulPartitionedCall/center_net_mobile_net_v2fpn_feature_extractor/model_1/model/block_10_project/Conv2D_weights", "shape": [1, 1, 384, 96], "dtype": "float32", "quantization": {"dtype": "uint8", "min": -1.0869110584259034, "scale": 0.007444596290588379, "original_dtype": "float32"}}, {"name": "StatefulPartitionedCall/center_net_mobile_net_v2fpn_feature_extractor/model_1/model/block_10_project/Conv2D_bn_offset", "shape": [96], "dtype": "float32", "quantization": {"dtype": "uint8", "min": -9.92686517752853, "scale": 0.08557642394421147, "original_dtype": "float32"}}, {"name": "StatefulPartitionedCall/center_net_mobile_net_v2fpn_feature_extractor/model_1/model/block_11_expand/Conv2D_weights", "shape": [1, 1, 96, 576], "dtype": "float32", "quantization": {"dtype": "uint8", "min": -0.5931814044129615, "scale": 0.004062886331595627, "original_dtype": "float32"}}, {"name": "StatefulPartitionedCall/center_net_mobile_net_v2fpn_feature_extractor/model_1/model/block_11_expand/Conv2D_bn_offset", "shape": [576], "dtype": "float32", "quantization": {"dtype": "uint8", "min": -4.410729829002829, "scale": 0.038354172426111555, "original_dtype": "float32"}}, {"name": "StatefulPartitionedCall/center_net_mobile_net_v2fpn_feature_extractor/model_1/model/block_11_depthwise/depthwise_weights", "shape": [3, 3, 576, 1], "dtype": "float32", "quantization": {"dtype": "uint8", "min": -3.5952143902872122, "scale": 0.04331583602755677, "original_dtype": "float32"}}, {"name": "StatefulPartitionedCall/center_net_mobile_net_v2fpn_feature_extractor/model_1/model/block_11_depthwise/depthwise_bn_offset", "shape": [576], "dtype": "float32", "quantization": {"dtype": "uint8", "min": -6.177397986019359, "scale": 0.05997473772834329, "original_dtype": "float32"}}, {"name": "StatefulPartitionedCall/center_net_mobile_net_v2fpn_feature_extractor/model_1/model/block_11_project/Conv2D_weights", "shape": [1, 1, 576, 96], "dtype": "float32", "quantization": {"dtype": "uint8", "min": -1.6876282130970675, "scale": 0.011638815262738396, "original_dtype": "float32"}}, {"name": "StatefulPartitionedCall/center_net_mobile_net_v2fpn_feature_extractor/model_1/model/block_11_project/Conv2D_bn_offset", "shape": [96], "dtype": "float32", "quantization": {"dtype": "uint8", "min": -15.589400945925245, "scale": 0.12179219489004098, "original_dtype": "float32"}}, {"name": "StatefulPartitionedCall/center_net_mobile_net_v2fpn_feature_extractor/model_1/model/block_12_expand/Conv2D_weights", "shape": [1, 1, 96, 576], "dtype": "float32", "quantization": {"dtype": "uint8", "min": -0.36873476002730576, "scale": 0.0028147691605137845, "original_dtype": "float32"}}, {"name": "StatefulPartitionedCall/center_net_mobile_net_v2fpn_feature_extractor/model_1/model/block_12_expand/Conv2D_bn_offset", "shape": [576], "dtype": "float32", "quantization": {"dtype": "uint8", "min": -5.821586143269259, "scale": 0.04188191469977884, "original_dtype": "float32"}}, {"name": "StatefulPartitionedCall/center_net_mobile_net_v2fpn_feature_extractor/model_1/model/block_12_depthwise/depthwise_weights", "shape": [3, 3, 576, 1], "dtype": "float32", "quantization": {"dtype": "uint8", "min": -4.298562779146082, "scale": 0.23880904328589345, "original_dtype": "float32"}}, {"name": "StatefulPartitionedCall/center_net_mobile_net_v2fpn_feature_extractor/model_1/model/block_12_depthwise/depthwise_bn_offset", "shape": [576], "dtype": "float32", "quantization": {"dtype": "uint8", "min": -16.00396467844645, "scale": 0.09469801584879557, "original_dtype": "float32"}}, {"name": "StatefulPartitionedCall/center_net_mobile_net_v2fpn_feature_extractor/model_1/model/block_12_project/Conv2D_weights", "shape": [1, 1, 576, 96], "dtype": "float32", "quantization": {"dtype": "uint8", "min": -2.433534860610962, "scale": 0.01678299903869629, "original_dtype": "float32"}}, {"name": "StatefulPartitionedCall/center_net_mobile_net_v2fpn_feature_extractor/model_1/model/block_12_project/Conv2D_bn_offset", "shape": [96], "dtype": "float32", "quantization": {"dtype": "uint8", "min": -26.473635161156746, "scale": 0.224352840348786, "original_dtype": "float32"}}, {"name": "StatefulPartitionedCall/center_net_mobile_net_v2fpn_feature_extractor/model_1/model/block_13_expand/Conv2D_weights", "shape": [1, 1, 96, 576], "dtype": "float32", "quantization": {"dtype": "uint8", "min": -0.22262147594900691, "scale": 0.0015901533996357637, "original_dtype": "float32"}}, {"name": "StatefulPartitionedCall/center_net_mobile_net_v2fpn_feature_extractor/model_1/model/block_13_expand/Conv2D_bn_offset", "shape": [576], "dtype": "float32", "quantization": {"dtype": "uint8", "min": -7.810590085796282, "scale": 0.06619144140505323, "original_dtype": "float32"}}, {"name": "StatefulPartitionedCall/center_net_mobile_net_v2fpn_feature_extractor/model_1/model/block_13_depthwise/depthwise_weights", "shape": [3, 3, 576, 1], "dtype": "float32", "quantization": {"dtype": "uint8", "min": -1.1519471290064793, "scale": 0.01265875965941186, "original_dtype": "float32"}}, {"name": "StatefulPartitionedCall/center_net_mobile_net_v2fpn_feature_extractor/model_1/model/block_13_depthwise/depthwise_bn_offset", "shape": [576], "dtype": "float32", "quantization": {"dtype": "uint8", "min": -12.129417217479034, "scale": 0.07395986108218923, "original_dtype": "float32"}}, {"name": "StatefulPartitionedCall/center_net_mobile_net_v2fpn_feature_extractor/model_1/model/block_13_project/Conv2D_weights", "shape": [1, 1, 576, 160], "dtype": "float32", "quantization": {"dtype": "uint8", "min": -0.6167844328225828, "scale": 0.0050556101051031374, "original_dtype": "float32"}}, {"name": "StatefulPartitionedCall/center_net_mobile_net_v2fpn_feature_extractor/model_1/model/block_13_project/Conv2D_bn_offset", "shape": [160], "dtype": "float32", "quantization": {"dtype": "uint8", "min": -18.04785899741977, "scale": 0.13776991601083793, "original_dtype": "float32"}}, {"name": "StatefulPartitionedCall/center_net_mobile_net_v2fpn_feature_extractor/model_1/model/block_14_expand/Conv2D_weights", "shape": [1, 1, 160, 960], "dtype": "float32", "quantization": {"dtype": "uint8", "min": -0.3511609605714387, "scale": 0.00290215669893751, "original_dtype": "float32"}}, {"name": "StatefulPartitionedCall/center_net_mobile_net_v2fpn_feature_extractor/model_1/model/block_14_expand/Conv2D_bn_offset", "shape": [960], "dtype": "float32", "quantization": {"dtype": "uint8", "min": -4.159598842321658, "scale": 0.045709877388150084, "original_dtype": "float32"}}, {"name": "StatefulPartitionedCall/center_net_mobile_net_v2fpn_feature_extractor/model_1/model/block_14_depthwise/depthwise_weights", "shape": [3, 3, 960, 1], "dtype": "float32", "quantization": {"dtype": "uint8", "min": -59.83421063890644, "scale": 0.41842105341892616, "original_dtype": "float32"}}, {"name": "StatefulPartitionedCall/center_net_mobile_net_v2fpn_feature_extractor/model_1/model/block_14_depthwise/depthwise_bn_offset", "shape": [960], "dtype": "float32", "quantization": {"dtype": "uint8", "min": -14.821171517465629, "scale": 0.09380488302193436, "original_dtype": "float32"}}, {"name": "StatefulPartitionedCall/center_net_mobile_net_v2fpn_feature_extractor/model_1/model/block_14_project/Conv2D_weights", "shape": [1, 1, 960, 160], "dtype": "float32", "quantization": {"dtype": "uint8", "min": -0.5506343168370864, "scale": 0.004301830600289738, "original_dtype": "float32"}}, {"name": "StatefulPartitionedCall/center_net_mobile_net_v2fpn_feature_extractor/model_1/model/block_14_project/Conv2D_bn_offset", "shape": [160], "dtype": "float32", "quantization": {"dtype": "uint8", "min": -10.86236572265625, "scale": 0.09051971435546875, "original_dtype": "float32"}}, {"name": "StatefulPartitionedCall/center_net_mobile_net_v2fpn_feature_extractor/model_1/model/block_15_expand/Conv2D_weights", "shape": [1, 1, 160, 960], "dtype": "float32", "quantization": {"dtype": "uint8", "min": -0.33195701066185446, "scale": 0.0025733101601694143, "original_dtype": "float32"}}, {"name": "StatefulPartitionedCall/center_net_mobile_net_v2fpn_feature_extractor/model_1/model/block_15_expand/Conv2D_bn_offset", "shape": [960], "dtype": "float32", "quantization": {"dtype": "uint8", "min": -5.9508831828248265, "scale": 0.058919635473513136, "original_dtype": "float32"}}, {"name": "StatefulPartitionedCall/center_net_mobile_net_v2fpn_feature_extractor/model_1/model/block_15_depthwise/depthwise_weights", "shape": [3, 3, 960, 1], "dtype": "float32", "quantization": {"dtype": "uint8", "min": -7.462052642597872, "scale": 0.052922359167360794, "original_dtype": "float32"}}, {"name": "StatefulPartitionedCall/center_net_mobile_net_v2fpn_feature_extractor/model_1/model/block_15_depthwise/depthwise_bn_offset", "shape": [960], "dtype": "float32", "quantization": {"dtype": "uint8", "min": -12.908861440770766, "scale": 0.08902663062600528, "original_dtype": "float32"}}, {"name": "StatefulPartitionedCall/center_net_mobile_net_v2fpn_feature_extractor/model_1/model/block_15_project/Conv2D_weights", "shape": [1, 1, 960, 160], "dtype": "float32", "quantization": {"dtype": "uint8", "min": -1.6233945220124488, "scale": 0.011849595051185758, "original_dtype": "float32"}}, {"name": "StatefulPartitionedCall/center_net_mobile_net_v2fpn_feature_extractor/model_1/model/block_15_project/Conv2D_bn_offset", "shape": [160], "dtype": "float32", "quantization": {"dtype": "uint8", "min": -25.228288298962163, "scale": 0.18827080820121017, "original_dtype": "float32"}}, {"name": "StatefulPartitionedCall/center_net_mobile_net_v2fpn_feature_extractor/model_1/model/block_16_expand/Conv2D_weights", "shape": [1, 1, 160, 960], "dtype": "float32", "quantization": {"dtype": "uint8", "min": -0.1786880324868595, "scale": 0.0013536972158095415, "original_dtype": "float32"}}, {"name": "StatefulPartitionedCall/center_net_mobile_net_v2fpn_feature_extractor/model_1/model/block_16_expand/Conv2D_bn_offset", "shape": [960], "dtype": "float32", "quantization": {"dtype": "uint8", "min": -5.105478286743164, "scale": 0.041848182678222656, "original_dtype": "float32"}}, {"name": "StatefulPartitionedCall/center_net_mobile_net_v2fpn_feature_extractor/model_1/model/block_16_depthwise/depthwise_weights", "shape": [3, 3, 960, 1], "dtype": "float32", "quantization": {"dtype": "uint8", "min": -50.87550443761489, "scale": 0.5087550443761489, "original_dtype": "float32"}}, {"name": "StatefulPartitionedCall/center_net_mobile_net_v2fpn_feature_extractor/model_1/model/block_16_depthwise/depthwise_bn_offset", "shape": [960], "dtype": "float32", "quantization": {"dtype": "uint8", "min": -25.752162215288948, "scale": 0.1384524850284352, "original_dtype": "float32"}}, {"name": "StatefulPartitionedCall/center_net_mobile_net_v2fpn_feature_extractor/model_1/model/block_16_project/Conv2D_weights", "shape": [1, 1, 960, 320], "dtype": "float32", "quantization": {"dtype": "uint8", "min": -0.806576513075361, "scale": 0.005887419803469789, "original_dtype": "float32"}}, {"name": "StatefulPartitionedCall/center_net_mobile_net_v2fpn_feature_extractor/model_1/model/block_16_project/Conv2D_bn_offset", "shape": [320], "dtype": "float32", "quantization": {"dtype": "uint8", "min": -19.316886153875615, "scale": 0.20549878887101716, "original_dtype": "float32"}}, {"name": "StatefulPartitionedCall/center_net_mobile_net_v2fpn_feature_extractor/model_1/model/Conv_1/Conv2D_weights", "shape": [1, 1, 320, 1280], "dtype": "float32", "quantization": {"dtype": "uint8", "min": -1.1578528913797117, "scale": 0.008451480958975998, "original_dtype": "float32"}}, {"name": "StatefulPartitionedCall/center_net_mobile_net_v2fpn_feature_extractor/model_1/model/Conv_1/Conv2D_bn_offset", "shape": [1280], "dtype": "float32", "quantization": {"dtype": "uint8", "min": -16.87068827012006, "scale": 0.11247125513413374, "original_dtype": "float32"}}, {"name": "StatefulPartitionedCall/center_net_mobile_net_v2fpn_feature_extractor/model_1/separable_conv2d/separable_conv2d_weights", "shape": [1, 1, 64, 32], "dtype": "float32", "quantization": {"dtype": "uint8", "min": -0.015617612004280091, "scale": 0.00011483538238441243, "original_dtype": "float32"}}, {"name": "StatefulPartitionedCall/center_net_mobile_net_v2fpn_feature_extractor/model_1/separable_conv2d/separable_conv2d_bn_offset", "shape": [32], "dtype": "float32", "quantization": {"dtype": "uint8", "min": -7.426739053165211, "scale": 0.1280472250545726, "original_dtype": "float32"}}, {"name": "StatefulPartitionedCall/center_net_mobile_net_v2fpn_feature_extractor/model_1/separable_conv2d_1/separable_conv2d_weights", "shape": [1, 1, 32, 24], "dtype": "float32", "quantization": {"dtype": "uint8", "min": -0.1938839695032905, "scale": 0.0014914151500253117, "original_dtype": "float32"}}, {"name": "StatefulPartitionedCall/center_net_mobile_net_v2fpn_feature_extractor/model_1/separable_conv2d_1/separable_conv2d_bn_offset", "shape": [24], "dtype": "float32", "quantization": {"dtype": "uint8", "min": -6.102946247774012, "scale": 0.10706923241708793, "original_dtype": "float32"}}, {"name": "StatefulPartitionedCall/center_net_mobile_net_v2fpn_feature_extractor/model_1/separable_conv2d_2/separable_conv2d_weights", "shape": [1, 1, 24, 24], "dtype": "float32", "quantization": {"dtype": "uint8", "min": -0.0019186570254318856, "scale": 1.5988808545265713e-05, "original_dtype": "float32"}}, {"name": "StatefulPartitionedCall/center_net_mobile_net_v2fpn_feature_extractor/model_1/separable_conv2d_2/separable_conv2d_bn_offset", "shape": [24], "dtype": "float32", "quantization": {"dtype": "uint8", "min": -0.6726599468904383, "scale": 0.00764386303284589, "original_dtype": "float32"}}, {"name": "StatefulPartitionedCall/map/while/cond/_309/map/while/Less/y", "shape": [], "dtype": "int32"}, {"name": "StatefulPartitionedCall/map/while/body/_310/map/while/strided_slice_2/stack", "shape": [1], "dtype": "int32"}, {"name": "StatefulPartitionedCall/map/while/body/_310/map/while/strided_slice_2/stack_1", "shape": [1], "dtype": "int32"}, {"name": "StatefulPartitionedCall/map/while/body/_310/map/while/strided_slice_2/stack_2", "shape": [1], "dtype": "int32"}, {"name": "StatefulPartitionedCall/map/while/body/_310/map/while/ResizeToRange/Pad/paddings/0/0", "shape": [], "dtype": "int32"}, {"name": "StatefulPartitionedCall/map/while/body/_310/map/while/ResizeToRange/sub/x", "shape": [], "dtype": "int32"}, {"name": "StatefulPartitionedCall/map/while/body/_310/map/while/ResizeToRange/strided_slice_2/stack", "shape": [1], "dtype": "int32"}, {"name": "StatefulPartitionedCall/map/while/body/_310/map/while/ResizeToRange/strided_slice_2/stack_1", "shape": [1], "dtype": "int32"}, {"name": "StatefulPartitionedCall/map/while/body/_310/map/while/ResizeToRange/strided_slice_2/stack_2", "shape": [1], "dtype": "int32"}, {"name": "StatefulPartitionedCall/map/while/body/_310/map/while/ResizeToRange/Pad/paddings/1/0", "shape": [], "dtype": "int32"}, {"name": "StatefulPartitionedCall/map/while/body/_310/map/while/ResizeToRange/sub_1/x", "shape": [], "dtype": "int32"}, {"name": "StatefulPartitionedCall/map/while/body/_310/map/while/ResizeToRange/strided_slice_3/stack", "shape": [1], "dtype": "int32"}, {"name": "StatefulPartitionedCall/map/while/body/_310/map/while/ResizeToRange/strided_slice_3/stack_1", "shape": [1], "dtype": "int32"}, {"name": "StatefulPartitionedCall/map/while/body/_310/map/while/ResizeToRange/strided_slice_3/stack_2", "shape": [1], "dtype": "int32"}, {"name": "StatefulPartitionedCall/map/while/body/_310/map/while/ResizeToRange/Pad_1/paddings/0/0", "shape": [], "dtype": "int32"}, {"name": "StatefulPartitionedCall/map/while/body/_310/map/while/ResizeToRange/sub_2/x", "shape": [], "dtype": "int32"}, {"name": "StatefulPartitionedCall/map/while/body/_310/map/while/ResizeToRange/strided_slice_4/stack", "shape": [1], "dtype": "int32"}, {"name": "StatefulPartitionedCall/map/while/body/_310/map/while/ResizeToRange/strided_slice_4/stack_1", "shape": [1], "dtype": "int32"}, {"name": "StatefulPartitionedCall/map/while/body/_310/map/while/ResizeToRange/strided_slice_4/stack_2", "shape": [1], "dtype": "int32"}, {"name": "StatefulPartitionedCall/map/while/body/_310/map/while/ResizeToRange/Pad_1/paddings/1/0", "shape": [], "dtype": "int32"}, {"name": "StatefulPartitionedCall/map/while/body/_310/map/while/ResizeToRange/sub_3/x", "shape": [], "dtype": "int32"}, {"name": "StatefulPartitionedCall/map/while/body/_310/map/while/ResizeToRange/strided_slice_5/stack", "shape": [1], "dtype": "int32"}, {"name": "StatefulPartitionedCall/map/while/body/_310/map/while/ResizeToRange/strided_slice_5/stack_1", "shape": [1], "dtype": "int32"}, {"name": "StatefulPartitionedCall/map/while/body/_310/map/while/ResizeToRange/strided_slice_5/stack_2", "shape": [1], "dtype": "int32"}, {"name": "StatefulPartitionedCall/map/while/body/_310/map/while/ResizeToRange/Pad_2/paddings/0/0", "shape": [], "dtype": "int32"}, {"name": "StatefulPartitionedCall/map/while/body/_310/map/while/ResizeToRange/sub_4/x", "shape": [], "dtype": "int32"}, {"name": "StatefulPartitionedCall/map/while/body/_310/map/while/ResizeToRange/strided_slice_6/stack", "shape": [1], "dtype": "int32"}, {"name": "StatefulPartitionedCall/map/while/body/_310/map/while/ResizeToRange/strided_slice_6/stack_1", "shape": [1], "dtype": "int32"}, {"name": "StatefulPartitionedCall/map/while/body/_310/map/while/ResizeToRange/strided_slice_6/stack_2", "shape": [1], "dtype": "int32"}, {"name": "StatefulPartitionedCall/map/while/body/_310/map/while/ResizeToRange/Pad_2/paddings/1/0", "shape": [], "dtype": "int32"}, {"name": "StatefulPartitionedCall/map/while/body/_310/map/while/ResizeToRange/sub_5/x", "shape": [], "dtype": "int32"}, {"name": "StatefulPartitionedCall/map/while/body/_310/map/while/ResizeToRange/strided_slice/stack", "shape": [1], "dtype": "int32"}, {"name": "StatefulPartitionedCall/map/while/body/_310/map/while/ResizeToRange/strided_slice/stack_1", "shape": [1], "dtype": "int32"}, {"name": "StatefulPartitionedCall/map/while/body/_310/map/while/ResizeToRange/strided_slice/stack_2", "shape": [1], "dtype": "int32"}, {"name": "StatefulPartitionedCall/map/while/body/_310/map/while/TensorArrayV2Read/TensorListGetItem/element_shape", "shape": [3], "dtype": "int32"}, {"name": "StatefulPartitionedCall/map/while/body/_310/map/while/strided_slice/stack", "shape": [4], "dtype": "int32"}, {"name": "StatefulPartitionedCall/map/while/body/_310/map/while/strided_slice/stack_1", "shape": [4], "dtype": "int32"}, {"name": "StatefulPartitionedCall/map/while/body/_310/map/while/strided_slice/stack_2", "shape": [4], "dtype": "int32"}, {"name": "StatefulPartitionedCall/map/while/body/_310/map/while/ResizeToRange/strided_slice_1/stack", "shape": [1], "dtype": "int32"}, {"name": "StatefulPartitionedCall/map/while/body/_310/map/while/ResizeToRange/strided_slice_1/stack_1", "shape": [1], "dtype": "int32"}, {"name": "StatefulPartitionedCall/map/while/body/_310/map/while/ResizeToRange/strided_slice_1/stack_2", "shape": [1], "dtype": "int32"}, {"name": "StatefulPartitionedCall/map/while/body/_310/map/while/ResizeToRange/strided_slice_7/stack", "shape": [1], "dtype": "int32"}, {"name": "StatefulPartitionedCall/map/while/body/_310/map/while/ResizeToRange/strided_slice_7/stack_1", "shape": [1], "dtype": "int32"}, {"name": "StatefulPartitionedCall/map/while/body/_310/map/while/ResizeToRange/strided_slice_7/stack_2", "shape": [1], "dtype": "int32"}, {"name": "ConstantFolding/StatefulPartitionedCall/map/while/body/_310/map/while/truediv_1_recip", "shape": [], "dtype": "float32", "quantization": {"dtype": "uint8", "min": 0.007843137718737125, "scale": 1.0, "original_dtype": "float32"}}, {"name": "StatefulPartitionedCall/map/while/body/_310/map/while/sub_1/y", "shape": [], "dtype": "float32", "quantization": {"dtype": "uint8", "min": 1.0, "scale": 1.0, "original_dtype": "float32"}}, {"name": "StatefulPartitionedCall/map/while/body/_310/map/while/strided_slice_1/stack", "shape": [1], "dtype": "int32"}, {"name": "StatefulPartitionedCall/map/while/body/_310/map/while/strided_slice_1/stack_1", "shape": [1], "dtype": "int32"}, {"name": "StatefulPartitionedCall/map/while/body/_310/map/while/strided_slice_1/stack_2", "shape": [1], "dtype": "int32"}, {"name": "StatefulPartitionedCall/map/while/body/_310/map/while/add/y", "shape": [], "dtype": "int32"}, {"name": "StatefulPartitionedCall/map/while/body/_310/map/while/add_1/y", "shape": [], "dtype": "int32"}, {"name": "StatefulPartitionedCall/map/while/body/_310/map/while/ResizeToRange/cond/else/_367/map/while/ResizeToRange/cond/resize/Cast", "shape": [], "dtype": "float32", "quantization": {"dtype": "uint8", "min": 512.0, "scale": 1.0, "original_dtype": "float32"}}, {"name": "StatefulPartitionedCall/map/while/body/_310/map/while/ResizeToRange/cond/else/_367/map/while/ResizeToRange/cond/resize/Cast_2", "shape": [], "dtype": "float32", "quantization": {"dtype": "uint8", "min": 512.0, "scale": 1.0, "original_dtype": "float32"}}, {"name": "StatefulPartitionedCall/map/while/body/_310/map/while/ResizeToRange/cond/else/_367/map/while/ResizeToRange/cond/resize/ExpandDims/dim", "shape": [], "dtype": "int32"}, {"name": "StatefulPartitionedCall/map/while/body/_310/map/while/ResizeToRange/cond/then/_366/map/while/ResizeToRange/cond/resize/Cast", "shape": [], "dtype": "float32", "quantization": {"dtype": "uint8", "min": 512.0, "scale": 1.0, "original_dtype": "float32"}}, {"name": "StatefulPartitionedCall/map/while/body/_310/map/while/ResizeToRange/cond/then/_366/map/while/ResizeToRange/cond/resize/Cast_2", "shape": [], "dtype": "float32", "quantization": {"dtype": "uint8", "min": 512.0, "scale": 1.0, "original_dtype": "float32"}}, {"name": "StatefulPartitionedCall/map/while/body/_310/map/while/ResizeToRange/cond/then/_366/map/while/ResizeToRange/cond/resize/ExpandDims/dim", "shape": [], "dtype": "int32"}, {"name": "ConstantFolding/StatefulPartitionedCall/map/while/body/_310/map/while/stack_1_const_axis", "shape": [], "dtype": "int32"}, {"name": "ConstantFolding/StatefulPartitionedCall/map/while/body/_310/map/while/stack_const_axis", "shape": [], "dtype": "int32"}]}]}