{"format": "graph-model", "generatedBy": "2.4.1", "convertedBy": "TensorFlow.js Converter v3.3.0", "signature": {"inputs": {"input_tensor:0": {"name": "input_tensor:0", "dtype": "DT_STRING", "tensorShape": {"dim": [{"size": "-1"}]}}}, "outputs": {"Identity_3:0": {"name": "Identity_3:0", "dtype": "DT_FLOAT", "tensorShape": {"dim": [{"size": "-1"}, {"size": "100"}, {"size": "8"}]}}, "Identity_5:0": {"name": "Identity_5:0", "dtype": "DT_FLOAT", "tensorShape": {"dim": [{"size": "-1"}]}}, "Identity:0": {"name": "Identity:0", "dtype": "DT_FLOAT", "tensorShape": {"dim": [{"size": "-1"}, {"size": "100"}]}}, "Identity_7:0": {"name": "Identity_7:0", "dtype": "DT_FLOAT", "tensorShape": {"dim": [{"size": "-1"}, {"size": "-1"}, {"size": "8"}]}}, "Identity_2:0": {"name": "Identity_2:0", "dtype": "DT_FLOAT", "tensorShape": {"dim": [{"size": "-1"}, {"size": "100"}]}}, "Identity_4:0": {"name": "Identity_4:0", "dtype": "DT_FLOAT", "tensorShape": {"dim": [{"size": "-1"}, {"size": "100"}]}}, "Identity_6:0": {"name": "Identity_6:0", "dtype": "DT_FLOAT", "tensorShape": {"dim": [{"size": "-1"}, {"size": "-1"}, {"size": "4"}]}}, "Identity_1:0": {"name": "Identity_1:0", "dtype": "DT_FLOAT", "tensorShape": {"dim": [{"size": "-1"}, {"size": "100"}, {"size": "4"}]}}}}, "modelTopology": {"node": [{"name": "StatefulPartitionedCall/Postprocessor/BatchMultiClassNonMaxSuppression/map/TensorArrayV2Stack_4/TensorListStack/element_shape", "op": "Const", "attr": {"value": {"tensor": {"dtype": "DT_INT32", "tensorShape": {"dim": [{"size": "1"}]}}}, "dtype": {"type": "DT_INT32"}}}, {"name": "StatefulPartitionedCall/Postprocessor/BatchMultiClassNonMaxSuppression/map/TensorArrayV2Stack/TensorListStack/element_shape", "op": "Const", "attr": {"value": {"tensor": {"dtype": "DT_INT32", "tensorShape": {"dim": [{"size": "2"}]}}}, "dtype": {"type": "DT_INT32"}}}, {"name": "StatefulPartitionedCall/Postprocessor/BatchMultiClassNonMaxSuppression/map/TensorArrayV2Stack_2/TensorListStack/element_shape", "op": "Const", "attr": {"value": {"tensor": {"dtype": "DT_INT32", "tensorShape": {"dim": [{"size": "1"}]}}}, "dtype": {"type": "DT_INT32"}}}, {"name": "StatefulPartitionedCall/add/y", "op": "Const", "attr": {"value": {"tensor": {"dtype": "DT_FLOAT", "tensorShape": {}}}, "dtype": {"type": "DT_FLOAT"}}}, {"name": "StatefulPartitionedCall/Postprocessor/BatchMultiClassNonMaxSuppression/map/TensorArrayV2Stack_5/TensorListStack/element_shape", "op": "Const", "attr": {"value": {"tensor": {"dtype": "DT_INT32", "tensorShape": {"dim": [{"size": "2"}]}}}, "dtype": {"type": "DT_INT32"}}}, {"name": "StatefulPartitionedCall/Postprocessor/BatchMultiClassNonMaxSuppression/map/TensorArrayV2Stack_1/TensorListStack/element_shape", "op": "Const", "attr": {"dtype": {"type": "DT_INT32"}, "value": {"tensor": {"dtype": "DT_INT32", "tensorShape": {"dim": [{"size": "1"}]}}}}}, {"name": "StatefulPartitionedCall/Postprocessor/BatchMultiClassNonMaxSuppression/map/TensorArrayV2Stack_6/Const", "op": "Const", "attr": {"value": {"tensor": {"dtype": "DT_INT32", "tensorShape": {"dim": [{}]}}}, "dtype": {"type": "DT_INT32"}}}, {"name": "StatefulPartitionedCall/Postprocessor/BatchMultiClassNonMaxSuppression/map/while/loop_counter", "op": "Const", "attr": {"value": {"tensor": {"dtype": "DT_INT32", "tensorShape": {}}}, "dtype": {"type": "DT_INT32"}}}, {"name": "StatefulPartitionedCall/Postprocessor/BatchMultiClassNonMaxSuppression/map/Const", "op": "Const", "attr": {"value": {"tensor": {"dtype": "DT_INT32", "tensorShape": {}}}, "dtype": {"type": "DT_INT32"}}}, {"name": "StatefulPartitionedCall/Postprocessor/BatchMultiClassNonMaxSuppression/map/TensorArrayV2_7/element_shape", "op": "Const", "attr": {"dtype": {"type": "DT_INT32"}, "value": {"tensor": {"dtype": "DT_INT32", "tensorShape": {}}}}}, {"name": "StatefulPartitionedCall/Postprocessor/BatchMultiClassNonMaxSuppression/map/TensorArrayV2_8/element_shape", "op": "Const", "attr": {"dtype": {"type": "DT_INT32"}, "value": {"tensor": {"dtype": "DT_INT32", "tensorShape": {}}}}}, {"name": "StatefulPartitionedCall/Postprocessor/BatchMultiClassNonMaxSuppression/map/TensorArrayV2_9/element_shape", "op": "Const", "attr": {"value": {"tensor": {"dtype": "DT_INT32", "tensorShape": {}}}, "dtype": {"type": "DT_INT32"}}}, {"name": "StatefulPartitionedCall/Postprocessor/BatchMultiClassNonMaxSuppression/map/TensorArrayV2_10/element_shape", "op": "Const", "attr": {"value": {"tensor": {"dtype": "DT_INT32", "tensorShape": {}}}, "dtype": {"type": "DT_INT32"}}}, {"name": "StatefulPartitionedCall/Postprocessor/BatchMultiClassNonMaxSuppression/map/TensorArrayV2_11/element_shape", "op": "Const", "attr": {"value": {"tensor": {"dtype": "DT_INT32", "tensorShape": {}}}, "dtype": {"type": "DT_INT32"}}}, {"name": "StatefulPartitionedCall/Postprocessor/BatchMultiClassNonMaxSuppression/map/TensorArrayV2_12/element_shape", "op": "Const", "attr": {"value": {"tensor": {"dtype": "DT_INT32", "tensorShape": {}}}, "dtype": {"type": "DT_INT32"}}}, {"name": "StatefulPartitionedCall/Postprocessor/BatchMultiClassNonMaxSuppression/map/TensorArrayV2_13/element_shape", "op": "Const", "attr": {"value": {"tensor": {"dtype": "DT_INT32", "tensorShape": {}}}, "dtype": {"type": "DT_INT32"}}}, {"name": "StatefulPartitionedCall/Postprocessor/BatchMultiClassNonMaxSuppression/map/strided_slice/stack", "op": "Const", "attr": {"value": {"tensor": {"dtype": "DT_INT32", "tensorShape": {"dim": [{"size": "1"}]}}}, "dtype": {"type": "DT_INT32"}}}, {"name": "StatefulPartitionedCall/Postprocessor/BatchMultiClassNonMaxSuppression/map/strided_slice/stack_1", "op": "Const", "attr": {"value": {"tensor": {"dtype": "DT_INT32", "tensorShape": {"dim": [{"size": "1"}]}}}, "dtype": {"type": "DT_INT32"}}}, {"name": "StatefulPartitionedCall/Postprocessor/BatchMultiClassNonMaxSuppression/map/strided_slice/stack_2", "op": "Const", "attr": {"value": {"tensor": {"dtype": "DT_INT32", "tensorShape": {"dim": [{"size": "1"}]}}}, "dtype": {"type": "DT_INT32"}}}, {"name": "StatefulPartitionedCall/Postprocessor/BatchMultiClassNonMaxSuppression/map/TensorArrayUnstack/TensorListFromTensor/element_shape", "op": "Const", "attr": {"value": {"tensor": {"dtype": "DT_INT32", "tensorShape": {"dim": [{"size": "3"}]}}}, "dtype": {"type": "DT_INT32"}}}, {"name": "StatefulPartitionedCall/Postprocessor/Slice/begin", "op": "Const", "attr": {"value": {"tensor": {"dtype": "DT_INT32", "tensorShape": {"dim": [{"size": "3"}]}}}, "dtype": {"type": "DT_INT32"}}}, {"name": "StatefulPartitionedCall/Postprocessor/Slice/size", "op": "Const", "attr": {"value": {"tensor": {"dtype": "DT_INT32", "tensorShape": {"dim": [{"size": "3"}]}}}, "dtype": {"type": "DT_INT32"}}}, {"name": "StatefulPartitionedCall/Postprocessor/BatchMultiClassNonMaxSuppression/map/TensorArrayUnstack_1/TensorListFromTensor/element_shape", "op": "Const", "attr": {"dtype": {"type": "DT_INT32"}, "value": {"tensor": {"dtype": "DT_INT32", "tensorShape": {"dim": [{"size": "2"}]}}}}}, {"name": "StatefulPartitionedCall/Postprocessor/BatchMultiClassNonMaxSuppression/stack/2", "op": "Const", "attr": {"value": {"tensor": {"dtype": "DT_INT32", "tensorShape": {}}}, "dtype": {"type": "DT_INT32"}}}, {"name": "StatefulPartitionedCall/Postprocessor/BatchMultiClassNonMaxSuppression/stack/3", "op": "Const", "attr": {"value": {"tensor": {"dtype": "DT_INT32", "tensorShape": {}}}, "dtype": {"type": "DT_INT32"}}}, {"name": "StatefulPartitionedCall/Postprocessor/BatchMultiClassNonMaxSuppression/stack/4", "op": "Const", "attr": {"value": {"tensor": {"dtype": "DT_INT32", "tensorShape": {}}}, "dtype": {"type": "DT_INT32"}}}, {"name": "StatefulPartitionedCall/Postprocessor/BatchMultiClassNonMaxSuppression/zeros/Const", "op": "Const", "attr": {"value": {"tensor": {"dtype": "DT_FLOAT", "tensorShape": {}}}, "dtype": {"type": "DT_FLOAT"}}}, {"name": "StatefulPartitionedCall/Postprocessor/BatchMultiClassNonMaxSuppression/map/TensorArrayUnstack_2/TensorListFromTensor/element_shape", "op": "Const", "attr": {"value": {"tensor": {"dtype": "DT_INT32", "tensorShape": {"dim": [{"size": "4"}]}}}, "dtype": {"type": "DT_INT32"}}}, {"name": "ConstantFolding/StatefulPartitionedCall/Postprocessor/truediv_recip", "op": "Const", "attr": {"dtype": {"type": "DT_FLOAT"}, "value": {"tensor": {"dtype": "DT_FLOAT", "tensorShape": {}}}}}, {"name": "StatefulPartitionedCall/map/TensorArrayV2Stack_1/TensorListStack/element_shape", "op": "Const", "attr": {"value": {"tensor": {"dtype": "DT_INT32", "tensorShape": {"dim": [{"size": "1"}]}}}, "dtype": {"type": "DT_INT32"}}}, {"name": "ConstantFolding/StatefulPartitionedCall/Postprocessor/truediv_1_recip", "op": "Const", "attr": {"value": {"tensor": {"dtype": "DT_FLOAT", "tensorShape": {}}}, "dtype": {"type": "DT_FLOAT"}}}, {"name": "StatefulPartitionedCall/Postprocessor/BatchMultiClassNonMaxSuppression/map/TensorArrayUnstack_3/TensorListFromTensor/element_shape", "op": "Const", "attr": {"dtype": {"type": "DT_INT32"}, "value": {"tensor": {"dtype": "DT_INT32", "tensorShape": {"dim": [{"size": "1"}]}}}}}, {"name": "StatefulPartitionedCall/Postprocessor/ExpandDims_2", "op": "Const", "attr": {"value": {"tensor": {"dtype": "DT_INT32", "tensorShape": {"dim": [{"size": "1"}, {"size": "12804"}]}}}, "dtype": {"type": "DT_INT32"}}}, {"name": "StatefulPartitionedCall/Postprocessor/strided_slice_2/stack", "op": "Const", "attr": {"value": {"tensor": {"dtype": "DT_INT32", "tensorShape": {"dim": [{"size": "1"}]}}}, "dtype": {"type": "DT_INT32"}}}, {"name": "StatefulPartitionedCall/Postprocessor/strided_slice_2/stack_1", "op": "Const", "attr": {"value": {"tensor": {"dtype": "DT_INT32", "tensorShape": {"dim": [{"size": "1"}]}}}, "dtype": {"type": "DT_INT32"}}}, {"name": "StatefulPartitionedCall/Postprocessor/strided_slice_2/stack_2", "op": "Const", "attr": {"value": {"tensor": {"dtype": "DT_INT32", "tensorShape": {"dim": [{"size": "1"}]}}}, "dtype": {"type": "DT_INT32"}}}, {"name": "StatefulPartitionedCall/Postprocessor/Tile_1/multiples/1", "op": "Const", "attr": {"value": {"tensor": {"dtype": "DT_INT32", "tensorShape": {}}}, "dtype": {"type": "DT_INT32"}}}, {"name": "StatefulPartitionedCall/Postprocessor/BatchMultiClassNonMaxSuppression/map/TensorArrayUnstack_4/TensorListFromTensor/element_shape", "op": "Const", "attr": {"value": {"tensor": {"dtype": "DT_INT32", "tensorShape": {"dim": [{"size": "1"}]}}}, "dtype": {"type": "DT_INT32"}}}, {"name": "StatefulPartitionedCall/WeightSharedConvolutionalBoxPredictor/WeightSharedConvolutionalClassHead/ClassPredictor/separable_conv2d/ReadVariableOp", "op": "Const", "attr": {"value": {"tensor": {"dtype": "DT_FLOAT", "tensorShape": {"dim": [{"size": "3"}, {"size": "3"}, {"size": "128"}, {"size": "1"}]}}}, "dtype": {"type": "DT_FLOAT"}}}, {"name": "StatefulPartitionedCall/WeightSharedConvolutionalBoxPredictor/WeightSharedConvolutionalClassHead/ClassPredictor/separable_conv2d/ReadVariableOp_1", "op": "Const", "attr": {"value": {"tensor": {"dtype": "DT_FLOAT", "tensorShape": {"dim": [{"size": "1"}, {"size": "1"}, {"size": "128"}, {"size": "48"}]}}}, "dtype": {"type": "DT_FLOAT"}}}, {"name": "StatefulPartitionedCall/WeightSharedConvolutionalBoxPredictor/WeightSharedConvolutionalClassHead/ClassPredictor/BiasAdd/ReadVariableOp", "op": "Const", "attr": {"dtype": {"type": "DT_FLOAT"}, "value": {"tensor": {"dtype": "DT_FLOAT", "tensorShape": {"dim": [{"size": "48"}]}}}}}, {"name": "StatefulPartitionedCall/WeightSharedConvolutionalBoxPredictor/WeightSharedConvolutionalClassHead/strided_slice/stack", "op": "Const", "attr": {"value": {"tensor": {"dtype": "DT_INT32", "tensorShape": {"dim": [{"size": "1"}]}}}, "dtype": {"type": "DT_INT32"}}}, {"name": "StatefulPartitionedCall/WeightSharedConvolutionalBoxPredictor/WeightSharedConvolutionalClassHead/strided_slice/stack_1", "op": "Const", "attr": {"value": {"tensor": {"dtype": "DT_INT32", "tensorShape": {"dim": [{"size": "1"}]}}}, "dtype": {"type": "DT_INT32"}}}, {"name": "StatefulPartitionedCall/WeightSharedConvolutionalBoxPredictor/WeightSharedConvolutionalClassHead/strided_slice/stack_2", "op": "Const", "attr": {"value": {"tensor": {"dtype": "DT_INT32", "tensorShape": {"dim": [{"size": "1"}]}}}, "dtype": {"type": "DT_INT32"}}}, {"name": "StatefulPartitionedCall/WeightSharedConvolutionalBoxPredictor/WeightSharedConvolutionalClassHead/Reshape_1/shape/1", "op": "Const", "attr": {"value": {"tensor": {"dtype": "DT_INT32", "tensorShape": {}}}, "dtype": {"type": "DT_INT32"}}}, {"name": "StatefulPartitionedCall/WeightSharedConvolutionalBoxPredictor/WeightSharedConvolutionalClassHead/Reshape_1/shape/2", "op": "Const", "attr": {"dtype": {"type": "DT_INT32"}, "value": {"tensor": {"dtype": "DT_INT32", "tensorShape": {}}}}}, {"name": "StatefulPartitionedCall/WeightSharedConvolutionalBoxPredictor/WeightSharedConvolutionalClassHead/ClassPredictor/separable_conv2d_1/ReadVariableOp", "op": "Const", "attr": {"value": {"tensor": {"dtype": "DT_FLOAT", "tensorShape": {"dim": [{"size": "3"}, {"size": "3"}, {"size": "128"}, {"size": "1"}]}}}, "dtype": {"type": "DT_FLOAT"}}}, {"name": "StatefulPartitionedCall/WeightSharedConvolutionalBoxPredictor/WeightSharedConvolutionalClassHead/ClassPredictor/separable_conv2d_1/ReadVariableOp_1", "op": "Const", "attr": {"value": {"tensor": {"dtype": "DT_FLOAT", "tensorShape": {"dim": [{"size": "1"}, {"size": "1"}, {"size": "128"}, {"size": "48"}]}}}, "dtype": {"type": "DT_FLOAT"}}}, {"name": "StatefulPartitionedCall/WeightSharedConvolutionalBoxPredictor/WeightSharedConvolutionalClassHead/ClassPredictor/BiasAdd_1/ReadVariableOp", "op": "Const", "attr": {"value": {"tensor": {"dtype": "DT_FLOAT", "tensorShape": {"dim": [{"size": "48"}]}}}, "dtype": {"type": "DT_FLOAT"}}}, {"name": "StatefulPartitionedCall/WeightSharedConvolutionalBoxPredictor/WeightSharedConvolutionalClassHead/strided_slice_1/stack", "op": "Const", "attr": {"value": {"tensor": {"dtype": "DT_INT32", "tensorShape": {"dim": [{"size": "1"}]}}}, "dtype": {"type": "DT_INT32"}}}, {"name": "StatefulPartitionedCall/WeightSharedConvolutionalBoxPredictor/WeightSharedConvolutionalClassHead/strided_slice_1/stack_1", "op": "Const", "attr": {"value": {"tensor": {"dtype": "DT_INT32", "tensorShape": {"dim": [{"size": "1"}]}}}, "dtype": {"type": "DT_INT32"}}}, {"name": "StatefulPartitionedCall/WeightSharedConvolutionalBoxPredictor/WeightSharedConvolutionalClassHead/strided_slice_1/stack_2", "op": "Const", "attr": {"value": {"tensor": {"dtype": "DT_INT32", "tensorShape": {"dim": [{"size": "1"}]}}}, "dtype": {"type": "DT_INT32"}}}, {"name": "StatefulPartitionedCall/WeightSharedConvolutionalBoxPredictor/WeightSharedConvolutionalClassHead/Reshape_3/shape/1", "op": "Const", "attr": {"value": {"tensor": {"dtype": "DT_INT32", "tensorShape": {}}}, "dtype": {"type": "DT_INT32"}}}, {"name": "StatefulPartitionedCall/WeightSharedConvolutionalBoxPredictor/WeightSharedConvolutionalClassHead/Reshape_3/shape/2", "op": "Const", "attr": {"value": {"tensor": {"dtype": "DT_INT32", "tensorShape": {}}}, "dtype": {"type": "DT_INT32"}}}, {"name": "StatefulPartitionedCall/WeightSharedConvolutionalBoxPredictor/WeightSharedConvolutionalClassHead/ClassPredictor/separable_conv2d_2/ReadVariableOp", "op": "Const", "attr": {"value": {"tensor": {"dtype": "DT_FLOAT", "tensorShape": {"dim": [{"size": "3"}, {"size": "3"}, {"size": "128"}, {"size": "1"}]}}}, "dtype": {"type": "DT_FLOAT"}}}, {"name": "StatefulPartitionedCall/WeightSharedConvolutionalBoxPredictor/WeightSharedConvolutionalClassHead/ClassPredictor/separable_conv2d_2/ReadVariableOp_1", "op": "Const", "attr": {"value": {"tensor": {"dtype": "DT_FLOAT", "tensorShape": {"dim": [{"size": "1"}, {"size": "1"}, {"size": "128"}, {"size": "48"}]}}}, "dtype": {"type": "DT_FLOAT"}}}, {"name": "StatefulPartitionedCall/WeightSharedConvolutionalBoxPredictor/WeightSharedConvolutionalClassHead/ClassPredictor/BiasAdd_2/ReadVariableOp", "op": "Const", "attr": {"dtype": {"type": "DT_FLOAT"}, "value": {"tensor": {"dtype": "DT_FLOAT", "tensorShape": {"dim": [{"size": "48"}]}}}}}, {"name": "StatefulPartitionedCall/WeightSharedConvolutionalBoxPredictor/WeightSharedConvolutionalClassHead/strided_slice_2/stack", "op": "Const", "attr": {"dtype": {"type": "DT_INT32"}, "value": {"tensor": {"dtype": "DT_INT32", "tensorShape": {"dim": [{"size": "1"}]}}}}}, {"name": "StatefulPartitionedCall/WeightSharedConvolutionalBoxPredictor/WeightSharedConvolutionalClassHead/strided_slice_2/stack_1", "op": "Const", "attr": {"value": {"tensor": {"dtype": "DT_INT32", "tensorShape": {"dim": [{"size": "1"}]}}}, "dtype": {"type": "DT_INT32"}}}, {"name": "StatefulPartitionedCall/WeightSharedConvolutionalBoxPredictor/WeightSharedConvolutionalClassHead/strided_slice_2/stack_2", "op": "Const", "attr": {"value": {"tensor": {"dtype": "DT_INT32", "tensorShape": {"dim": [{"size": "1"}]}}}, "dtype": {"type": "DT_INT32"}}}, {"name": "StatefulPartitionedCall/WeightSharedConvolutionalBoxPredictor/WeightSharedConvolutionalClassHead/Reshape_5/shape/1", "op": "Const", "attr": {"value": {"tensor": {"dtype": "DT_INT32", "tensorShape": {}}}, "dtype": {"type": "DT_INT32"}}}, {"name": "StatefulPartitionedCall/WeightSharedConvolutionalBoxPredictor/WeightSharedConvolutionalClassHead/Reshape_5/shape/2", "op": "Const", "attr": {"value": {"tensor": {"dtype": "DT_INT32", "tensorShape": {}}}, "dtype": {"type": "DT_INT32"}}}, {"name": "StatefulPartitionedCall/WeightSharedConvolutionalBoxPredictor/WeightSharedConvolutionalClassHead/ClassPredictor/separable_conv2d_3/ReadVariableOp", "op": "Const", "attr": {"value": {"tensor": {"dtype": "DT_FLOAT", "tensorShape": {"dim": [{"size": "3"}, {"size": "3"}, {"size": "128"}, {"size": "1"}]}}}, "dtype": {"type": "DT_FLOAT"}}}, {"name": "StatefulPartitionedCall/WeightSharedConvolutionalBoxPredictor/WeightSharedConvolutionalClassHead/ClassPredictor/separable_conv2d_3/ReadVariableOp_1", "op": "Const", "attr": {"dtype": {"type": "DT_FLOAT"}, "value": {"tensor": {"dtype": "DT_FLOAT", "tensorShape": {"dim": [{"size": "1"}, {"size": "1"}, {"size": "128"}, {"size": "48"}]}}}}}, {"name": "StatefulPartitionedCall/WeightSharedConvolutionalBoxPredictor/WeightSharedConvolutionalClassHead/ClassPredictor/BiasAdd_3/ReadVariableOp", "op": "Const", "attr": {"value": {"tensor": {"dtype": "DT_FLOAT", "tensorShape": {"dim": [{"size": "48"}]}}}, "dtype": {"type": "DT_FLOAT"}}}, {"name": "StatefulPartitionedCall/WeightSharedConvolutionalBoxPredictor/WeightSharedConvolutionalClassHead/strided_slice_3/stack", "op": "Const", "attr": {"value": {"tensor": {"dtype": "DT_INT32", "tensorShape": {"dim": [{"size": "1"}]}}}, "dtype": {"type": "DT_INT32"}}}, {"name": "StatefulPartitionedCall/WeightSharedConvolutionalBoxPredictor/WeightSharedConvolutionalClassHead/strided_slice_3/stack_1", "op": "Const", "attr": {"dtype": {"type": "DT_INT32"}, "value": {"tensor": {"dtype": "DT_INT32", "tensorShape": {"dim": [{"size": "1"}]}}}}}, {"name": "StatefulPartitionedCall/WeightSharedConvolutionalBoxPredictor/WeightSharedConvolutionalClassHead/strided_slice_3/stack_2", "op": "Const", "attr": {"value": {"tensor": {"dtype": "DT_INT32", "tensorShape": {"dim": [{"size": "1"}]}}}, "dtype": {"type": "DT_INT32"}}}, {"name": "StatefulPartitionedCall/WeightSharedConvolutionalBoxPredictor/WeightSharedConvolutionalClassHead/Reshape_7/shape/1", "op": "Const", "attr": {"value": {"tensor": {"dtype": "DT_INT32", "tensorShape": {}}}, "dtype": {"type": "DT_INT32"}}}, {"name": "StatefulPartitionedCall/WeightSharedConvolutionalBoxPredictor/WeightSharedConvolutionalClassHead/Reshape_7/shape/2", "op": "Const", "attr": {"value": {"tensor": {"dtype": "DT_INT32", "tensorShape": {}}}, "dtype": {"type": "DT_INT32"}}}, {"name": "StatefulPartitionedCall/WeightSharedConvolutionalBoxPredictor/WeightSharedConvolutionalClassHead/ClassPredictor/separable_conv2d_4/ReadVariableOp", "op": "Const", "attr": {"value": {"tensor": {"dtype": "DT_FLOAT", "tensorShape": {"dim": [{"size": "3"}, {"size": "3"}, {"size": "128"}, {"size": "1"}]}}}, "dtype": {"type": "DT_FLOAT"}}}, {"name": "StatefulPartitionedCall/WeightSharedConvolutionalBoxPredictor/WeightSharedConvolutionalClassHead/ClassPredictor/separable_conv2d_4/ReadVariableOp_1", "op": "Const", "attr": {"value": {"tensor": {"dtype": "DT_FLOAT", "tensorShape": {"dim": [{"size": "1"}, {"size": "1"}, {"size": "128"}, {"size": "48"}]}}}, "dtype": {"type": "DT_FLOAT"}}}, {"name": "StatefulPartitionedCall/WeightSharedConvolutionalBoxPredictor/WeightSharedConvolutionalClassHead/ClassPredictor/BiasAdd_4/ReadVariableOp", "op": "Const", "attr": {"value": {"tensor": {"dtype": "DT_FLOAT", "tensorShape": {"dim": [{"size": "48"}]}}}, "dtype": {"type": "DT_FLOAT"}}}, {"name": "StatefulPartitionedCall/WeightSharedConvolutionalBoxPredictor/WeightSharedConvolutionalClassHead/strided_slice_4/stack", "op": "Const", "attr": {"value": {"tensor": {"dtype": "DT_INT32", "tensorShape": {"dim": [{"size": "1"}]}}}, "dtype": {"type": "DT_INT32"}}}, {"name": "StatefulPartitionedCall/WeightSharedConvolutionalBoxPredictor/WeightSharedConvolutionalClassHead/strided_slice_4/stack_1", "op": "Const", "attr": {"value": {"tensor": {"dtype": "DT_INT32", "tensorShape": {"dim": [{"size": "1"}]}}}, "dtype": {"type": "DT_INT32"}}}, {"name": "StatefulPartitionedCall/WeightSharedConvolutionalBoxPredictor/WeightSharedConvolutionalClassHead/strided_slice_4/stack_2", "op": "Const", "attr": {"value": {"tensor": {"dtype": "DT_INT32", "tensorShape": {"dim": [{"size": "1"}]}}}, "dtype": {"type": "DT_INT32"}}}, {"name": "StatefulPartitionedCall/WeightSharedConvolutionalBoxPredictor/WeightSharedConvolutionalClassHead/Reshape_9/shape/1", "op": "Const", "attr": {"value": {"tensor": {"dtype": "DT_INT32", "tensorShape": {}}}, "dtype": {"type": "DT_INT32"}}}, {"name": "StatefulPartitionedCall/WeightSharedConvolutionalBoxPredictor/WeightSharedConvolutionalClassHead/Reshape_9/shape/2", "op": "Const", "attr": {"value": {"tensor": {"dtype": "DT_INT32", "tensorShape": {}}}, "dtype": {"type": "DT_INT32"}}}, {"name": "StatefulPartitionedCall/concat_1/axis", "op": "Const", "attr": {"value": {"tensor": {"dtype": "DT_INT32", "tensorShape": {}}}, "dtype": {"type": "DT_INT32"}}}, {"name": "StatefulPartitionedCall/Postprocessor/BatchMultiClassNonMaxSuppression/map/TensorArrayUnstack_5/TensorListFromTensor/element_shape", "op": "Const", "attr": {"value": {"tensor": {"dtype": "DT_INT32", "tensorShape": {"dim": [{"size": "2"}]}}}, "dtype": {"type": "DT_INT32"}}}, {"name": "StatefulPartitionedCall/Postprocessor/BatchMultiClassNonMaxSuppression/strided_slice/stack", "op": "Const", "attr": {"value": {"tensor": {"dtype": "DT_INT32", "tensorShape": {"dim": [{"size": "1"}]}}}, "dtype": {"type": "DT_INT32"}}}, {"name": "StatefulPartitionedCall/Postprocessor/BatchMultiClassNonMaxSuppression/strided_slice/stack_1", "op": "Const", "attr": {"value": {"tensor": {"dtype": "DT_INT32", "tensorShape": {"dim": [{"size": "1"}]}}}, "dtype": {"type": "DT_INT32"}}}, {"name": "StatefulPartitionedCall/Postprocessor/BatchMultiClassNonMaxSuppression/strided_slice/stack_2", "op": "Const", "attr": {"dtype": {"type": "DT_INT32"}, "value": {"tensor": {"dtype": "DT_INT32", "tensorShape": {"dim": [{"size": "1"}]}}}}}, {"name": "StatefulPartitionedCall/Postprocessor/BatchMultiClassNonMaxSuppression/ones/Const", "op": "Const", "attr": {"value": {"tensor": {"dtype": "DT_INT32", "tensorShape": {}}}, "dtype": {"type": "DT_INT32"}}}, {"name": "ConstantFolding/StatefulPartitionedCall/Postprocessor/Decode/truediv_4_recip", "op": "Const", "attr": {"value": {"tensor": {"dtype": "DT_FLOAT", "tensorShape": {}}}, "dtype": {"type": "DT_FLOAT"}}}, {"name": "ConstantFolding/StatefulPartitionedCall/Postprocessor/Decode/truediv_5_recip", "op": "Const", "attr": {"value": {"tensor": {"dtype": "DT_FLOAT", "tensorShape": {}}}, "dtype": {"type": "DT_FLOAT"}}}, {"name": "ConstantFolding/StatefulPartitionedCall/Postprocessor/Decode/truediv_recip", "op": "Const", "attr": {"value": {"tensor": {"dtype": "DT_FLOAT", "tensorShape": {}}}, "dtype": {"type": "DT_FLOAT"}}}, {"name": "ConstantFolding/StatefulPartitionedCall/Postprocessor/Decode/get_center_coordinates_and_sizes/truediv_recip", "op": "Const", "attr": {"value": {"tensor": {"dtype": "DT_FLOAT", "tensorShape": {}}}, "dtype": {"type": "DT_FLOAT"}}}, {"name": "ConstantFolding/StatefulPartitionedCall/Postprocessor/Decode/truediv_2_recip", "op": "Const", "attr": {"value": {"tensor": {"dtype": "DT_FLOAT", "tensorShape": {}}}, "dtype": {"type": "DT_FLOAT"}}}, {"name": "ConstantFolding/StatefulPartitionedCall/Postprocessor/Decode/truediv_6_recip", "op": "Const", "attr": {"value": {"tensor": {"dtype": "DT_FLOAT", "tensorShape": {}}}, "dtype": {"type": "DT_FLOAT"}}}, {"name": "ConstantFolding/StatefulPartitionedCall/Postprocessor/Decode/truediv_1_recip", "op": "Const", "attr": {"value": {"tensor": {"dtype": "DT_FLOAT", "tensorShape": {}}}, "dtype": {"type": "DT_FLOAT"}}}, {"name": "ConstantFolding/StatefulPartitionedCall/Postprocessor/Decode/get_center_coordinates_and_sizes/truediv_1_recip", "op": "Const", "attr": {"dtype": {"type": "DT_FLOAT"}, "value": {"tensor": {"dtype": "DT_FLOAT", "tensorShape": {}}}}}, {"name": "StatefulPartitionedCall/Postprocessor/Reshape_1/shape", "op": "Const", "attr": {"value": {"tensor": {"dtype": "DT_INT32", "tensorShape": {"dim": [{"size": "2"}]}}}, "dtype": {"type": "DT_INT32"}}}, {"name": "StatefulPartitionedCall/Postprocessor/Decode/transpose/perm", "op": "Const", "attr": {"value": {"tensor": {"dtype": "DT_INT32", "tensorShape": {"dim": [{"size": "2"}]}}}, "dtype": {"type": "DT_INT32"}}}, {"name": "ConstantFolding/StatefulPartitionedCall/Postprocessor/Decode/truediv_3_recip", "op": "Const", "attr": {"value": {"tensor": {"dtype": "DT_FLOAT", "tensorShape": {}}}, "dtype": {"type": "DT_FLOAT"}}}, {"name": "StatefulPartitionedCall/Postprocessor/ExpandDims", "op": "Const", "attr": {"value": {"tensor": {"dtype": "DT_FLOAT", "tensorShape": {"dim": [{"size": "1"}, {"size": "12804"}, {"size": "4"}]}}}, "dtype": {"type": "DT_FLOAT"}}}, {"name": "StatefulPartitionedCall/Postprocessor/Tile/multiples/1", "op": "Const", "attr": {"dtype": {"type": "DT_INT32"}, "value": {"tensor": {"dtype": "DT_INT32", "tensorShape": {}}}}}, {"name": "StatefulPartitionedCall/Postprocessor/Tile/multiples/2", "op": "Const", "attr": {"value": {"tensor": {"dtype": "DT_INT32", "tensorShape": {}}}, "dtype": {"type": "DT_INT32"}}}, {"name": "StatefulPartitionedCall/Postprocessor/Reshape/shape", "op": "Const", "attr": {"value": {"tensor": {"dtype": "DT_INT32", "tensorShape": {"dim": [{"size": "2"}]}}}, "dtype": {"type": "DT_INT32"}}}, {"name": "StatefulPartitionedCall/Postprocessor/Decode/get_center_coordinates_and_sizes/transpose/perm", "op": "Const", "attr": {"dtype": {"type": "DT_INT32"}, "value": {"tensor": {"dtype": "DT_INT32", "tensorShape": {"dim": [{"size": "2"}]}}}}}, {"name": "ConstantFolding/StatefulPartitionedCall/Postprocessor/Decode/truediv_7_recip", "op": "Const", "attr": {"value": {"tensor": {"dtype": "DT_FLOAT", "tensorShape": {}}}, "dtype": {"type": "DT_FLOAT"}}}, {"name": "StatefulPartitionedCall/Postprocessor/Decode/transpose_1/perm", "op": "Const", "attr": {"value": {"tensor": {"dtype": "DT_INT32", "tensorShape": {"dim": [{"size": "2"}]}}}, "dtype": {"type": "DT_INT32"}}}, {"name": "StatefulPartitionedCall/Postprocessor/strided_slice/stack", "op": "Const", "attr": {"dtype": {"type": "DT_INT32"}, "value": {"tensor": {"dtype": "DT_INT32", "tensorShape": {"dim": [{"size": "1"}]}}}}}, {"name": "StatefulPartitionedCall/Postprocessor/strided_slice/stack_1", "op": "Const", "attr": {"value": {"tensor": {"dtype": "DT_INT32", "tensorShape": {"dim": [{"size": "1"}]}}}, "dtype": {"type": "DT_INT32"}}}, {"name": "StatefulPartitionedCall/Postprocessor/strided_slice/stack_2", "op": "Const", "attr": {"dtype": {"type": "DT_INT32"}, "value": {"tensor": {"dtype": "DT_INT32", "tensorShape": {"dim": [{"size": "1"}]}}}}}, {"name": "StatefulPartitionedCall/WeightSharedConvolutionalBoxPredictor/WeightSharedConvolutionalBoxHead/BoxPredictor/separable_conv2d/ReadVariableOp", "op": "Const", "attr": {"value": {"tensor": {"dtype": "DT_FLOAT", "tensorShape": {"dim": [{"size": "3"}, {"size": "3"}, {"size": "128"}, {"size": "1"}]}}}, "dtype": {"type": "DT_FLOAT"}}}, {"name": "StatefulPartitionedCall/WeightSharedConvolutionalBoxPredictor/WeightSharedConvolutionalBoxHead/BoxPredictor/separable_conv2d/ReadVariableOp_1", "op": "Const", "attr": {"value": {"tensor": {"dtype": "DT_FLOAT", "tensorShape": {"dim": [{"size": "1"}, {"size": "1"}, {"size": "128"}, {"size": "24"}]}}}, "dtype": {"type": "DT_FLOAT"}}}, {"name": "StatefulPartitionedCall/WeightSharedConvolutionalBoxPredictor/WeightSharedConvolutionalBoxHead/BoxPredictor/BiasAdd/ReadVariableOp", "op": "Const", "attr": {"value": {"tensor": {"dtype": "DT_FLOAT", "tensorShape": {"dim": [{"size": "24"}]}}}, "dtype": {"type": "DT_FLOAT"}}}, {"name": "StatefulPartitionedCall/ssd_mobile_net_v2fpn_keras_feature_extractor/FeatureMaps/top_down/nearest_neighbor_upsampling/nearest_neighbor_upsampling_1/strided_slice/stack", "op": "Const", "attr": {"value": {"tensor": {"dtype": "DT_INT32", "tensorShape": {"dim": [{"size": "1"}]}}}, "dtype": {"type": "DT_INT32"}}}, {"name": "StatefulPartitionedCall/ssd_mobile_net_v2fpn_keras_feature_extractor/FeatureMaps/top_down/nearest_neighbor_upsampling/nearest_neighbor_upsampling_1/strided_slice/stack_1", "op": "Const", "attr": {"value": {"tensor": {"dtype": "DT_INT32", "tensorShape": {"dim": [{"size": "1"}]}}}, "dtype": {"type": "DT_INT32"}}}, {"name": "StatefulPartitionedCall/ssd_mobile_net_v2fpn_keras_feature_extractor/FeatureMaps/top_down/nearest_neighbor_upsampling/nearest_neighbor_upsampling_1/strided_slice/stack_2", "op": "Const", "attr": {"dtype": {"type": "DT_INT32"}, "value": {"tensor": {"dtype": "DT_INT32", "tensorShape": {"dim": [{"size": "1"}]}}}}}, {"name": "StatefulPartitionedCall/ssd_mobile_net_v2fpn_keras_feature_extractor/FeatureMaps/top_down/nearest_neighbor_upsampling/nearest_neighbor_upsampling_1/Reshape/shape/1", "op": "Const", "attr": {"value": {"tensor": {"dtype": "DT_INT32", "tensorShape": {}}}, "dtype": {"type": "DT_INT32"}}}, {"name": "StatefulPartitionedCall/ssd_mobile_net_v2fpn_keras_feature_extractor/FeatureMaps/top_down/nearest_neighbor_upsampling/nearest_neighbor_upsampling_1/Reshape/shape/2", "op": "Const", "attr": {"value": {"tensor": {"dtype": "DT_INT32", "tensorShape": {}}}, "dtype": {"type": "DT_INT32"}}}, {"name": "StatefulPartitionedCall/ssd_mobile_net_v2fpn_keras_feature_extractor/FeatureMaps/top_down/nearest_neighbor_upsampling/nearest_neighbor_upsampling_1/Reshape/shape/3", "op": "Const", "attr": {"value": {"tensor": {"dtype": "DT_INT32", "tensorShape": {}}}, "dtype": {"type": "DT_INT32"}}}, {"name": "StatefulPartitionedCall/ssd_mobile_net_v2fpn_keras_feature_extractor/FeatureMaps/top_down/projection_1/Conv2D/ReadVariableOp", "op": "Const", "attr": {"value": {"tensor": {"dtype": "DT_FLOAT", "tensorShape": {"dim": [{"size": "1"}, {"size": "1"}, {"size": "32"}, {"size": "128"}]}}}, "dtype": {"type": "DT_FLOAT"}}}, {"name": "StatefulPartitionedCall/ssd_mobile_net_v2fpn_keras_feature_extractor/FeatureMaps/top_down/projection_1/BiasAdd/ReadVariableOp", "op": "Const", "attr": {"value": {"tensor": {"dtype": "DT_FLOAT", "tensorShape": {"dim": [{"size": "128"}]}}}, "dtype": {"type": "DT_FLOAT"}}}, {"name": "StatefulPartitionedCall/ssd_mobile_net_v2fpn_keras_feature_extractor/FeatureMaps/top_down/smoothing_1_depthwise_conv/separable_conv2d/ReadVariableOp", "op": "Const", "attr": {"value": {"tensor": {"dtype": "DT_FLOAT", "tensorShape": {"dim": [{"size": "3"}, {"size": "3"}, {"size": "128"}, {"size": "1"}]}}}, "dtype": {"type": "DT_FLOAT"}}}, {"name": "StatefulPartitionedCall/WeightSharedConvolutionalBoxPredictor/PredictionTower/conv2d_0/separable_conv2d/ReadVariableOp", "op": "Const", "attr": {"value": {"tensor": {"dtype": "DT_FLOAT", "tensorShape": {"dim": [{"size": "3"}, {"size": "3"}, {"size": "128"}, {"size": "1"}]}}}, "dtype": {"type": "DT_FLOAT"}}}, {"name": "StatefulPartitionedCall/WeightSharedConvolutionalBoxPredictor/PredictionTower/conv2d_1/separable_conv2d/ReadVariableOp", "op": "Const", "attr": {"dtype": {"type": "DT_FLOAT"}, "value": {"tensor": {"dtype": "DT_FLOAT", "tensorShape": {"dim": [{"size": "3"}, {"size": "3"}, {"size": "128"}, {"size": "1"}]}}}}}, {"name": "StatefulPartitionedCall/WeightSharedConvolutionalBoxPredictor/PredictionTower/conv2d_2/separable_conv2d/ReadVariableOp", "op": "Const", "attr": {"value": {"tensor": {"dtype": "DT_FLOAT", "tensorShape": {"dim": [{"size": "3"}, {"size": "3"}, {"size": "128"}, {"size": "1"}]}}}, "dtype": {"type": "DT_FLOAT"}}}, {"name": "StatefulPartitionedCall/WeightSharedConvolutionalBoxPredictor/PredictionTower/conv2d_3/separable_conv2d/ReadVariableOp", "op": "Const", "attr": {"dtype": {"type": "DT_FLOAT"}, "value": {"tensor": {"dtype": "DT_FLOAT", "tensorShape": {"dim": [{"size": "3"}, {"size": "3"}, {"size": "128"}, {"size": "1"}]}}}}}, {"name": "StatefulPartitionedCall/WeightSharedConvolutionalBoxPredictor/WeightSharedConvolutionalBoxHead/strided_slice/stack", "op": "Const", "attr": {"value": {"tensor": {"dtype": "DT_INT32", "tensorShape": {"dim": [{"size": "1"}]}}}, "dtype": {"type": "DT_INT32"}}}, {"name": "StatefulPartitionedCall/WeightSharedConvolutionalBoxPredictor/WeightSharedConvolutionalBoxHead/strided_slice/stack_1", "op": "Const", "attr": {"value": {"tensor": {"dtype": "DT_INT32", "tensorShape": {"dim": [{"size": "1"}]}}}, "dtype": {"type": "DT_INT32"}}}, {"name": "StatefulPartitionedCall/WeightSharedConvolutionalBoxPredictor/WeightSharedConvolutionalBoxHead/strided_slice/stack_2", "op": "Const", "attr": {"value": {"tensor": {"dtype": "DT_INT32", "tensorShape": {"dim": [{"size": "1"}]}}}, "dtype": {"type": "DT_INT32"}}}, {"name": "StatefulPartitionedCall/WeightSharedConvolutionalBoxPredictor/WeightSharedConvolutionalBoxHead/Reshape/shape/1", "op": "Const", "attr": {"dtype": {"type": "DT_INT32"}, "value": {"tensor": {"dtype": "DT_INT32", "tensorShape": {}}}}}, {"name": "StatefulPartitionedCall/WeightSharedConvolutionalBoxPredictor/WeightSharedConvolutionalBoxHead/Reshape/shape/2", "op": "Const", "attr": {"value": {"tensor": {"dtype": "DT_INT32", "tensorShape": {}}}, "dtype": {"type": "DT_INT32"}}}, {"name": "StatefulPartitionedCall/WeightSharedConvolutionalBoxPredictor/WeightSharedConvolutionalBoxHead/BoxPredictor/separable_conv2d_1/ReadVariableOp", "op": "Const", "attr": {"value": {"tensor": {"dtype": "DT_FLOAT", "tensorShape": {"dim": [{"size": "3"}, {"size": "3"}, {"size": "128"}, {"size": "1"}]}}}, "dtype": {"type": "DT_FLOAT"}}}, {"name": "StatefulPartitionedCall/WeightSharedConvolutionalBoxPredictor/WeightSharedConvolutionalBoxHead/BoxPredictor/separable_conv2d_1/ReadVariableOp_1", "op": "Const", "attr": {"value": {"tensor": {"dtype": "DT_FLOAT", "tensorShape": {"dim": [{"size": "1"}, {"size": "1"}, {"size": "128"}, {"size": "24"}]}}}, "dtype": {"type": "DT_FLOAT"}}}, {"name": "StatefulPartitionedCall/WeightSharedConvolutionalBoxPredictor/WeightSharedConvolutionalBoxHead/BoxPredictor/BiasAdd_1/ReadVariableOp", "op": "Const", "attr": {"dtype": {"type": "DT_FLOAT"}, "value": {"tensor": {"dtype": "DT_FLOAT", "tensorShape": {"dim": [{"size": "24"}]}}}}}, {"name": "StatefulPartitionedCall/ssd_mobile_net_v2fpn_keras_feature_extractor/FeatureMaps/top_down/nearest_neighbor_upsampling/nearest_neighbor_upsampling/strided_slice/stack", "op": "Const", "attr": {"value": {"tensor": {"dtype": "DT_INT32", "tensorShape": {"dim": [{"size": "1"}]}}}, "dtype": {"type": "DT_INT32"}}}, {"name": "StatefulPartitionedCall/ssd_mobile_net_v2fpn_keras_feature_extractor/FeatureMaps/top_down/nearest_neighbor_upsampling/nearest_neighbor_upsampling/strided_slice/stack_1", "op": "Const", "attr": {"value": {"tensor": {"dtype": "DT_INT32", "tensorShape": {"dim": [{"size": "1"}]}}}, "dtype": {"type": "DT_INT32"}}}, {"name": "StatefulPartitionedCall/ssd_mobile_net_v2fpn_keras_feature_extractor/FeatureMaps/top_down/nearest_neighbor_upsampling/nearest_neighbor_upsampling/strided_slice/stack_2", "op": "Const", "attr": {"dtype": {"type": "DT_INT32"}, "value": {"tensor": {"dtype": "DT_INT32", "tensorShape": {"dim": [{"size": "1"}]}}}}}, {"name": "StatefulPartitionedCall/ssd_mobile_net_v2fpn_keras_feature_extractor/FeatureMaps/top_down/nearest_neighbor_upsampling/nearest_neighbor_upsampling/Reshape/shape/1", "op": "Const", "attr": {"value": {"tensor": {"dtype": "DT_INT32", "tensorShape": {}}}, "dtype": {"type": "DT_INT32"}}}, {"name": "StatefulPartitionedCall/ssd_mobile_net_v2fpn_keras_feature_extractor/FeatureMaps/top_down/nearest_neighbor_upsampling/nearest_neighbor_upsampling/Reshape/shape/2", "op": "Const", "attr": {"value": {"tensor": {"dtype": "DT_INT32", "tensorShape": {}}}, "dtype": {"type": "DT_INT32"}}}, {"name": "StatefulPartitionedCall/ssd_mobile_net_v2fpn_keras_feature_extractor/FeatureMaps/top_down/nearest_neighbor_upsampling/nearest_neighbor_upsampling/Reshape/shape/3", "op": "Const", "attr": {"value": {"tensor": {"dtype": "DT_INT32", "tensorShape": {}}}, "dtype": {"type": "DT_INT32"}}}, {"name": "StatefulPartitionedCall/ssd_mobile_net_v2fpn_keras_feature_extractor/FeatureMaps/top_down/projection_2/Conv2D/ReadVariableOp", "op": "Const", "attr": {"value": {"tensor": {"dtype": "DT_FLOAT", "tensorShape": {"dim": [{"size": "1"}, {"size": "1"}, {"size": "96"}, {"size": "128"}]}}}, "dtype": {"type": "DT_FLOAT"}}}, {"name": "StatefulPartitionedCall/ssd_mobile_net_v2fpn_keras_feature_extractor/FeatureMaps/top_down/projection_2/BiasAdd/ReadVariableOp", "op": "Const", "attr": {"value": {"tensor": {"dtype": "DT_FLOAT", "tensorShape": {"dim": [{"size": "128"}]}}}, "dtype": {"type": "DT_FLOAT"}}}, {"name": "StatefulPartitionedCall/ssd_mobile_net_v2fpn_keras_feature_extractor/FeatureMaps/top_down/smoothing_2_depthwise_conv/separable_conv2d/ReadVariableOp", "op": "Const", "attr": {"value": {"tensor": {"dtype": "DT_FLOAT", "tensorShape": {"dim": [{"size": "3"}, {"size": "3"}, {"size": "128"}, {"size": "1"}]}}}, "dtype": {"type": "DT_FLOAT"}}}, {"name": "StatefulPartitionedCall/WeightSharedConvolutionalBoxPredictor/PredictionTower/conv2d_0/separable_conv2d_1/ReadVariableOp", "op": "Const", "attr": {"value": {"tensor": {"dtype": "DT_FLOAT", "tensorShape": {"dim": [{"size": "3"}, {"size": "3"}, {"size": "128"}, {"size": "1"}]}}}, "dtype": {"type": "DT_FLOAT"}}}, {"name": "StatefulPartitionedCall/WeightSharedConvolutionalBoxPredictor/PredictionTower/conv2d_1/separable_conv2d_1/ReadVariableOp", "op": "Const", "attr": {"value": {"tensor": {"dtype": "DT_FLOAT", "tensorShape": {"dim": [{"size": "3"}, {"size": "3"}, {"size": "128"}, {"size": "1"}]}}}, "dtype": {"type": "DT_FLOAT"}}}, {"name": "StatefulPartitionedCall/WeightSharedConvolutionalBoxPredictor/PredictionTower/conv2d_2/separable_conv2d_1/ReadVariableOp", "op": "Const", "attr": {"value": {"tensor": {"dtype": "DT_FLOAT", "tensorShape": {"dim": [{"size": "3"}, {"size": "3"}, {"size": "128"}, {"size": "1"}]}}}, "dtype": {"type": "DT_FLOAT"}}}, {"name": "StatefulPartitionedCall/WeightSharedConvolutionalBoxPredictor/PredictionTower/conv2d_3/separable_conv2d_1/ReadVariableOp", "op": "Const", "attr": {"value": {"tensor": {"dtype": "DT_FLOAT", "tensorShape": {"dim": [{"size": "3"}, {"size": "3"}, {"size": "128"}, {"size": "1"}]}}}, "dtype": {"type": "DT_FLOAT"}}}, {"name": "StatefulPartitionedCall/WeightSharedConvolutionalBoxPredictor/WeightSharedConvolutionalBoxHead/strided_slice_1/stack", "op": "Const", "attr": {"value": {"tensor": {"dtype": "DT_INT32", "tensorShape": {"dim": [{"size": "1"}]}}}, "dtype": {"type": "DT_INT32"}}}, {"name": "StatefulPartitionedCall/WeightSharedConvolutionalBoxPredictor/WeightSharedConvolutionalBoxHead/strided_slice_1/stack_1", "op": "Const", "attr": {"value": {"tensor": {"dtype": "DT_INT32", "tensorShape": {"dim": [{"size": "1"}]}}}, "dtype": {"type": "DT_INT32"}}}, {"name": "StatefulPartitionedCall/WeightSharedConvolutionalBoxPredictor/WeightSharedConvolutionalBoxHead/strided_slice_1/stack_2", "op": "Const", "attr": {"value": {"tensor": {"dtype": "DT_INT32", "tensorShape": {"dim": [{"size": "1"}]}}}, "dtype": {"type": "DT_INT32"}}}, {"name": "StatefulPartitionedCall/WeightSharedConvolutionalBoxPredictor/WeightSharedConvolutionalBoxHead/Reshape_1/shape/1", "op": "Const", "attr": {"value": {"tensor": {"dtype": "DT_INT32", "tensorShape": {}}}, "dtype": {"type": "DT_INT32"}}}, {"name": "StatefulPartitionedCall/WeightSharedConvolutionalBoxPredictor/WeightSharedConvolutionalBoxHead/Reshape_1/shape/2", "op": "Const", "attr": {"dtype": {"type": "DT_INT32"}, "value": {"tensor": {"dtype": "DT_INT32", "tensorShape": {}}}}}, {"name": "StatefulPartitionedCall/WeightSharedConvolutionalBoxPredictor/WeightSharedConvolutionalBoxHead/BoxPredictor/separable_conv2d_2/ReadVariableOp", "op": "Const", "attr": {"value": {"tensor": {"dtype": "DT_FLOAT", "tensorShape": {"dim": [{"size": "3"}, {"size": "3"}, {"size": "128"}, {"size": "1"}]}}}, "dtype": {"type": "DT_FLOAT"}}}, {"name": "StatefulPartitionedCall/WeightSharedConvolutionalBoxPredictor/WeightSharedConvolutionalBoxHead/BoxPredictor/separable_conv2d_2/ReadVariableOp_1", "op": "Const", "attr": {"dtype": {"type": "DT_FLOAT"}, "value": {"tensor": {"dtype": "DT_FLOAT", "tensorShape": {"dim": [{"size": "1"}, {"size": "1"}, {"size": "128"}, {"size": "24"}]}}}}}, {"name": "StatefulPartitionedCall/WeightSharedConvolutionalBoxPredictor/WeightSharedConvolutionalBoxHead/BoxPredictor/BiasAdd_2/ReadVariableOp", "op": "Const", "attr": {"value": {"tensor": {"dtype": "DT_FLOAT", "tensorShape": {"dim": [{"size": "24"}]}}}, "dtype": {"type": "DT_FLOAT"}}}, {"name": "StatefulPartitionedCall/WeightSharedConvolutionalBoxPredictor/PredictionTower/conv2d_0/separable_conv2d_2/ReadVariableOp", "op": "Const", "attr": {"value": {"tensor": {"dtype": "DT_FLOAT", "tensorShape": {"dim": [{"size": "3"}, {"size": "3"}, {"size": "128"}, {"size": "1"}]}}}, "dtype": {"type": "DT_FLOAT"}}}, {"name": "StatefulPartitionedCall/WeightSharedConvolutionalBoxPredictor/PredictionTower/conv2d_1/separable_conv2d_2/ReadVariableOp", "op": "Const", "attr": {"value": {"tensor": {"dtype": "DT_FLOAT", "tensorShape": {"dim": [{"size": "3"}, {"size": "3"}, {"size": "128"}, {"size": "1"}]}}}, "dtype": {"type": "DT_FLOAT"}}}, {"name": "StatefulPartitionedCall/WeightSharedConvolutionalBoxPredictor/PredictionTower/conv2d_2/separable_conv2d_2/ReadVariableOp", "op": "Const", "attr": {"value": {"tensor": {"dtype": "DT_FLOAT", "tensorShape": {"dim": [{"size": "3"}, {"size": "3"}, {"size": "128"}, {"size": "1"}]}}}, "dtype": {"type": "DT_FLOAT"}}}, {"name": "StatefulPartitionedCall/WeightSharedConvolutionalBoxPredictor/PredictionTower/conv2d_3/separable_conv2d_2/ReadVariableOp", "op": "Const", "attr": {"dtype": {"type": "DT_FLOAT"}, "value": {"tensor": {"dtype": "DT_FLOAT", "tensorShape": {"dim": [{"size": "3"}, {"size": "3"}, {"size": "128"}, {"size": "1"}]}}}}}, {"name": "StatefulPartitionedCall/WeightSharedConvolutionalBoxPredictor/WeightSharedConvolutionalBoxHead/strided_slice_2/stack", "op": "Const", "attr": {"value": {"tensor": {"dtype": "DT_INT32", "tensorShape": {"dim": [{"size": "1"}]}}}, "dtype": {"type": "DT_INT32"}}}, {"name": "StatefulPartitionedCall/WeightSharedConvolutionalBoxPredictor/WeightSharedConvolutionalBoxHead/strided_slice_2/stack_1", "op": "Const", "attr": {"value": {"tensor": {"dtype": "DT_INT32", "tensorShape": {"dim": [{"size": "1"}]}}}, "dtype": {"type": "DT_INT32"}}}, {"name": "StatefulPartitionedCall/WeightSharedConvolutionalBoxPredictor/WeightSharedConvolutionalBoxHead/strided_slice_2/stack_2", "op": "Const", "attr": {"value": {"tensor": {"dtype": "DT_INT32", "tensorShape": {"dim": [{"size": "1"}]}}}, "dtype": {"type": "DT_INT32"}}}, {"name": "StatefulPartitionedCall/WeightSharedConvolutionalBoxPredictor/WeightSharedConvolutionalBoxHead/Reshape_2/shape/1", "op": "Const", "attr": {"value": {"tensor": {"dtype": "DT_INT32", "tensorShape": {}}}, "dtype": {"type": "DT_INT32"}}}, {"name": "StatefulPartitionedCall/WeightSharedConvolutionalBoxPredictor/WeightSharedConvolutionalBoxHead/Reshape_2/shape/2", "op": "Const", "attr": {"value": {"tensor": {"dtype": "DT_INT32", "tensorShape": {}}}, "dtype": {"type": "DT_INT32"}}}, {"name": "StatefulPartitionedCall/WeightSharedConvolutionalBoxPredictor/WeightSharedConvolutionalBoxHead/BoxPredictor/separable_conv2d_3/ReadVariableOp", "op": "Const", "attr": {"value": {"tensor": {"dtype": "DT_FLOAT", "tensorShape": {"dim": [{"size": "3"}, {"size": "3"}, {"size": "128"}, {"size": "1"}]}}}, "dtype": {"type": "DT_FLOAT"}}}, {"name": "StatefulPartitionedCall/WeightSharedConvolutionalBoxPredictor/WeightSharedConvolutionalBoxHead/BoxPredictor/separable_conv2d_3/ReadVariableOp_1", "op": "Const", "attr": {"dtype": {"type": "DT_FLOAT"}, "value": {"tensor": {"dtype": "DT_FLOAT", "tensorShape": {"dim": [{"size": "1"}, {"size": "1"}, {"size": "128"}, {"size": "24"}]}}}}}, {"name": "StatefulPartitionedCall/WeightSharedConvolutionalBoxPredictor/WeightSharedConvolutionalBoxHead/BoxPredictor/BiasAdd_3/ReadVariableOp", "op": "Const", "attr": {"value": {"tensor": {"dtype": "DT_FLOAT", "tensorShape": {"dim": [{"size": "24"}]}}}, "dtype": {"type": "DT_FLOAT"}}}, {"name": "StatefulPartitionedCall/WeightSharedConvolutionalBoxPredictor/PredictionTower/conv2d_0/separable_conv2d_3/ReadVariableOp", "op": "Const", "attr": {"dtype": {"type": "DT_FLOAT"}, "value": {"tensor": {"dtype": "DT_FLOAT", "tensorShape": {"dim": [{"size": "3"}, {"size": "3"}, {"size": "128"}, {"size": "1"}]}}}}}, {"name": "StatefulPartitionedCall/WeightSharedConvolutionalBoxPredictor/PredictionTower/conv2d_1/separable_conv2d_3/ReadVariableOp", "op": "Const", "attr": {"value": {"tensor": {"dtype": "DT_FLOAT", "tensorShape": {"dim": [{"size": "3"}, {"size": "3"}, {"size": "128"}, {"size": "1"}]}}}, "dtype": {"type": "DT_FLOAT"}}}, {"name": "StatefulPartitionedCall/WeightSharedConvolutionalBoxPredictor/PredictionTower/conv2d_2/separable_conv2d_3/ReadVariableOp", "op": "Const", "attr": {"dtype": {"type": "DT_FLOAT"}, "value": {"tensor": {"dtype": "DT_FLOAT", "tensorShape": {"dim": [{"size": "3"}, {"size": "3"}, {"size": "128"}, {"size": "1"}]}}}}}, {"name": "StatefulPartitionedCall/WeightSharedConvolutionalBoxPredictor/PredictionTower/conv2d_3/separable_conv2d_3/ReadVariableOp", "op": "Const", "attr": {"dtype": {"type": "DT_FLOAT"}, "value": {"tensor": {"dtype": "DT_FLOAT", "tensorShape": {"dim": [{"size": "3"}, {"size": "3"}, {"size": "128"}, {"size": "1"}]}}}}}, {"name": "StatefulPartitionedCall/WeightSharedConvolutionalBoxPredictor/WeightSharedConvolutionalBoxHead/strided_slice_3/stack", "op": "Const", "attr": {"value": {"tensor": {"dtype": "DT_INT32", "tensorShape": {"dim": [{"size": "1"}]}}}, "dtype": {"type": "DT_INT32"}}}, {"name": "StatefulPartitionedCall/WeightSharedConvolutionalBoxPredictor/WeightSharedConvolutionalBoxHead/strided_slice_3/stack_1", "op": "Const", "attr": {"dtype": {"type": "DT_INT32"}, "value": {"tensor": {"dtype": "DT_INT32", "tensorShape": {"dim": [{"size": "1"}]}}}}}, {"name": "StatefulPartitionedCall/WeightSharedConvolutionalBoxPredictor/WeightSharedConvolutionalBoxHead/strided_slice_3/stack_2", "op": "Const", "attr": {"value": {"tensor": {"dtype": "DT_INT32", "tensorShape": {"dim": [{"size": "1"}]}}}, "dtype": {"type": "DT_INT32"}}}, {"name": "StatefulPartitionedCall/WeightSharedConvolutionalBoxPredictor/WeightSharedConvolutionalBoxHead/Reshape_3/shape/1", "op": "Const", "attr": {"value": {"tensor": {"dtype": "DT_INT32", "tensorShape": {}}}, "dtype": {"type": "DT_INT32"}}}, {"name": "StatefulPartitionedCall/WeightSharedConvolutionalBoxPredictor/WeightSharedConvolutionalBoxHead/Reshape_3/shape/2", "op": "Const", "attr": {"value": {"tensor": {"dtype": "DT_INT32", "tensorShape": {}}}, "dtype": {"type": "DT_INT32"}}}, {"name": "StatefulPartitionedCall/WeightSharedConvolutionalBoxPredictor/WeightSharedConvolutionalBoxHead/BoxPredictor/separable_conv2d_4/ReadVariableOp", "op": "Const", "attr": {"value": {"tensor": {"dtype": "DT_FLOAT", "tensorShape": {"dim": [{"size": "3"}, {"size": "3"}, {"size": "128"}, {"size": "1"}]}}}, "dtype": {"type": "DT_FLOAT"}}}, {"name": "StatefulPartitionedCall/WeightSharedConvolutionalBoxPredictor/WeightSharedConvolutionalBoxHead/BoxPredictor/separable_conv2d_4/ReadVariableOp_1", "op": "Const", "attr": {"value": {"tensor": {"dtype": "DT_FLOAT", "tensorShape": {"dim": [{"size": "1"}, {"size": "1"}, {"size": "128"}, {"size": "24"}]}}}, "dtype": {"type": "DT_FLOAT"}}}, {"name": "StatefulPartitionedCall/WeightSharedConvolutionalBoxPredictor/WeightSharedConvolutionalBoxHead/BoxPredictor/BiasAdd_4/ReadVariableOp", "op": "Const", "attr": {"value": {"tensor": {"dtype": "DT_FLOAT", "tensorShape": {"dim": [{"size": "24"}]}}}, "dtype": {"type": "DT_FLOAT"}}}, {"name": "StatefulPartitionedCall/map/while/loop_counter", "op": "Const", "attr": {"value": {"tensor": {"dtype": "DT_INT32", "tensorShape": {}}}, "dtype": {"type": "DT_INT32"}}}, {"name": "StatefulPartitionedCall/map/Const", "op": "Const", "attr": {"value": {"tensor": {"dtype": "DT_INT32", "tensorShape": {}}}, "dtype": {"type": "DT_INT32"}}}, {"name": "StatefulPartitionedCall/map/TensorArrayV2_1/element_shape", "op": "Const", "attr": {"value": {"tensor": {"dtype": "DT_INT32", "tensorShape": {}}}, "dtype": {"type": "DT_INT32"}}}, {"name": "StatefulPartitionedCall/map/TensorArrayV2_2/element_shape", "op": "Const", "attr": {"value": {"tensor": {"dtype": "DT_INT32", "tensorShape": {}}}, "dtype": {"type": "DT_INT32"}}}, {"name": "StatefulPartitionedCall/map/strided_slice/stack", "op": "Const", "attr": {"dtype": {"type": "DT_INT32"}, "value": {"tensor": {"dtype": "DT_INT32", "tensorShape": {"dim": [{"size": "1"}]}}}}}, {"name": "StatefulPartitionedCall/map/strided_slice/stack_1", "op": "Const", "attr": {"dtype": {"type": "DT_INT32"}, "value": {"tensor": {"dtype": "DT_INT32", "tensorShape": {"dim": [{"size": "1"}]}}}}}, {"name": "StatefulPartitionedCall/map/strided_slice/stack_2", "op": "Const", "attr": {"value": {"tensor": {"dtype": "DT_INT32", "tensorShape": {"dim": [{"size": "1"}]}}}, "dtype": {"type": "DT_INT32"}}}, {"name": "StatefulPartitionedCall/map/TensorArrayUnstack/Const", "op": "Const", "attr": {"value": {"tensor": {"dtype": "DT_INT32", "tensorShape": {"dim": [{}]}}}, "dtype": {"type": "DT_INT32"}}}, {"name": "StatefulPartitionedCall/map/TensorArrayV2Stack/TensorListStack/element_shape", "op": "Const", "attr": {"value": {"tensor": {"dtype": "DT_INT32", "tensorShape": {"dim": [{"size": "3"}]}}}, "dtype": {"type": "DT_INT32"}}}, {"name": "StatefulPartitionedCall/ssd_mobile_net_v2fpn_keras_feature_extractor/FeatureMaps/top_down/projection_3/Conv2D/ReadVariableOp", "op": "Const", "attr": {"dtype": {"type": "DT_FLOAT"}, "value": {"tensor": {"dtype": "DT_FLOAT", "tensorShape": {"dim": [{"size": "1"}, {"size": "1"}, {"size": "1280"}, {"size": "128"}]}}}}}, {"name": "StatefulPartitionedCall/ssd_mobile_net_v2fpn_keras_feature_extractor/FeatureMaps/top_down/projection_3/BiasAdd/ReadVariableOp", "op": "Const", "attr": {"value": {"tensor": {"dtype": "DT_FLOAT", "tensorShape": {"dim": [{"size": "128"}]}}}, "dtype": {"type": "DT_FLOAT"}}}, {"name": "StatefulPartitionedCall/ssd_mobile_net_v2fpn_keras_feature_extractor/bottom_up_Conv2d_20_depthwise_conv/separable_conv2d/ReadVariableOp", "op": "Const", "attr": {"value": {"tensor": {"dtype": "DT_FLOAT", "tensorShape": {"dim": [{"size": "3"}, {"size": "3"}, {"size": "128"}, {"size": "1"}]}}}, "dtype": {"type": "DT_FLOAT"}}}, {"name": "StatefulPartitionedCall/ssd_mobile_net_v2fpn_keras_feature_extractor/bottom_up_Conv2d_21_depthwise_conv/separable_conv2d/ReadVariableOp", "op": "Const", "attr": {"dtype": {"type": "DT_FLOAT"}, "value": {"tensor": {"dtype": "DT_FLOAT", "tensorShape": {"dim": [{"size": "3"}, {"size": "3"}, {"size": "128"}, {"size": "1"}]}}}}}, {"name": "StatefulPartitionedCall/WeightSharedConvolutionalBoxPredictor/PredictionTower/conv2d_0/separable_conv2d_4/ReadVariableOp", "op": "Const", "attr": {"value": {"tensor": {"dtype": "DT_FLOAT", "tensorShape": {"dim": [{"size": "3"}, {"size": "3"}, {"size": "128"}, {"size": "1"}]}}}, "dtype": {"type": "DT_FLOAT"}}}, {"name": "StatefulPartitionedCall/WeightSharedConvolutionalBoxPredictor/PredictionTower/conv2d_1/separable_conv2d_4/ReadVariableOp", "op": "Const", "attr": {"value": {"tensor": {"dtype": "DT_FLOAT", "tensorShape": {"dim": [{"size": "3"}, {"size": "3"}, {"size": "128"}, {"size": "1"}]}}}, "dtype": {"type": "DT_FLOAT"}}}, {"name": "StatefulPartitionedCall/WeightSharedConvolutionalBoxPredictor/PredictionTower/conv2d_2/separable_conv2d_4/ReadVariableOp", "op": "Const", "attr": {"value": {"tensor": {"dtype": "DT_FLOAT", "tensorShape": {"dim": [{"size": "3"}, {"size": "3"}, {"size": "128"}, {"size": "1"}]}}}, "dtype": {"type": "DT_FLOAT"}}}, {"name": "StatefulPartitionedCall/WeightSharedConvolutionalBoxPredictor/PredictionTower/conv2d_3/separable_conv2d_4/ReadVariableOp", "op": "Const", "attr": {"value": {"tensor": {"dtype": "DT_FLOAT", "tensorShape": {"dim": [{"size": "3"}, {"size": "3"}, {"size": "128"}, {"size": "1"}]}}}, "dtype": {"type": "DT_FLOAT"}}}, {"name": "StatefulPartitionedCall/WeightSharedConvolutionalBoxPredictor/WeightSharedConvolutionalBoxHead/strided_slice_4/stack", "op": "Const", "attr": {"value": {"tensor": {"dtype": "DT_INT32", "tensorShape": {"dim": [{"size": "1"}]}}}, "dtype": {"type": "DT_INT32"}}}, {"name": "StatefulPartitionedCall/WeightSharedConvolutionalBoxPredictor/WeightSharedConvolutionalBoxHead/strided_slice_4/stack_1", "op": "Const", "attr": {"dtype": {"type": "DT_INT32"}, "value": {"tensor": {"dtype": "DT_INT32", "tensorShape": {"dim": [{"size": "1"}]}}}}}, {"name": "StatefulPartitionedCall/WeightSharedConvolutionalBoxPredictor/WeightSharedConvolutionalBoxHead/strided_slice_4/stack_2", "op": "Const", "attr": {"value": {"tensor": {"dtype": "DT_INT32", "tensorShape": {"dim": [{"size": "1"}]}}}, "dtype": {"type": "DT_INT32"}}}, {"name": "StatefulPartitionedCall/WeightSharedConvolutionalBoxPredictor/WeightSharedConvolutionalBoxHead/Reshape_4/shape/1", "op": "Const", "attr": {"value": {"tensor": {"dtype": "DT_INT32", "tensorShape": {}}}, "dtype": {"type": "DT_INT32"}}}, {"name": "StatefulPartitionedCall/WeightSharedConvolutionalBoxPredictor/WeightSharedConvolutionalBoxHead/Reshape_4/shape/2", "op": "Const", "attr": {"value": {"tensor": {"dtype": "DT_INT32", "tensorShape": {}}}, "dtype": {"type": "DT_INT32"}}}, {"name": "StatefulPartitionedCall/concat/axis", "op": "Const", "attr": {"value": {"tensor": {"dtype": "DT_INT32", "tensorShape": {}}}, "dtype": {"type": "DT_INT32"}}}, {"name": "StatefulPartitionedCall/Postprocessor/strided_slice_1/stack", "op": "Const", "attr": {"value": {"tensor": {"dtype": "DT_INT32", "tensorShape": {"dim": [{"size": "1"}]}}}, "dtype": {"type": "DT_INT32"}}}, {"name": "StatefulPartitionedCall/Postprocessor/strided_slice_1/stack_1", "op": "Const", "attr": {"value": {"tensor": {"dtype": "DT_INT32", "tensorShape": {"dim": [{"size": "1"}]}}}, "dtype": {"type": "DT_INT32"}}}, {"name": "StatefulPartitionedCall/Postprocessor/strided_slice_1/stack_2", "op": "Const", "attr": {"dtype": {"type": "DT_INT32"}, "value": {"tensor": {"dtype": "DT_INT32", "tensorShape": {"dim": [{"size": "1"}]}}}}}, {"name": "StatefulPartitionedCall/Postprocessor/stack/2", "op": "Const", "attr": {"dtype": {"type": "DT_INT32"}, "value": {"tensor": {"dtype": "DT_INT32", "tensorShape": {}}}}}, {"name": "StatefulPartitionedCall/Postprocessor/ExpandDims_1/dim", "op": "Const", "attr": {"value": {"tensor": {"dtype": "DT_INT32", "tensorShape": {}}}, "dtype": {"type": "DT_INT32"}}}, {"name": "StatefulPartitionedCall/Postprocessor/BatchMultiClassNonMaxSuppression/strided_slice_1/stack", "op": "Const", "attr": {"value": {"tensor": {"dtype": "DT_INT32", "tensorShape": {"dim": [{"size": "1"}]}}}, "dtype": {"type": "DT_INT32"}}}, {"name": "StatefulPartitionedCall/Postprocessor/BatchMultiClassNonMaxSuppression/strided_slice_1/stack_1", "op": "Const", "attr": {"value": {"tensor": {"dtype": "DT_INT32", "tensorShape": {"dim": [{"size": "1"}]}}}, "dtype": {"type": "DT_INT32"}}}, {"name": "StatefulPartitionedCall/Postprocessor/BatchMultiClassNonMaxSuppression/strided_slice_1/stack_2", "op": "Const", "attr": {"value": {"tensor": {"dtype": "DT_INT32", "tensorShape": {"dim": [{"size": "1"}]}}}, "dtype": {"type": "DT_INT32"}}}, {"name": "StatefulPartitionedCall/Postprocessor/BatchMultiClassNonMaxSuppression/map/TensorArrayUnstack_6/Const", "op": "Const", "attr": {"value": {"tensor": {"dtype": "DT_INT32", "tensorShape": {"dim": [{}]}}}, "dtype": {"type": "DT_INT32"}}}, {"name": "input_tensor", "op": "Placeholder", "attr": {"dtype": {"type": "DT_STRING"}, "shape": {"shape": {"dim": [{"size": "-1"}]}}}}, {"name": "StatefulPartitionedCall/ssd_mobile_net_v2fpn_keras_feature_extractor/model/Conv1/Conv2D_weights", "op": "Const", "attr": {"dtype": {"type": "DT_FLOAT"}, "value": {"tensor": {"dtype": "DT_FLOAT", "tensorShape": {"dim": [{"size": "3"}, {"size": "3"}, {"size": "3"}, {"size": "32"}]}}}}}, {"name": "StatefulPartitionedCall/ssd_mobile_net_v2fpn_keras_feature_extractor/model/Conv1/Conv2D_bn_offset", "op": "Const", "attr": {"value": {"tensor": {"dtype": "DT_FLOAT", "tensorShape": {"dim": [{"size": "32"}]}}}, "dtype": {"type": "DT_FLOAT"}}}, {"name": "StatefulPartitionedCall/WeightSharedConvolutionalBoxPredictor/PredictionTower/conv2d_2/separable_conv2d_bn_offset", "op": "Const", "attr": {"value": {"tensor": {"dtype": "DT_FLOAT", "tensorShape": {"dim": [{"size": "128"}]}}}, "dtype": {"type": "DT_FLOAT"}}}, {"name": "StatefulPartitionedCall/ssd_mobile_net_v2fpn_keras_feature_extractor/model/expanded_conv_depthwise/depthwise_weights", "op": "Const", "attr": {"value": {"tensor": {"dtype": "DT_FLOAT", "tensorShape": {"dim": [{"size": "3"}, {"size": "3"}, {"size": "32"}, {"size": "1"}]}}}, "dtype": {"type": "DT_FLOAT"}}}, {"name": "StatefulPartitionedCall/ssd_mobile_net_v2fpn_keras_feature_extractor/model/expanded_conv_depthwise/depthwise_bn_offset", "op": "Const", "attr": {"value": {"tensor": {"dtype": "DT_FLOAT", "tensorShape": {"dim": [{"size": "32"}]}}}, "dtype": {"type": "DT_FLOAT"}}}, {"name": "StatefulPartitionedCall/ssd_mobile_net_v2fpn_keras_feature_extractor/model/expanded_conv_project/Conv2D_weights", "op": "Const", "attr": {"value": {"tensor": {"dtype": "DT_FLOAT", "tensorShape": {"dim": [{"size": "1"}, {"size": "1"}, {"size": "32"}, {"size": "16"}]}}}, "dtype": {"type": "DT_FLOAT"}}}, {"name": "StatefulPartitionedCall/ssd_mobile_net_v2fpn_keras_feature_extractor/model/expanded_conv_project/Conv2D_bn_offset", "op": "Const", "attr": {"value": {"tensor": {"dtype": "DT_FLOAT", "tensorShape": {"dim": [{"size": "16"}]}}}, "dtype": {"type": "DT_FLOAT"}}}, {"name": "StatefulPartitionedCall/ssd_mobile_net_v2fpn_keras_feature_extractor/model/block_1_expand/Conv2D_weights", "op": "Const", "attr": {"value": {"tensor": {"dtype": "DT_FLOAT", "tensorShape": {"dim": [{"size": "1"}, {"size": "1"}, {"size": "16"}, {"size": "96"}]}}}, "dtype": {"type": "DT_FLOAT"}}}, {"name": "StatefulPartitionedCall/ssd_mobile_net_v2fpn_keras_feature_extractor/model/block_1_expand/Conv2D_bn_offset", "op": "Const", "attr": {"value": {"tensor": {"dtype": "DT_FLOAT", "tensorShape": {"dim": [{"size": "96"}]}}}, "dtype": {"type": "DT_FLOAT"}}}, {"name": "StatefulPartitionedCall/ssd_mobile_net_v2fpn_keras_feature_extractor/model/block_1_depthwise/depthwise_weights", "op": "Const", "attr": {"value": {"tensor": {"dtype": "DT_FLOAT", "tensorShape": {"dim": [{"size": "3"}, {"size": "3"}, {"size": "96"}, {"size": "1"}]}}}, "dtype": {"type": "DT_FLOAT"}}}, {"name": "StatefulPartitionedCall/ssd_mobile_net_v2fpn_keras_feature_extractor/model/block_1_depthwise/depthwise_bn_offset", "op": "Const", "attr": {"value": {"tensor": {"dtype": "DT_FLOAT", "tensorShape": {"dim": [{"size": "96"}]}}}, "dtype": {"type": "DT_FLOAT"}}}, {"name": "StatefulPartitionedCall/ssd_mobile_net_v2fpn_keras_feature_extractor/model/block_1_project/Conv2D_weights", "op": "Const", "attr": {"dtype": {"type": "DT_FLOAT"}, "value": {"tensor": {"dtype": "DT_FLOAT", "tensorShape": {"dim": [{"size": "1"}, {"size": "1"}, {"size": "96"}, {"size": "24"}]}}}}}, {"name": "StatefulPartitionedCall/WeightSharedConvolutionalBoxPredictor/PredictionTower/conv2d_3/separable_conv2d_weights", "op": "Const", "attr": {"dtype": {"type": "DT_FLOAT"}, "value": {"tensor": {"dtype": "DT_FLOAT", "tensorShape": {"dim": [{"size": "1"}, {"size": "1"}, {"size": "128"}, {"size": "128"}]}}}}}, {"name": "StatefulPartitionedCall/ssd_mobile_net_v2fpn_keras_feature_extractor/model/block_1_project/Conv2D_bn_offset", "op": "Const", "attr": {"value": {"tensor": {"dtype": "DT_FLOAT", "tensorShape": {"dim": [{"size": "24"}]}}}, "dtype": {"type": "DT_FLOAT"}}}, {"name": "StatefulPartitionedCall/ssd_mobile_net_v2fpn_keras_feature_extractor/model/block_2_expand/Conv2D_weights", "op": "Const", "attr": {"value": {"tensor": {"dtype": "DT_FLOAT", "tensorShape": {"dim": [{"size": "1"}, {"size": "1"}, {"size": "24"}, {"size": "144"}]}}}, "dtype": {"type": "DT_FLOAT"}}}, {"name": "StatefulPartitionedCall/ssd_mobile_net_v2fpn_keras_feature_extractor/model/block_2_expand/Conv2D_bn_offset", "op": "Const", "attr": {"value": {"tensor": {"dtype": "DT_FLOAT", "tensorShape": {"dim": [{"size": "144"}]}}}, "dtype": {"type": "DT_FLOAT"}}}, {"name": "StatefulPartitionedCall/WeightSharedConvolutionalBoxPredictor/PredictionTower/conv2d_3/separable_conv2d_bn_offset", "op": "Const", "attr": {"dtype": {"type": "DT_FLOAT"}, "value": {"tensor": {"dtype": "DT_FLOAT", "tensorShape": {"dim": [{"size": "128"}]}}}}}, {"name": "StatefulPartitionedCall/ssd_mobile_net_v2fpn_keras_feature_extractor/model/block_2_depthwise/depthwise_weights", "op": "Const", "attr": {"value": {"tensor": {"dtype": "DT_FLOAT", "tensorShape": {"dim": [{"size": "3"}, {"size": "3"}, {"size": "144"}, {"size": "1"}]}}}, "dtype": {"type": "DT_FLOAT"}}}, {"name": "StatefulPartitionedCall/ssd_mobile_net_v2fpn_keras_feature_extractor/model/block_2_depthwise/depthwise_bn_offset", "op": "Const", "attr": {"value": {"tensor": {"dtype": "DT_FLOAT", "tensorShape": {"dim": [{"size": "144"}]}}}, "dtype": {"type": "DT_FLOAT"}}}, {"name": "StatefulPartitionedCall/ssd_mobile_net_v2fpn_keras_feature_extractor/model/block_2_project/Conv2D_weights", "op": "Const", "attr": {"value": {"tensor": {"dtype": "DT_FLOAT", "tensorShape": {"dim": [{"size": "1"}, {"size": "1"}, {"size": "144"}, {"size": "24"}]}}}, "dtype": {"type": "DT_FLOAT"}}}, {"name": "StatefulPartitionedCall/ssd_mobile_net_v2fpn_keras_feature_extractor/model/block_2_project/Conv2D_bn_offset", "op": "Const", "attr": {"value": {"tensor": {"dtype": "DT_FLOAT", "tensorShape": {"dim": [{"size": "24"}]}}}, "dtype": {"type": "DT_FLOAT"}}}, {"name": "StatefulPartitionedCall/ssd_mobile_net_v2fpn_keras_feature_extractor/model/block_3_expand/Conv2D_weights", "op": "Const", "attr": {"value": {"tensor": {"dtype": "DT_FLOAT", "tensorShape": {"dim": [{"size": "1"}, {"size": "1"}, {"size": "24"}, {"size": "144"}]}}}, "dtype": {"type": "DT_FLOAT"}}}, {"name": "StatefulPartitionedCall/ssd_mobile_net_v2fpn_keras_feature_extractor/model/block_3_expand/Conv2D_bn_offset", "op": "Const", "attr": {"value": {"tensor": {"dtype": "DT_FLOAT", "tensorShape": {"dim": [{"size": "144"}]}}}, "dtype": {"type": "DT_FLOAT"}}}, {"name": "StatefulPartitionedCall/ssd_mobile_net_v2fpn_keras_feature_extractor/model/block_3_depthwise/depthwise_weights", "op": "Const", "attr": {"dtype": {"type": "DT_FLOAT"}, "value": {"tensor": {"dtype": "DT_FLOAT", "tensorShape": {"dim": [{"size": "3"}, {"size": "3"}, {"size": "144"}, {"size": "1"}]}}}}}, {"name": "StatefulPartitionedCall/ssd_mobile_net_v2fpn_keras_feature_extractor/model/block_3_depthwise/depthwise_bn_offset", "op": "Const", "attr": {"value": {"tensor": {"dtype": "DT_FLOAT", "tensorShape": {"dim": [{"size": "144"}]}}}, "dtype": {"type": "DT_FLOAT"}}}, {"name": "StatefulPartitionedCall/ssd_mobile_net_v2fpn_keras_feature_extractor/model/block_3_project/Conv2D_weights", "op": "Const", "attr": {"value": {"tensor": {"dtype": "DT_FLOAT", "tensorShape": {"dim": [{"size": "1"}, {"size": "1"}, {"size": "144"}, {"size": "32"}]}}}, "dtype": {"type": "DT_FLOAT"}}}, {"name": "StatefulPartitionedCall/ssd_mobile_net_v2fpn_keras_feature_extractor/model/block_3_project/Conv2D_bn_offset", "op": "Const", "attr": {"value": {"tensor": {"dtype": "DT_FLOAT", "tensorShape": {"dim": [{"size": "32"}]}}}, "dtype": {"type": "DT_FLOAT"}}}, {"name": "StatefulPartitionedCall/ssd_mobile_net_v2fpn_keras_feature_extractor/model/block_4_expand/Conv2D_weights", "op": "Const", "attr": {"value": {"tensor": {"dtype": "DT_FLOAT", "tensorShape": {"dim": [{"size": "1"}, {"size": "1"}, {"size": "32"}, {"size": "192"}]}}}, "dtype": {"type": "DT_FLOAT"}}}, {"name": "StatefulPartitionedCall/ssd_mobile_net_v2fpn_keras_feature_extractor/model/block_4_expand/Conv2D_bn_offset", "op": "Const", "attr": {"value": {"tensor": {"dtype": "DT_FLOAT", "tensorShape": {"dim": [{"size": "192"}]}}}, "dtype": {"type": "DT_FLOAT"}}}, {"name": "StatefulPartitionedCall/ssd_mobile_net_v2fpn_keras_feature_extractor/model/block_4_depthwise/depthwise_weights", "op": "Const", "attr": {"value": {"tensor": {"dtype": "DT_FLOAT", "tensorShape": {"dim": [{"size": "3"}, {"size": "3"}, {"size": "192"}, {"size": "1"}]}}}, "dtype": {"type": "DT_FLOAT"}}}, {"name": "StatefulPartitionedCall/ssd_mobile_net_v2fpn_keras_feature_extractor/model/block_4_depthwise/depthwise_bn_offset", "op": "Const", "attr": {"dtype": {"type": "DT_FLOAT"}, "value": {"tensor": {"dtype": "DT_FLOAT", "tensorShape": {"dim": [{"size": "192"}]}}}}}, {"name": "StatefulPartitionedCall/ssd_mobile_net_v2fpn_keras_feature_extractor/model/block_4_project/Conv2D_weights", "op": "Const", "attr": {"value": {"tensor": {"dtype": "DT_FLOAT", "tensorShape": {"dim": [{"size": "1"}, {"size": "1"}, {"size": "192"}, {"size": "32"}]}}}, "dtype": {"type": "DT_FLOAT"}}}, {"name": "StatefulPartitionedCall/ssd_mobile_net_v2fpn_keras_feature_extractor/model/block_4_project/Conv2D_bn_offset", "op": "Const", "attr": {"value": {"tensor": {"dtype": "DT_FLOAT", "tensorShape": {"dim": [{"size": "32"}]}}}, "dtype": {"type": "DT_FLOAT"}}}, {"name": "StatefulPartitionedCall/ssd_mobile_net_v2fpn_keras_feature_extractor/model/block_5_expand/Conv2D_weights", "op": "Const", "attr": {"value": {"tensor": {"dtype": "DT_FLOAT", "tensorShape": {"dim": [{"size": "1"}, {"size": "1"}, {"size": "32"}, {"size": "192"}]}}}, "dtype": {"type": "DT_FLOAT"}}}, {"name": "StatefulPartitionedCall/ssd_mobile_net_v2fpn_keras_feature_extractor/model/block_5_expand/Conv2D_bn_offset", "op": "Const", "attr": {"value": {"tensor": {"dtype": "DT_FLOAT", "tensorShape": {"dim": [{"size": "192"}]}}}, "dtype": {"type": "DT_FLOAT"}}}, {"name": "StatefulPartitionedCall/ssd_mobile_net_v2fpn_keras_feature_extractor/model/block_5_depthwise/depthwise_weights", "op": "Const", "attr": {"value": {"tensor": {"dtype": "DT_FLOAT", "tensorShape": {"dim": [{"size": "3"}, {"size": "3"}, {"size": "192"}, {"size": "1"}]}}}, "dtype": {"type": "DT_FLOAT"}}}, {"name": "StatefulPartitionedCall/ssd_mobile_net_v2fpn_keras_feature_extractor/model/block_5_depthwise/depthwise_bn_offset", "op": "Const", "attr": {"value": {"tensor": {"dtype": "DT_FLOAT", "tensorShape": {"dim": [{"size": "192"}]}}}, "dtype": {"type": "DT_FLOAT"}}}, {"name": "StatefulPartitionedCall/ssd_mobile_net_v2fpn_keras_feature_extractor/model/block_5_project/Conv2D_weights", "op": "Const", "attr": {"value": {"tensor": {"dtype": "DT_FLOAT", "tensorShape": {"dim": [{"size": "1"}, {"size": "1"}, {"size": "192"}, {"size": "32"}]}}}, "dtype": {"type": "DT_FLOAT"}}}, {"name": "StatefulPartitionedCall/ssd_mobile_net_v2fpn_keras_feature_extractor/model/block_5_project/Conv2D_bn_offset", "op": "Const", "attr": {"value": {"tensor": {"dtype": "DT_FLOAT", "tensorShape": {"dim": [{"size": "32"}]}}}, "dtype": {"type": "DT_FLOAT"}}}, {"name": "StatefulPartitionedCall/ssd_mobile_net_v2fpn_keras_feature_extractor/model/block_6_expand/Conv2D_weights", "op": "Const", "attr": {"dtype": {"type": "DT_FLOAT"}, "value": {"tensor": {"dtype": "DT_FLOAT", "tensorShape": {"dim": [{"size": "1"}, {"size": "1"}, {"size": "32"}, {"size": "192"}]}}}}}, {"name": "StatefulPartitionedCall/ssd_mobile_net_v2fpn_keras_feature_extractor/model/block_6_expand/Conv2D_bn_offset", "op": "Const", "attr": {"value": {"tensor": {"dtype": "DT_FLOAT", "tensorShape": {"dim": [{"size": "192"}]}}}, "dtype": {"type": "DT_FLOAT"}}}, {"name": "StatefulPartitionedCall/ssd_mobile_net_v2fpn_keras_feature_extractor/model/block_6_depthwise/depthwise_weights", "op": "Const", "attr": {"dtype": {"type": "DT_FLOAT"}, "value": {"tensor": {"dtype": "DT_FLOAT", "tensorShape": {"dim": [{"size": "3"}, {"size": "3"}, {"size": "192"}, {"size": "1"}]}}}}}, {"name": "StatefulPartitionedCall/ssd_mobile_net_v2fpn_keras_feature_extractor/model/block_6_depthwise/depthwise_bn_offset", "op": "Const", "attr": {"value": {"tensor": {"dtype": "DT_FLOAT", "tensorShape": {"dim": [{"size": "192"}]}}}, "dtype": {"type": "DT_FLOAT"}}}, {"name": "StatefulPartitionedCall/ssd_mobile_net_v2fpn_keras_feature_extractor/model/block_6_project/Conv2D_weights", "op": "Const", "attr": {"value": {"tensor": {"dtype": "DT_FLOAT", "tensorShape": {"dim": [{"size": "1"}, {"size": "1"}, {"size": "192"}, {"size": "64"}]}}}, "dtype": {"type": "DT_FLOAT"}}}, {"name": "StatefulPartitionedCall/ssd_mobile_net_v2fpn_keras_feature_extractor/model/block_6_project/Conv2D_bn_offset", "op": "Const", "attr": {"dtype": {"type": "DT_FLOAT"}, "value": {"tensor": {"dtype": "DT_FLOAT", "tensorShape": {"dim": [{"size": "64"}]}}}}}, {"name": "StatefulPartitionedCall/ssd_mobile_net_v2fpn_keras_feature_extractor/model/block_7_expand/Conv2D_weights", "op": "Const", "attr": {"value": {"tensor": {"dtype": "DT_FLOAT", "tensorShape": {"dim": [{"size": "1"}, {"size": "1"}, {"size": "64"}, {"size": "384"}]}}}, "dtype": {"type": "DT_FLOAT"}}}, {"name": "StatefulPartitionedCall/ssd_mobile_net_v2fpn_keras_feature_extractor/model/block_7_expand/Conv2D_bn_offset", "op": "Const", "attr": {"value": {"tensor": {"dtype": "DT_FLOAT", "tensorShape": {"dim": [{"size": "384"}]}}}, "dtype": {"type": "DT_FLOAT"}}}, {"name": "StatefulPartitionedCall/ssd_mobile_net_v2fpn_keras_feature_extractor/model/block_7_depthwise/depthwise_weights", "op": "Const", "attr": {"value": {"tensor": {"dtype": "DT_FLOAT", "tensorShape": {"dim": [{"size": "3"}, {"size": "3"}, {"size": "384"}, {"size": "1"}]}}}, "dtype": {"type": "DT_FLOAT"}}}, {"name": "StatefulPartitionedCall/ssd_mobile_net_v2fpn_keras_feature_extractor/model/block_7_depthwise/depthwise_bn_offset", "op": "Const", "attr": {"value": {"tensor": {"dtype": "DT_FLOAT", "tensorShape": {"dim": [{"size": "384"}]}}}, "dtype": {"type": "DT_FLOAT"}}}, {"name": "StatefulPartitionedCall/ssd_mobile_net_v2fpn_keras_feature_extractor/model/block_7_project/Conv2D_weights", "op": "Const", "attr": {"value": {"tensor": {"dtype": "DT_FLOAT", "tensorShape": {"dim": [{"size": "1"}, {"size": "1"}, {"size": "384"}, {"size": "64"}]}}}, "dtype": {"type": "DT_FLOAT"}}}, {"name": "StatefulPartitionedCall/ssd_mobile_net_v2fpn_keras_feature_extractor/model/block_7_project/Conv2D_bn_offset", "op": "Const", "attr": {"dtype": {"type": "DT_FLOAT"}, "value": {"tensor": {"dtype": "DT_FLOAT", "tensorShape": {"dim": [{"size": "64"}]}}}}}, {"name": "StatefulPartitionedCall/ssd_mobile_net_v2fpn_keras_feature_extractor/model/block_8_expand/Conv2D_weights", "op": "Const", "attr": {"value": {"tensor": {"dtype": "DT_FLOAT", "tensorShape": {"dim": [{"size": "1"}, {"size": "1"}, {"size": "64"}, {"size": "384"}]}}}, "dtype": {"type": "DT_FLOAT"}}}, {"name": "StatefulPartitionedCall/ssd_mobile_net_v2fpn_keras_feature_extractor/model/block_8_expand/Conv2D_bn_offset", "op": "Const", "attr": {"dtype": {"type": "DT_FLOAT"}, "value": {"tensor": {"dtype": "DT_FLOAT", "tensorShape": {"dim": [{"size": "384"}]}}}}}, {"name": "StatefulPartitionedCall/ssd_mobile_net_v2fpn_keras_feature_extractor/model/block_8_depthwise/depthwise_weights", "op": "Const", "attr": {"value": {"tensor": {"dtype": "DT_FLOAT", "tensorShape": {"dim": [{"size": "3"}, {"size": "3"}, {"size": "384"}, {"size": "1"}]}}}, "dtype": {"type": "DT_FLOAT"}}}, {"name": "StatefulPartitionedCall/ssd_mobile_net_v2fpn_keras_feature_extractor/model/block_8_depthwise/depthwise_bn_offset", "op": "Const", "attr": {"value": {"tensor": {"dtype": "DT_FLOAT", "tensorShape": {"dim": [{"size": "384"}]}}}, "dtype": {"type": "DT_FLOAT"}}}, {"name": "StatefulPartitionedCall/ssd_mobile_net_v2fpn_keras_feature_extractor/model/block_8_project/Conv2D_weights", "op": "Const", "attr": {"value": {"tensor": {"dtype": "DT_FLOAT", "tensorShape": {"dim": [{"size": "1"}, {"size": "1"}, {"size": "384"}, {"size": "64"}]}}}, "dtype": {"type": "DT_FLOAT"}}}, {"name": "StatefulPartitionedCall/ssd_mobile_net_v2fpn_keras_feature_extractor/model/block_8_project/Conv2D_bn_offset", "op": "Const", "attr": {"value": {"tensor": {"dtype": "DT_FLOAT", "tensorShape": {"dim": [{"size": "64"}]}}}, "dtype": {"type": "DT_FLOAT"}}}, {"name": "StatefulPartitionedCall/ssd_mobile_net_v2fpn_keras_feature_extractor/model/block_9_expand/Conv2D_weights", "op": "Const", "attr": {"dtype": {"type": "DT_FLOAT"}, "value": {"tensor": {"dtype": "DT_FLOAT", "tensorShape": {"dim": [{"size": "1"}, {"size": "1"}, {"size": "64"}, {"size": "384"}]}}}}}, {"name": "StatefulPartitionedCall/ssd_mobile_net_v2fpn_keras_feature_extractor/model/block_9_expand/Conv2D_bn_offset", "op": "Const", "attr": {"value": {"tensor": {"dtype": "DT_FLOAT", "tensorShape": {"dim": [{"size": "384"}]}}}, "dtype": {"type": "DT_FLOAT"}}}, {"name": "StatefulPartitionedCall/ssd_mobile_net_v2fpn_keras_feature_extractor/model/block_9_depthwise/depthwise_weights", "op": "Const", "attr": {"dtype": {"type": "DT_FLOAT"}, "value": {"tensor": {"dtype": "DT_FLOAT", "tensorShape": {"dim": [{"size": "3"}, {"size": "3"}, {"size": "384"}, {"size": "1"}]}}}}}, {"name": "StatefulPartitionedCall/ssd_mobile_net_v2fpn_keras_feature_extractor/model/block_9_depthwise/depthwise_bn_offset", "op": "Const", "attr": {"value": {"tensor": {"dtype": "DT_FLOAT", "tensorShape": {"dim": [{"size": "384"}]}}}, "dtype": {"type": "DT_FLOAT"}}}, {"name": "StatefulPartitionedCall/ssd_mobile_net_v2fpn_keras_feature_extractor/model/block_9_project/Conv2D_weights", "op": "Const", "attr": {"value": {"tensor": {"dtype": "DT_FLOAT", "tensorShape": {"dim": [{"size": "1"}, {"size": "1"}, {"size": "384"}, {"size": "64"}]}}}, "dtype": {"type": "DT_FLOAT"}}}, {"name": "StatefulPartitionedCall/ssd_mobile_net_v2fpn_keras_feature_extractor/model/block_9_project/Conv2D_bn_offset", "op": "Const", "attr": {"value": {"tensor": {"dtype": "DT_FLOAT", "tensorShape": {"dim": [{"size": "64"}]}}}, "dtype": {"type": "DT_FLOAT"}}}, {"name": "StatefulPartitionedCall/ssd_mobile_net_v2fpn_keras_feature_extractor/model/block_10_expand/Conv2D_weights", "op": "Const", "attr": {"value": {"tensor": {"dtype": "DT_FLOAT", "tensorShape": {"dim": [{"size": "1"}, {"size": "1"}, {"size": "64"}, {"size": "384"}]}}}, "dtype": {"type": "DT_FLOAT"}}}, {"name": "StatefulPartitionedCall/ssd_mobile_net_v2fpn_keras_feature_extractor/model/block_10_expand/Conv2D_bn_offset", "op": "Const", "attr": {"dtype": {"type": "DT_FLOAT"}, "value": {"tensor": {"dtype": "DT_FLOAT", "tensorShape": {"dim": [{"size": "384"}]}}}}}, {"name": "StatefulPartitionedCall/ssd_mobile_net_v2fpn_keras_feature_extractor/model/block_10_depthwise/depthwise_weights", "op": "Const", "attr": {"value": {"tensor": {"dtype": "DT_FLOAT", "tensorShape": {"dim": [{"size": "3"}, {"size": "3"}, {"size": "384"}, {"size": "1"}]}}}, "dtype": {"type": "DT_FLOAT"}}}, {"name": "StatefulPartitionedCall/ssd_mobile_net_v2fpn_keras_feature_extractor/model/block_10_depthwise/depthwise_bn_offset", "op": "Const", "attr": {"value": {"tensor": {"dtype": "DT_FLOAT", "tensorShape": {"dim": [{"size": "384"}]}}}, "dtype": {"type": "DT_FLOAT"}}}, {"name": "StatefulPartitionedCall/ssd_mobile_net_v2fpn_keras_feature_extractor/model/block_10_project/Conv2D_weights", "op": "Const", "attr": {"dtype": {"type": "DT_FLOAT"}, "value": {"tensor": {"dtype": "DT_FLOAT", "tensorShape": {"dim": [{"size": "1"}, {"size": "1"}, {"size": "384"}, {"size": "96"}]}}}}}, {"name": "StatefulPartitionedCall/ssd_mobile_net_v2fpn_keras_feature_extractor/model/block_10_project/Conv2D_bn_offset", "op": "Const", "attr": {"value": {"tensor": {"dtype": "DT_FLOAT", "tensorShape": {"dim": [{"size": "96"}]}}}, "dtype": {"type": "DT_FLOAT"}}}, {"name": "StatefulPartitionedCall/ssd_mobile_net_v2fpn_keras_feature_extractor/model/block_11_expand/Conv2D_weights", "op": "Const", "attr": {"value": {"tensor": {"dtype": "DT_FLOAT", "tensorShape": {"dim": [{"size": "1"}, {"size": "1"}, {"size": "96"}, {"size": "576"}]}}}, "dtype": {"type": "DT_FLOAT"}}}, {"name": "StatefulPartitionedCall/ssd_mobile_net_v2fpn_keras_feature_extractor/model/block_11_expand/Conv2D_bn_offset", "op": "Const", "attr": {"value": {"tensor": {"dtype": "DT_FLOAT", "tensorShape": {"dim": [{"size": "576"}]}}}, "dtype": {"type": "DT_FLOAT"}}}, {"name": "StatefulPartitionedCall/ssd_mobile_net_v2fpn_keras_feature_extractor/model/block_11_depthwise/depthwise_weights", "op": "Const", "attr": {"value": {"tensor": {"dtype": "DT_FLOAT", "tensorShape": {"dim": [{"size": "3"}, {"size": "3"}, {"size": "576"}, {"size": "1"}]}}}, "dtype": {"type": "DT_FLOAT"}}}, {"name": "StatefulPartitionedCall/ssd_mobile_net_v2fpn_keras_feature_extractor/model/block_11_depthwise/depthwise_bn_offset", "op": "Const", "attr": {"value": {"tensor": {"dtype": "DT_FLOAT", "tensorShape": {"dim": [{"size": "576"}]}}}, "dtype": {"type": "DT_FLOAT"}}}, {"name": "StatefulPartitionedCall/ssd_mobile_net_v2fpn_keras_feature_extractor/model/block_11_project/Conv2D_weights", "op": "Const", "attr": {"value": {"tensor": {"dtype": "DT_FLOAT", "tensorShape": {"dim": [{"size": "1"}, {"size": "1"}, {"size": "576"}, {"size": "96"}]}}}, "dtype": {"type": "DT_FLOAT"}}}, {"name": "StatefulPartitionedCall/ssd_mobile_net_v2fpn_keras_feature_extractor/model/block_11_project/Conv2D_bn_offset", "op": "Const", "attr": {"dtype": {"type": "DT_FLOAT"}, "value": {"tensor": {"dtype": "DT_FLOAT", "tensorShape": {"dim": [{"size": "96"}]}}}}}, {"name": "StatefulPartitionedCall/ssd_mobile_net_v2fpn_keras_feature_extractor/model/block_12_expand/Conv2D_weights", "op": "Const", "attr": {"value": {"tensor": {"dtype": "DT_FLOAT", "tensorShape": {"dim": [{"size": "1"}, {"size": "1"}, {"size": "96"}, {"size": "576"}]}}}, "dtype": {"type": "DT_FLOAT"}}}, {"name": "StatefulPartitionedCall/ssd_mobile_net_v2fpn_keras_feature_extractor/model/block_12_expand/Conv2D_bn_offset", "op": "Const", "attr": {"value": {"tensor": {"dtype": "DT_FLOAT", "tensorShape": {"dim": [{"size": "576"}]}}}, "dtype": {"type": "DT_FLOAT"}}}, {"name": "StatefulPartitionedCall/ssd_mobile_net_v2fpn_keras_feature_extractor/model/block_12_depthwise/depthwise_weights", "op": "Const", "attr": {"value": {"tensor": {"dtype": "DT_FLOAT", "tensorShape": {"dim": [{"size": "3"}, {"size": "3"}, {"size": "576"}, {"size": "1"}]}}}, "dtype": {"type": "DT_FLOAT"}}}, {"name": "StatefulPartitionedCall/ssd_mobile_net_v2fpn_keras_feature_extractor/model/block_12_depthwise/depthwise_bn_offset", "op": "Const", "attr": {"value": {"tensor": {"dtype": "DT_FLOAT", "tensorShape": {"dim": [{"size": "576"}]}}}, "dtype": {"type": "DT_FLOAT"}}}, {"name": "StatefulPartitionedCall/ssd_mobile_net_v2fpn_keras_feature_extractor/model/block_12_project/Conv2D_weights", "op": "Const", "attr": {"value": {"tensor": {"dtype": "DT_FLOAT", "tensorShape": {"dim": [{"size": "1"}, {"size": "1"}, {"size": "576"}, {"size": "96"}]}}}, "dtype": {"type": "DT_FLOAT"}}}, {"name": "StatefulPartitionedCall/ssd_mobile_net_v2fpn_keras_feature_extractor/model/block_12_project/Conv2D_bn_offset", "op": "Const", "attr": {"value": {"tensor": {"dtype": "DT_FLOAT", "tensorShape": {"dim": [{"size": "96"}]}}}, "dtype": {"type": "DT_FLOAT"}}}, {"name": "StatefulPartitionedCall/ssd_mobile_net_v2fpn_keras_feature_extractor/model/block_13_expand/Conv2D_weights", "op": "Const", "attr": {"dtype": {"type": "DT_FLOAT"}, "value": {"tensor": {"dtype": "DT_FLOAT", "tensorShape": {"dim": [{"size": "1"}, {"size": "1"}, {"size": "96"}, {"size": "576"}]}}}}}, {"name": "StatefulPartitionedCall/ssd_mobile_net_v2fpn_keras_feature_extractor/model/block_13_expand/Conv2D_bn_offset", "op": "Const", "attr": {"value": {"tensor": {"dtype": "DT_FLOAT", "tensorShape": {"dim": [{"size": "576"}]}}}, "dtype": {"type": "DT_FLOAT"}}}, {"name": "StatefulPartitionedCall/ssd_mobile_net_v2fpn_keras_feature_extractor/model/block_13_depthwise/depthwise_weights", "op": "Const", "attr": {"value": {"tensor": {"dtype": "DT_FLOAT", "tensorShape": {"dim": [{"size": "3"}, {"size": "3"}, {"size": "576"}, {"size": "1"}]}}}, "dtype": {"type": "DT_FLOAT"}}}, {"name": "StatefulPartitionedCall/ssd_mobile_net_v2fpn_keras_feature_extractor/model/block_13_depthwise/depthwise_bn_offset", "op": "Const", "attr": {"value": {"tensor": {"dtype": "DT_FLOAT", "tensorShape": {"dim": [{"size": "576"}]}}}, "dtype": {"type": "DT_FLOAT"}}}, {"name": "StatefulPartitionedCall/ssd_mobile_net_v2fpn_keras_feature_extractor/model/block_13_project/Conv2D_weights", "op": "Const", "attr": {"value": {"tensor": {"dtype": "DT_FLOAT", "tensorShape": {"dim": [{"size": "1"}, {"size": "1"}, {"size": "576"}, {"size": "160"}]}}}, "dtype": {"type": "DT_FLOAT"}}}, {"name": "StatefulPartitionedCall/ssd_mobile_net_v2fpn_keras_feature_extractor/model/block_13_project/Conv2D_bn_offset", "op": "Const", "attr": {"dtype": {"type": "DT_FLOAT"}, "value": {"tensor": {"dtype": "DT_FLOAT", "tensorShape": {"dim": [{"size": "160"}]}}}}}, {"name": "StatefulPartitionedCall/ssd_mobile_net_v2fpn_keras_feature_extractor/model/block_14_expand/Conv2D_weights", "op": "Const", "attr": {"value": {"tensor": {"dtype": "DT_FLOAT", "tensorShape": {"dim": [{"size": "1"}, {"size": "1"}, {"size": "160"}, {"size": "960"}]}}}, "dtype": {"type": "DT_FLOAT"}}}, {"name": "StatefulPartitionedCall/ssd_mobile_net_v2fpn_keras_feature_extractor/model/block_14_expand/Conv2D_bn_offset", "op": "Const", "attr": {"value": {"tensor": {"dtype": "DT_FLOAT", "tensorShape": {"dim": [{"size": "960"}]}}}, "dtype": {"type": "DT_FLOAT"}}}, {"name": "StatefulPartitionedCall/ssd_mobile_net_v2fpn_keras_feature_extractor/model/block_14_depthwise/depthwise_weights", "op": "Const", "attr": {"value": {"tensor": {"dtype": "DT_FLOAT", "tensorShape": {"dim": [{"size": "3"}, {"size": "3"}, {"size": "960"}, {"size": "1"}]}}}, "dtype": {"type": "DT_FLOAT"}}}, {"name": "StatefulPartitionedCall/ssd_mobile_net_v2fpn_keras_feature_extractor/model/block_14_depthwise/depthwise_bn_offset", "op": "Const", "attr": {"value": {"tensor": {"dtype": "DT_FLOAT", "tensorShape": {"dim": [{"size": "960"}]}}}, "dtype": {"type": "DT_FLOAT"}}}, {"name": "StatefulPartitionedCall/ssd_mobile_net_v2fpn_keras_feature_extractor/model/block_14_project/Conv2D_weights", "op": "Const", "attr": {"value": {"tensor": {"dtype": "DT_FLOAT", "tensorShape": {"dim": [{"size": "1"}, {"size": "1"}, {"size": "960"}, {"size": "160"}]}}}, "dtype": {"type": "DT_FLOAT"}}}, {"name": "StatefulPartitionedCall/ssd_mobile_net_v2fpn_keras_feature_extractor/model/block_14_project/Conv2D_bn_offset", "op": "Const", "attr": {"value": {"tensor": {"dtype": "DT_FLOAT", "tensorShape": {"dim": [{"size": "160"}]}}}, "dtype": {"type": "DT_FLOAT"}}}, {"name": "StatefulPartitionedCall/ssd_mobile_net_v2fpn_keras_feature_extractor/model/block_15_expand/Conv2D_weights", "op": "Const", "attr": {"value": {"tensor": {"dtype": "DT_FLOAT", "tensorShape": {"dim": [{"size": "1"}, {"size": "1"}, {"size": "160"}, {"size": "960"}]}}}, "dtype": {"type": "DT_FLOAT"}}}, {"name": "StatefulPartitionedCall/ssd_mobile_net_v2fpn_keras_feature_extractor/model/block_15_expand/Conv2D_bn_offset", "op": "Const", "attr": {"dtype": {"type": "DT_FLOAT"}, "value": {"tensor": {"dtype": "DT_FLOAT", "tensorShape": {"dim": [{"size": "960"}]}}}}}, {"name": "StatefulPartitionedCall/ssd_mobile_net_v2fpn_keras_feature_extractor/model/block_15_depthwise/depthwise_weights", "op": "Const", "attr": {"value": {"tensor": {"dtype": "DT_FLOAT", "tensorShape": {"dim": [{"size": "3"}, {"size": "3"}, {"size": "960"}, {"size": "1"}]}}}, "dtype": {"type": "DT_FLOAT"}}}, {"name": "StatefulPartitionedCall/ssd_mobile_net_v2fpn_keras_feature_extractor/model/block_15_depthwise/depthwise_bn_offset", "op": "Const", "attr": {"value": {"tensor": {"dtype": "DT_FLOAT", "tensorShape": {"dim": [{"size": "960"}]}}}, "dtype": {"type": "DT_FLOAT"}}}, {"name": "StatefulPartitionedCall/ssd_mobile_net_v2fpn_keras_feature_extractor/model/block_15_project/Conv2D_weights", "op": "Const", "attr": {"value": {"tensor": {"dtype": "DT_FLOAT", "tensorShape": {"dim": [{"size": "1"}, {"size": "1"}, {"size": "960"}, {"size": "160"}]}}}, "dtype": {"type": "DT_FLOAT"}}}, {"name": "StatefulPartitionedCall/ssd_mobile_net_v2fpn_keras_feature_extractor/model/block_15_project/Conv2D_bn_offset", "op": "Const", "attr": {"dtype": {"type": "DT_FLOAT"}, "value": {"tensor": {"dtype": "DT_FLOAT", "tensorShape": {"dim": [{"size": "160"}]}}}}}, {"name": "StatefulPartitionedCall/ssd_mobile_net_v2fpn_keras_feature_extractor/model/block_16_expand/Conv2D_weights", "op": "Const", "attr": {"value": {"tensor": {"dtype": "DT_FLOAT", "tensorShape": {"dim": [{"size": "1"}, {"size": "1"}, {"size": "160"}, {"size": "960"}]}}}, "dtype": {"type": "DT_FLOAT"}}}, {"name": "StatefulPartitionedCall/ssd_mobile_net_v2fpn_keras_feature_extractor/model/block_16_expand/Conv2D_bn_offset", "op": "Const", "attr": {"value": {"tensor": {"dtype": "DT_FLOAT", "tensorShape": {"dim": [{"size": "960"}]}}}, "dtype": {"type": "DT_FLOAT"}}}, {"name": "StatefulPartitionedCall/ssd_mobile_net_v2fpn_keras_feature_extractor/model/block_16_depthwise/depthwise_weights", "op": "Const", "attr": {"value": {"tensor": {"dtype": "DT_FLOAT", "tensorShape": {"dim": [{"size": "3"}, {"size": "3"}, {"size": "960"}, {"size": "1"}]}}}, "dtype": {"type": "DT_FLOAT"}}}, {"name": "StatefulPartitionedCall/ssd_mobile_net_v2fpn_keras_feature_extractor/model/block_16_depthwise/depthwise_bn_offset", "op": "Const", "attr": {"value": {"tensor": {"dtype": "DT_FLOAT", "tensorShape": {"dim": [{"size": "960"}]}}}, "dtype": {"type": "DT_FLOAT"}}}, {"name": "StatefulPartitionedCall/ssd_mobile_net_v2fpn_keras_feature_extractor/model/block_16_project/Conv2D_weights", "op": "Const", "attr": {"dtype": {"type": "DT_FLOAT"}, "value": {"tensor": {"dtype": "DT_FLOAT", "tensorShape": {"dim": [{"size": "1"}, {"size": "1"}, {"size": "960"}, {"size": "320"}]}}}}}, {"name": "StatefulPartitionedCall/ssd_mobile_net_v2fpn_keras_feature_extractor/model/block_16_project/Conv2D_bn_offset", "op": "Const", "attr": {"value": {"tensor": {"dtype": "DT_FLOAT", "tensorShape": {"dim": [{"size": "320"}]}}}, "dtype": {"type": "DT_FLOAT"}}}, {"name": "StatefulPartitionedCall/ssd_mobile_net_v2fpn_keras_feature_extractor/model/Conv_1/Conv2D_weights", "op": "Const", "attr": {"value": {"tensor": {"dtype": "DT_FLOAT", "tensorShape": {"dim": [{"size": "1"}, {"size": "1"}, {"size": "320"}, {"size": "1280"}]}}}, "dtype": {"type": "DT_FLOAT"}}}, {"name": "StatefulPartitionedCall/ssd_mobile_net_v2fpn_keras_feature_extractor/model/Conv_1/Conv2D_bn_offset", "op": "Const", "attr": {"value": {"tensor": {"dtype": "DT_FLOAT", "tensorShape": {"dim": [{"size": "1280"}]}}}, "dtype": {"type": "DT_FLOAT"}}}, {"name": "StatefulPartitionedCall/WeightSharedConvolutionalBoxPredictor/PredictionTower/conv2d_0/separable_conv2d_2_weights", "op": "Const", "attr": {"value": {"tensor": {"dtype": "DT_FLOAT", "tensorShape": {"dim": [{"size": "1"}, {"size": "1"}, {"size": "128"}, {"size": "128"}]}}}, "dtype": {"type": "DT_FLOAT"}}}, {"name": "StatefulPartitionedCall/WeightSharedConvolutionalBoxPredictor/PredictionTower/conv2d_0/separable_conv2d_2_bn_offset", "op": "Const", "attr": {"value": {"tensor": {"dtype": "DT_FLOAT", "tensorShape": {"dim": [{"size": "128"}]}}}, "dtype": {"type": "DT_FLOAT"}}}, {"name": "StatefulPartitionedCall/ssd_mobile_net_v2fpn_keras_feature_extractor/bottom_up_Conv2d_20_depthwise_conv/separable_conv2d_weights", "op": "Const", "attr": {"value": {"tensor": {"dtype": "DT_FLOAT", "tensorShape": {"dim": [{"size": "1"}, {"size": "1"}, {"size": "128"}, {"size": "128"}]}}}, "dtype": {"type": "DT_FLOAT"}}}, {"name": "StatefulPartitionedCall/ssd_mobile_net_v2fpn_keras_feature_extractor/bottom_up_Conv2d_20_depthwise_conv/separable_conv2d_bn_offset", "op": "Const", "attr": {"value": {"tensor": {"dtype": "DT_FLOAT", "tensorShape": {"dim": [{"size": "128"}]}}}, "dtype": {"type": "DT_FLOAT"}}}, {"name": "StatefulPartitionedCall/WeightSharedConvolutionalBoxPredictor/PredictionTower/conv2d_1/separable_conv2d_2_weights", "op": "Const", "attr": {"value": {"tensor": {"dtype": "DT_FLOAT", "tensorShape": {"dim": [{"size": "1"}, {"size": "1"}, {"size": "128"}, {"size": "128"}]}}}, "dtype": {"type": "DT_FLOAT"}}}, {"name": "StatefulPartitionedCall/WeightSharedConvolutionalBoxPredictor/PredictionTower/conv2d_1/separable_conv2d_2_bn_offset", "op": "Const", "attr": {"dtype": {"type": "DT_FLOAT"}, "value": {"tensor": {"dtype": "DT_FLOAT", "tensorShape": {"dim": [{"size": "128"}]}}}}}, {"name": "StatefulPartitionedCall/WeightSharedConvolutionalBoxPredictor/PredictionTower/conv2d_0/separable_conv2d_3_weights", "op": "Const", "attr": {"value": {"tensor": {"dtype": "DT_FLOAT", "tensorShape": {"dim": [{"size": "1"}, {"size": "1"}, {"size": "128"}, {"size": "128"}]}}}, "dtype": {"type": "DT_FLOAT"}}}, {"name": "StatefulPartitionedCall/WeightSharedConvolutionalBoxPredictor/PredictionTower/conv2d_0/separable_conv2d_3_bn_offset", "op": "Const", "attr": {"value": {"tensor": {"dtype": "DT_FLOAT", "tensorShape": {"dim": [{"size": "128"}]}}}, "dtype": {"type": "DT_FLOAT"}}}, {"name": "StatefulPartitionedCall/ssd_mobile_net_v2fpn_keras_feature_extractor/bottom_up_Conv2d_21_depthwise_conv/separable_conv2d_weights", "op": "Const", "attr": {"dtype": {"type": "DT_FLOAT"}, "value": {"tensor": {"dtype": "DT_FLOAT", "tensorShape": {"dim": [{"size": "1"}, {"size": "1"}, {"size": "128"}, {"size": "128"}]}}}}}, {"name": "StatefulPartitionedCall/ssd_mobile_net_v2fpn_keras_feature_extractor/bottom_up_Conv2d_21_depthwise_conv/separable_conv2d_bn_offset", "op": "Const", "attr": {"dtype": {"type": "DT_FLOAT"}, "value": {"tensor": {"dtype": "DT_FLOAT", "tensorShape": {"dim": [{"size": "128"}]}}}}}, {"name": "StatefulPartitionedCall/ssd_mobile_net_v2fpn_keras_feature_extractor/FeatureMaps/top_down/smoothing_2_depthwise_conv/separable_conv2d_weights", "op": "Const", "attr": {"value": {"tensor": {"dtype": "DT_FLOAT", "tensorShape": {"dim": [{"size": "1"}, {"size": "1"}, {"size": "128"}, {"size": "128"}]}}}, "dtype": {"type": "DT_FLOAT"}}}, {"name": "StatefulPartitionedCall/ssd_mobile_net_v2fpn_keras_feature_extractor/FeatureMaps/top_down/smoothing_2_depthwise_conv/separable_conv2d_bn_offset", "op": "Const", "attr": {"dtype": {"type": "DT_FLOAT"}, "value": {"tensor": {"dtype": "DT_FLOAT", "tensorShape": {"dim": [{"size": "128"}]}}}}}, {"name": "StatefulPartitionedCall/WeightSharedConvolutionalBoxPredictor/PredictionTower/conv2d_2/separable_conv2d_2_weights", "op": "Const", "attr": {"value": {"tensor": {"dtype": "DT_FLOAT", "tensorShape": {"dim": [{"size": "1"}, {"size": "1"}, {"size": "128"}, {"size": "128"}]}}}, "dtype": {"type": "DT_FLOAT"}}}, {"name": "StatefulPartitionedCall/WeightSharedConvolutionalBoxPredictor/PredictionTower/conv2d_2/separable_conv2d_2_bn_offset", "op": "Const", "attr": {"value": {"tensor": {"dtype": "DT_FLOAT", "tensorShape": {"dim": [{"size": "128"}]}}}, "dtype": {"type": "DT_FLOAT"}}}, {"name": "StatefulPartitionedCall/WeightSharedConvolutionalBoxPredictor/PredictionTower/conv2d_1/separable_conv2d_3_weights", "op": "Const", "attr": {"value": {"tensor": {"dtype": "DT_FLOAT", "tensorShape": {"dim": [{"size": "1"}, {"size": "1"}, {"size": "128"}, {"size": "128"}]}}}, "dtype": {"type": "DT_FLOAT"}}}, {"name": "StatefulPartitionedCall/WeightSharedConvolutionalBoxPredictor/PredictionTower/conv2d_1/separable_conv2d_3_bn_offset", "op": "Const", "attr": {"dtype": {"type": "DT_FLOAT"}, "value": {"tensor": {"dtype": "DT_FLOAT", "tensorShape": {"dim": [{"size": "128"}]}}}}}, {"name": "StatefulPartitionedCall/WeightSharedConvolutionalBoxPredictor/PredictionTower/conv2d_0/separable_conv2d_4_weights", "op": "Const", "attr": {"value": {"tensor": {"dtype": "DT_FLOAT", "tensorShape": {"dim": [{"size": "1"}, {"size": "1"}, {"size": "128"}, {"size": "128"}]}}}, "dtype": {"type": "DT_FLOAT"}}}, {"name": "StatefulPartitionedCall/WeightSharedConvolutionalBoxPredictor/PredictionTower/conv2d_0/separable_conv2d_4_bn_offset", "op": "Const", "attr": {"value": {"tensor": {"dtype": "DT_FLOAT", "tensorShape": {"dim": [{"size": "128"}]}}}, "dtype": {"type": "DT_FLOAT"}}}, {"name": "StatefulPartitionedCall/WeightSharedConvolutionalBoxPredictor/PredictionTower/conv2d_0/separable_conv2d_1_weights", "op": "Const", "attr": {"value": {"tensor": {"dtype": "DT_FLOAT", "tensorShape": {"dim": [{"size": "1"}, {"size": "1"}, {"size": "128"}, {"size": "128"}]}}}, "dtype": {"type": "DT_FLOAT"}}}, {"name": "StatefulPartitionedCall/WeightSharedConvolutionalBoxPredictor/PredictionTower/conv2d_0/separable_conv2d_1_bn_offset", "op": "Const", "attr": {"value": {"tensor": {"dtype": "DT_FLOAT", "tensorShape": {"dim": [{"size": "128"}]}}}, "dtype": {"type": "DT_FLOAT"}}}, {"name": "StatefulPartitionedCall/WeightSharedConvolutionalBoxPredictor/PredictionTower/conv2d_3/separable_conv2d_2_weights", "op": "Const", "attr": {"value": {"tensor": {"dtype": "DT_FLOAT", "tensorShape": {"dim": [{"size": "1"}, {"size": "1"}, {"size": "128"}, {"size": "128"}]}}}, "dtype": {"type": "DT_FLOAT"}}}, {"name": "StatefulPartitionedCall/WeightSharedConvolutionalBoxPredictor/PredictionTower/conv2d_3/separable_conv2d_2_bn_offset", "op": "Const", "attr": {"dtype": {"type": "DT_FLOAT"}, "value": {"tensor": {"dtype": "DT_FLOAT", "tensorShape": {"dim": [{"size": "128"}]}}}}}, {"name": "StatefulPartitionedCall/WeightSharedConvolutionalBoxPredictor/PredictionTower/conv2d_2/separable_conv2d_3_weights", "op": "Const", "attr": {"value": {"tensor": {"dtype": "DT_FLOAT", "tensorShape": {"dim": [{"size": "1"}, {"size": "1"}, {"size": "128"}, {"size": "128"}]}}}, "dtype": {"type": "DT_FLOAT"}}}, {"name": "StatefulPartitionedCall/WeightSharedConvolutionalBoxPredictor/PredictionTower/conv2d_2/separable_conv2d_3_bn_offset", "op": "Const", "attr": {"value": {"tensor": {"dtype": "DT_FLOAT", "tensorShape": {"dim": [{"size": "128"}]}}}, "dtype": {"type": "DT_FLOAT"}}}, {"name": "StatefulPartitionedCall/WeightSharedConvolutionalBoxPredictor/PredictionTower/conv2d_1/separable_conv2d_4_weights", "op": "Const", "attr": {"value": {"tensor": {"dtype": "DT_FLOAT", "tensorShape": {"dim": [{"size": "1"}, {"size": "1"}, {"size": "128"}, {"size": "128"}]}}}, "dtype": {"type": "DT_FLOAT"}}}, {"name": "StatefulPartitionedCall/WeightSharedConvolutionalBoxPredictor/PredictionTower/conv2d_1/separable_conv2d_4_bn_offset", "op": "Const", "attr": {"value": {"tensor": {"dtype": "DT_FLOAT", "tensorShape": {"dim": [{"size": "128"}]}}}, "dtype": {"type": "DT_FLOAT"}}}, {"name": "StatefulPartitionedCall/WeightSharedConvolutionalBoxPredictor/PredictionTower/conv2d_1/separable_conv2d_1_weights", "op": "Const", "attr": {"value": {"tensor": {"dtype": "DT_FLOAT", "tensorShape": {"dim": [{"size": "1"}, {"size": "1"}, {"size": "128"}, {"size": "128"}]}}}, "dtype": {"type": "DT_FLOAT"}}}, {"name": "StatefulPartitionedCall/WeightSharedConvolutionalBoxPredictor/PredictionTower/conv2d_1/separable_conv2d_1_bn_offset", "op": "Const", "attr": {"value": {"tensor": {"dtype": "DT_FLOAT", "tensorShape": {"dim": [{"size": "128"}]}}}, "dtype": {"type": "DT_FLOAT"}}}, {"name": "StatefulPartitionedCall/ssd_mobile_net_v2fpn_keras_feature_extractor/FeatureMaps/top_down/smoothing_1_depthwise_conv/separable_conv2d_weights", "op": "Const", "attr": {"value": {"tensor": {"dtype": "DT_FLOAT", "tensorShape": {"dim": [{"size": "1"}, {"size": "1"}, {"size": "128"}, {"size": "128"}]}}}, "dtype": {"type": "DT_FLOAT"}}}, {"name": "StatefulPartitionedCall/ssd_mobile_net_v2fpn_keras_feature_extractor/FeatureMaps/top_down/smoothing_1_depthwise_conv/separable_conv2d_bn_offset", "op": "Const", "attr": {"value": {"tensor": {"dtype": "DT_FLOAT", "tensorShape": {"dim": [{"size": "128"}]}}}, "dtype": {"type": "DT_FLOAT"}}}, {"name": "StatefulPartitionedCall/WeightSharedConvolutionalBoxPredictor/PredictionTower/conv2d_3/separable_conv2d_3_weights", "op": "Const", "attr": {"value": {"tensor": {"dtype": "DT_FLOAT", "tensorShape": {"dim": [{"size": "1"}, {"size": "1"}, {"size": "128"}, {"size": "128"}]}}}, "dtype": {"type": "DT_FLOAT"}}}, {"name": "StatefulPartitionedCall/WeightSharedConvolutionalBoxPredictor/PredictionTower/conv2d_3/separable_conv2d_3_bn_offset", "op": "Const", "attr": {"dtype": {"type": "DT_FLOAT"}, "value": {"tensor": {"dtype": "DT_FLOAT", "tensorShape": {"dim": [{"size": "128"}]}}}}}, {"name": "StatefulPartitionedCall/WeightSharedConvolutionalBoxPredictor/PredictionTower/conv2d_2/separable_conv2d_4_weights", "op": "Const", "attr": {"value": {"tensor": {"dtype": "DT_FLOAT", "tensorShape": {"dim": [{"size": "1"}, {"size": "1"}, {"size": "128"}, {"size": "128"}]}}}, "dtype": {"type": "DT_FLOAT"}}}, {"name": "StatefulPartitionedCall/WeightSharedConvolutionalBoxPredictor/PredictionTower/conv2d_2/separable_conv2d_4_bn_offset", "op": "Const", "attr": {"dtype": {"type": "DT_FLOAT"}, "value": {"tensor": {"dtype": "DT_FLOAT", "tensorShape": {"dim": [{"size": "128"}]}}}}}, {"name": "StatefulPartitionedCall/WeightSharedConvolutionalBoxPredictor/PredictionTower/conv2d_2/separable_conv2d_1_weights", "op": "Const", "attr": {"dtype": {"type": "DT_FLOAT"}, "value": {"tensor": {"dtype": "DT_FLOAT", "tensorShape": {"dim": [{"size": "1"}, {"size": "1"}, {"size": "128"}, {"size": "128"}]}}}}}, {"name": "StatefulPartitionedCall/WeightSharedConvolutionalBoxPredictor/PredictionTower/conv2d_2/separable_conv2d_1_bn_offset", "op": "Const", "attr": {"value": {"tensor": {"dtype": "DT_FLOAT", "tensorShape": {"dim": [{"size": "128"}]}}}, "dtype": {"type": "DT_FLOAT"}}}, {"name": "StatefulPartitionedCall/WeightSharedConvolutionalBoxPredictor/PredictionTower/conv2d_0/separable_conv2d_weights", "op": "Const", "attr": {"value": {"tensor": {"dtype": "DT_FLOAT", "tensorShape": {"dim": [{"size": "1"}, {"size": "1"}, {"size": "128"}, {"size": "128"}]}}}, "dtype": {"type": "DT_FLOAT"}}}, {"name": "StatefulPartitionedCall/WeightSharedConvolutionalBoxPredictor/PredictionTower/conv2d_0/separable_conv2d_bn_offset", "op": "Const", "attr": {"value": {"tensor": {"dtype": "DT_FLOAT", "tensorShape": {"dim": [{"size": "128"}]}}}, "dtype": {"type": "DT_FLOAT"}}}, {"name": "StatefulPartitionedCall/WeightSharedConvolutionalBoxPredictor/PredictionTower/conv2d_3/separable_conv2d_4_weights", "op": "Const", "attr": {"value": {"tensor": {"dtype": "DT_FLOAT", "tensorShape": {"dim": [{"size": "1"}, {"size": "1"}, {"size": "128"}, {"size": "128"}]}}}, "dtype": {"type": "DT_FLOAT"}}}, {"name": "StatefulPartitionedCall/WeightSharedConvolutionalBoxPredictor/PredictionTower/conv2d_3/separable_conv2d_4_bn_offset", "op": "Const", "attr": {"value": {"tensor": {"dtype": "DT_FLOAT", "tensorShape": {"dim": [{"size": "128"}]}}}, "dtype": {"type": "DT_FLOAT"}}}, {"name": "StatefulPartitionedCall/WeightSharedConvolutionalBoxPredictor/PredictionTower/conv2d_3/separable_conv2d_1_weights", "op": "Const", "attr": {"value": {"tensor": {"dtype": "DT_FLOAT", "tensorShape": {"dim": [{"size": "1"}, {"size": "1"}, {"size": "128"}, {"size": "128"}]}}}, "dtype": {"type": "DT_FLOAT"}}}, {"name": "StatefulPartitionedCall/WeightSharedConvolutionalBoxPredictor/PredictionTower/conv2d_3/separable_conv2d_1_bn_offset", "op": "Const", "attr": {"value": {"tensor": {"dtype": "DT_FLOAT", "tensorShape": {"dim": [{"size": "128"}]}}}, "dtype": {"type": "DT_FLOAT"}}}, {"name": "StatefulPartitionedCall/WeightSharedConvolutionalBoxPredictor/PredictionTower/conv2d_1/separable_conv2d_weights", "op": "Const", "attr": {"value": {"tensor": {"dtype": "DT_FLOAT", "tensorShape": {"dim": [{"size": "1"}, {"size": "1"}, {"size": "128"}, {"size": "128"}]}}}, "dtype": {"type": "DT_FLOAT"}}}, {"name": "StatefulPartitionedCall/WeightSharedConvolutionalBoxPredictor/PredictionTower/conv2d_1/separable_conv2d_bn_offset", "op": "Const", "attr": {"value": {"tensor": {"dtype": "DT_FLOAT", "tensorShape": {"dim": [{"size": "128"}]}}}, "dtype": {"type": "DT_FLOAT"}}}, {"name": "StatefulPartitionedCall/WeightSharedConvolutionalBoxPredictor/PredictionTower/conv2d_2/separable_conv2d_weights", "op": "Const", "attr": {"value": {"tensor": {"dtype": "DT_FLOAT", "tensorShape": {"dim": [{"size": "1"}, {"size": "1"}, {"size": "128"}, {"size": "128"}]}}}, "dtype": {"type": "DT_FLOAT"}}}, {"name": "StatefulPartitionedCall/map/Shape", "op": "Shape", "input": ["input_tensor"], "attr": {"T": {"type": "DT_STRING"}, "out_type": {"type": "DT_INT32"}}}, {"name": "StatefulPartitionedCall/map/TensorArrayUnstack/TensorListFromTensor", "op": "TensorListFromTensor", "input": ["input_tensor", "StatefulPartitionedCall/map/TensorArrayUnstack/Const"], "attr": {"shape_type": {"type": "DT_INT32"}, "element_dtype": {"type": "DT_STRING"}}}, {"name": "StatefulPartitionedCall/map/strided_slice", "op": "StridedSlice", "input": ["StatefulPartitionedCall/map/Shape", "StatefulPartitionedCall/map/strided_slice/stack", "StatefulPartitionedCall/map/strided_slice/stack_1", "StatefulPartitionedCall/map/strided_slice/stack_2"], "attr": {"Index": {"type": "DT_INT32"}, "T": {"type": "DT_INT32"}, "shrink_axis_mask": {"i": "1"}, "ellipsis_mask": {"i": "0"}, "begin_mask": {"i": "0"}, "new_axis_mask": {"i": "0"}, "end_mask": {"i": "0"}}}, {"name": "StatefulPartitionedCall/map/TensorArrayV2_1", "op": "TensorListReserve", "input": ["StatefulPartitionedCall/map/TensorArrayV2_1/element_shape", "StatefulPartitionedCall/map/strided_slice"], "attr": {"shape_type": {"type": "DT_INT32"}, "element_dtype": {"type": "DT_FLOAT"}}}, {"name": "StatefulPartitionedCall/map/TensorArrayV2_2", "op": "TensorListReserve", "input": ["StatefulPartitionedCall/map/TensorArrayV2_2/element_shape", "StatefulPartitionedCall/map/strided_slice"], "attr": {"shape_type": {"type": "DT_INT32"}, "element_dtype": {"type": "DT_INT32"}}}, {"name": "StatefulPartitionedCall/map/while", "op": "StatelessWhile", "input": ["StatefulPartitionedCall/map/while/loop_counter", "StatefulPartitionedCall/map/strided_slice", "StatefulPartitionedCall/map/Const", "StatefulPartitionedCall/map/TensorArrayV2_1", "StatefulPartitionedCall/map/TensorArrayV2_2", "StatefulPartitionedCall/map/strided_slice", "StatefulPartitionedCall/map/TensorArrayUnstack/TensorListFromTensor"], "attr": {"T": {"list": {"type": ["DT_INT32", "DT_INT32", "DT_INT32", "DT_VARIANT", "DT_VARIANT", "DT_INT32", "DT_VARIANT"]}}, "output_shapes": {"list": {"shape": [{}, {}, {}, {}, {}, {}, {}]}}, "_lower_using_switch_merge": {"b": false}, "_read_only_resource_inputs": {"list": {}}, "parallel_iterations": {"i": "32"}, "cond": {"func": {"name": "__inference_map_while_cond_8591_9071"}}, "_num_original_outputs": {"i": "7"}, "body": {"func": {"name": "__inference_map_while_body_8592_25114"}}}}, {"name": "StatefulPartitionedCall/map/TensorArrayV2Stack/TensorListStack", "op": "TensorListStack", "input": ["StatefulPartitionedCall/map/while:3", "StatefulPartitionedCall/map/TensorArrayV2Stack/TensorListStack/element_shape"], "attr": {"num_elements": {"i": "-1"}, "element_dtype": {"type": "DT_FLOAT"}}}, {"name": "StatefulPartitionedCall/map/TensorArrayV2Stack_1/TensorListStack", "op": "TensorListStack", "input": ["StatefulPartitionedCall/map/while:4", "StatefulPartitionedCall/map/TensorArrayV2Stack_1/TensorListStack/element_shape"], "attr": {"element_dtype": {"type": "DT_INT32"}, "num_elements": {"i": "-1"}}}, {"name": "StatefulPartitionedCall/Postprocessor/Shape_1", "op": "Shape", "input": ["StatefulPartitionedCall/map/TensorArrayV2Stack/TensorListStack"], "attr": {"T": {"type": "DT_FLOAT"}, "out_type": {"type": "DT_INT32"}}}, {"name": "StatefulPartitionedCall/ssd_mobile_net_v2fpn_keras_feature_extractor/model/Conv1_relu/Relu6", "op": "_FusedConv2D", "input": ["StatefulPartitionedCall/map/TensorArrayV2Stack/TensorListStack", "StatefulPartitionedCall/ssd_mobile_net_v2fpn_keras_feature_extractor/model/Conv1/Conv2D_weights", "StatefulPartitionedCall/ssd_mobile_net_v2fpn_keras_feature_extractor/model/Conv1/Conv2D_bn_offset"], "device": "/device:CPU:0", "attr": {"dilations": {"list": {"i": ["1", "1", "1", "1"]}}, "T": {"type": "DT_FLOAT"}, "data_format": {"s": "TkhXQw=="}, "strides": {"list": {"i": ["1", "2", "2", "1"]}}, "explicit_paddings": {"list": {}}, "use_cudnn_on_gpu": {"b": true}, "num_args": {"i": "1"}, "epsilon": {"f": 0.0}, "padding": {"s": "U0FNRQ=="}, "fused_ops": {"list": {"s": ["Qmlhc0FkZA==", "UmVsdTY="]}}}}, {"name": "StatefulPartitionedCall/Postprocessor/Cast_1", "op": "Cast", "input": ["StatefulPartitionedCall/map/TensorArrayV2Stack_1/TensorListStack"], "attr": {"SrcT": {"type": "DT_INT32"}, "Truncate": {"b": false}, "DstT": {"type": "DT_FLOAT"}}}, {"name": "StatefulPartitionedCall/Postprocessor/strided_slice_2", "op": "StridedSlice", "input": ["StatefulPartitionedCall/Postprocessor/Shape_1", "StatefulPartitionedCall/Postprocessor/strided_slice_2/stack", "StatefulPartitionedCall/Postprocessor/strided_slice_2/stack_1", "StatefulPartitionedCall/Postprocessor/strided_slice_2/stack_2"], "attr": {"T": {"type": "DT_INT32"}, "Index": {"type": "DT_INT32"}, "shrink_axis_mask": {"i": "1"}, "ellipsis_mask": {"i": "0"}, "begin_mask": {"i": "0"}, "new_axis_mask": {"i": "0"}, "end_mask": {"i": "0"}}}, {"name": "StatefulPartitionedCall/ssd_mobile_net_v2fpn_keras_feature_extractor/model/expanded_conv_depthwise/depthwise", "op": "FusedDepthwiseConv2dNative", "input": ["StatefulPartitionedCall/ssd_mobile_net_v2fpn_keras_feature_extractor/model/Conv1_relu/Relu6", "StatefulPartitionedCall/ssd_mobile_net_v2fpn_keras_feature_extractor/model/expanded_conv_depthwise/depthwise_weights", "StatefulPartitionedCall/ssd_mobile_net_v2fpn_keras_feature_extractor/model/expanded_conv_depthwise/depthwise_bn_offset"], "attr": {"data_format": {"s": "TkhXQw=="}, "strides": {"list": {"i": ["1", "1", "1", "1"]}}, "explicit_paddings": {"list": {}}, "num_args": {"i": "1"}, "padding": {"s": "U0FNRQ=="}, "fused_ops": {"list": {"s": ["Qmlhc0FkZA==", "UmVsdTY="]}}, "dilations": {"list": {"i": ["1", "1", "1", "1"]}}, "T": {"type": "DT_FLOAT"}}}, {"name": "StatefulPartitionedCall/Postprocessor/unstack", "op": "Unpack", "input": ["StatefulPartitionedCall/Postprocessor/Cast_1"], "attr": {"num": {"i": "3"}, "T": {"type": "DT_FLOAT"}, "axis": {"i": "1"}}}, {"name": "StatefulPartitionedCall/Postprocessor/Tile_1/multiples", "op": "Pack", "input": ["StatefulPartitionedCall/Postprocessor/strided_slice_2", "StatefulPartitionedCall/Postprocessor/Tile_1/multiples/1"], "attr": {"T": {"type": "DT_INT32"}, "axis": {"i": "0"}, "N": {"i": "2"}}}, {"name": "StatefulPartitionedCall/Postprocessor/zeros_like", "op": "ZerosLike", "input": ["StatefulPartitionedCall/Postprocessor/unstack"], "attr": {"T": {"type": "DT_FLOAT"}}}, {"name": "StatefulPartitionedCall/Postprocessor/truediv", "op": "Mul", "input": ["StatefulPartitionedCall/Postprocessor/unstack", "ConstantFolding/StatefulPartitionedCall/Postprocessor/truediv_recip"], "attr": {"T": {"type": "DT_FLOAT"}}}, {"name": "StatefulPartitionedCall/Postprocessor/zeros_like_1", "op": "ZerosLike", "input": ["StatefulPartitionedCall/Postprocessor/unstack:1"], "attr": {"T": {"type": "DT_FLOAT"}}}, {"name": "StatefulPartitionedCall/Postprocessor/truediv_1", "op": "Mul", "input": ["StatefulPartitionedCall/Postprocessor/unstack:1", "ConstantFolding/StatefulPartitionedCall/Postprocessor/truediv_1_recip"], "attr": {"T": {"type": "DT_FLOAT"}}}, {"name": "StatefulPartitionedCall/Postprocessor/Tile_1", "op": "Tile", "input": ["StatefulPartitionedCall/Postprocessor/ExpandDims_2", "StatefulPartitionedCall/Postprocessor/Tile_1/multiples"], "attr": {"Tmultiples": {"type": "DT_INT32"}, "T": {"type": "DT_INT32"}}}, {"name": "StatefulPartitionedCall/Postprocessor/stack_1", "op": "Pack", "input": ["StatefulPartitionedCall/Postprocessor/zeros_like", "StatefulPartitionedCall/Postprocessor/zeros_like_1", "StatefulPartitionedCall/Postprocessor/truediv", "StatefulPartitionedCall/Postprocessor/truediv_1"], "attr": {"N": {"i": "4"}, "T": {"type": "DT_FLOAT"}, "axis": {"i": "1"}}}, {"name": "StatefulPartitionedCall/Postprocessor/Cast", "op": "Cast", "input": ["StatefulPartitionedCall/Postprocessor/Tile_1"], "attr": {"SrcT": {"type": "DT_INT32"}, "Truncate": {"b": false}, "DstT": {"type": "DT_FLOAT"}}}, {"name": "StatefulPartitionedCall/ssd_mobile_net_v2fpn_keras_feature_extractor/model/expanded_conv_project_BN/FusedBatchNormV3", "op": "_FusedConv2D", "input": ["StatefulPartitionedCall/ssd_mobile_net_v2fpn_keras_feature_extractor/model/expanded_conv_depthwise/depthwise", "StatefulPartitionedCall/ssd_mobile_net_v2fpn_keras_feature_extractor/model/expanded_conv_project/Conv2D_weights", "StatefulPartitionedCall/ssd_mobile_net_v2fpn_keras_feature_extractor/model/expanded_conv_project/Conv2D_bn_offset"], "device": "/device:CPU:0", "attr": {"dilations": {"list": {"i": ["1", "1", "1", "1"]}}, "T": {"type": "DT_FLOAT"}, "strides": {"list": {"i": ["1", "1", "1", "1"]}}, "data_format": {"s": "TkhXQw=="}, "use_cudnn_on_gpu": {"b": true}, "explicit_paddings": {"list": {}}, "num_args": {"i": "1"}, "epsilon": {"f": 0.0}, "padding": {"s": "U0FNRQ=="}, "fused_ops": {"list": {"s": ["Qmlhc0FkZA=="]}}}}, {"name": "StatefulPartitionedCall/Postprocessor/BatchMultiClassNonMaxSuppression/map/TensorArrayUnstack_3/TensorListFromTensor", "op": "TensorListFromTensor", "input": ["StatefulPartitionedCall/Postprocessor/stack_1", "StatefulPartitionedCall/Postprocessor/BatchMultiClassNonMaxSuppression/map/TensorArrayUnstack_3/TensorListFromTensor/element_shape"], "attr": {"shape_type": {"type": "DT_INT32"}, "element_dtype": {"type": "DT_FLOAT"}}}, {"name": "StatefulPartitionedCall/Postprocessor/BatchMultiClassNonMaxSuppression/map/TensorArrayUnstack_4/TensorListFromTensor", "op": "TensorListFromTensor", "input": ["StatefulPartitionedCall/Postprocessor/Cast", "StatefulPartitionedCall/Postprocessor/BatchMultiClassNonMaxSuppression/map/TensorArrayUnstack_4/TensorListFromTensor/element_shape"], "attr": {"shape_type": {"type": "DT_INT32"}, "element_dtype": {"type": "DT_FLOAT"}}}, {"name": "StatefulPartitionedCall/ssd_mobile_net_v2fpn_keras_feature_extractor/model/block_1_expand_relu/Relu6", "op": "_FusedConv2D", "input": ["StatefulPartitionedCall/ssd_mobile_net_v2fpn_keras_feature_extractor/model/expanded_conv_project_BN/FusedBatchNormV3", "StatefulPartitionedCall/ssd_mobile_net_v2fpn_keras_feature_extractor/model/block_1_expand/Conv2D_weights", "StatefulPartitionedCall/ssd_mobile_net_v2fpn_keras_feature_extractor/model/block_1_expand/Conv2D_bn_offset"], "device": "/device:CPU:0", "attr": {"dilations": {"list": {"i": ["1", "1", "1", "1"]}}, "T": {"type": "DT_FLOAT"}, "strides": {"list": {"i": ["1", "1", "1", "1"]}}, "data_format": {"s": "TkhXQw=="}, "explicit_paddings": {"list": {}}, "use_cudnn_on_gpu": {"b": true}, "num_args": {"i": "1"}, "epsilon": {"f": 0.0}, "padding": {"s": "U0FNRQ=="}, "fused_ops": {"list": {"s": ["Qmlhc0FkZA==", "UmVsdTY="]}}}}, {"name": "StatefulPartitionedCall/ssd_mobile_net_v2fpn_keras_feature_extractor/model/block_1_depthwise/depthwise", "op": "FusedDepthwiseConv2dNative", "input": ["StatefulPartitionedCall/ssd_mobile_net_v2fpn_keras_feature_extractor/model/block_1_expand_relu/Relu6", "StatefulPartitionedCall/ssd_mobile_net_v2fpn_keras_feature_extractor/model/block_1_depthwise/depthwise_weights", "StatefulPartitionedCall/ssd_mobile_net_v2fpn_keras_feature_extractor/model/block_1_depthwise/depthwise_bn_offset"], "attr": {"padding": {"s": "U0FNRQ=="}, "fused_ops": {"list": {"s": ["Qmlhc0FkZA==", "UmVsdTY="]}}, "dilations": {"list": {"i": ["1", "1", "1", "1"]}}, "T": {"type": "DT_FLOAT"}, "strides": {"list": {"i": ["1", "2", "2", "1"]}}, "data_format": {"s": "TkhXQw=="}, "explicit_paddings": {"list": {}}, "num_args": {"i": "1"}}}, {"name": "StatefulPartitionedCall/ssd_mobile_net_v2fpn_keras_feature_extractor/model/block_1_project_BN/FusedBatchNormV3", "op": "_FusedConv2D", "input": ["StatefulPartitionedCall/ssd_mobile_net_v2fpn_keras_feature_extractor/model/block_1_depthwise/depthwise", "StatefulPartitionedCall/ssd_mobile_net_v2fpn_keras_feature_extractor/model/block_1_project/Conv2D_weights", "StatefulPartitionedCall/ssd_mobile_net_v2fpn_keras_feature_extractor/model/block_1_project/Conv2D_bn_offset"], "device": "/device:CPU:0", "attr": {"data_format": {"s": "TkhXQw=="}, "strides": {"list": {"i": ["1", "1", "1", "1"]}}, "use_cudnn_on_gpu": {"b": true}, "explicit_paddings": {"list": {}}, "num_args": {"i": "1"}, "epsilon": {"f": 0.0}, "padding": {"s": "U0FNRQ=="}, "fused_ops": {"list": {"s": ["Qmlhc0FkZA=="]}}, "dilations": {"list": {"i": ["1", "1", "1", "1"]}}, "T": {"type": "DT_FLOAT"}}}, {"name": "StatefulPartitionedCall/ssd_mobile_net_v2fpn_keras_feature_extractor/model/block_2_expand_relu/Relu6", "op": "_FusedConv2D", "input": ["StatefulPartitionedCall/ssd_mobile_net_v2fpn_keras_feature_extractor/model/block_1_project_BN/FusedBatchNormV3", "StatefulPartitionedCall/ssd_mobile_net_v2fpn_keras_feature_extractor/model/block_2_expand/Conv2D_weights", "StatefulPartitionedCall/ssd_mobile_net_v2fpn_keras_feature_extractor/model/block_2_expand/Conv2D_bn_offset"], "device": "/device:CPU:0", "attr": {"dilations": {"list": {"i": ["1", "1", "1", "1"]}}, "T": {"type": "DT_FLOAT"}, "data_format": {"s": "TkhXQw=="}, "strides": {"list": {"i": ["1", "1", "1", "1"]}}, "explicit_paddings": {"list": {}}, "use_cudnn_on_gpu": {"b": true}, "num_args": {"i": "1"}, "epsilon": {"f": 0.0}, "padding": {"s": "U0FNRQ=="}, "fused_ops": {"list": {"s": ["Qmlhc0FkZA==", "UmVsdTY="]}}}}, {"name": "StatefulPartitionedCall/ssd_mobile_net_v2fpn_keras_feature_extractor/model/block_2_depthwise/depthwise", "op": "FusedDepthwiseConv2dNative", "input": ["StatefulPartitionedCall/ssd_mobile_net_v2fpn_keras_feature_extractor/model/block_2_expand_relu/Relu6", "StatefulPartitionedCall/ssd_mobile_net_v2fpn_keras_feature_extractor/model/block_2_depthwise/depthwise_weights", "StatefulPartitionedCall/ssd_mobile_net_v2fpn_keras_feature_extractor/model/block_2_depthwise/depthwise_bn_offset"], "attr": {"num_args": {"i": "1"}, "padding": {"s": "U0FNRQ=="}, "fused_ops": {"list": {"s": ["Qmlhc0FkZA==", "UmVsdTY="]}}, "dilations": {"list": {"i": ["1", "1", "1", "1"]}}, "T": {"type": "DT_FLOAT"}, "data_format": {"s": "TkhXQw=="}, "strides": {"list": {"i": ["1", "1", "1", "1"]}}, "explicit_paddings": {"list": {}}}}, {"name": "StatefulPartitionedCall/ssd_mobile_net_v2fpn_keras_feature_extractor/model/block_2_project_BN/FusedBatchNormV3", "op": "_FusedConv2D", "input": ["StatefulPartitionedCall/ssd_mobile_net_v2fpn_keras_feature_extractor/model/block_2_depthwise/depthwise", "StatefulPartitionedCall/ssd_mobile_net_v2fpn_keras_feature_extractor/model/block_2_project/Conv2D_weights", "StatefulPartitionedCall/ssd_mobile_net_v2fpn_keras_feature_extractor/model/block_2_project/Conv2D_bn_offset"], "device": "/device:CPU:0", "attr": {"fused_ops": {"list": {"s": ["Qmlhc0FkZA=="]}}, "dilations": {"list": {"i": ["1", "1", "1", "1"]}}, "T": {"type": "DT_FLOAT"}, "strides": {"list": {"i": ["1", "1", "1", "1"]}}, "data_format": {"s": "TkhXQw=="}, "use_cudnn_on_gpu": {"b": true}, "explicit_paddings": {"list": {}}, "num_args": {"i": "1"}, "epsilon": {"f": 0.0}, "padding": {"s": "U0FNRQ=="}}}, {"name": "StatefulPartitionedCall/ssd_mobile_net_v2fpn_keras_feature_extractor/model/block_2_add/add", "op": "AddV2", "input": ["StatefulPartitionedCall/ssd_mobile_net_v2fpn_keras_feature_extractor/model/block_1_project_BN/FusedBatchNormV3", "StatefulPartitionedCall/ssd_mobile_net_v2fpn_keras_feature_extractor/model/block_2_project_BN/FusedBatchNormV3"], "attr": {"T": {"type": "DT_FLOAT"}}}, {"name": "StatefulPartitionedCall/ssd_mobile_net_v2fpn_keras_feature_extractor/model/block_3_expand_relu/Relu6", "op": "_FusedConv2D", "input": ["StatefulPartitionedCall/ssd_mobile_net_v2fpn_keras_feature_extractor/model/block_2_add/add", "StatefulPartitionedCall/ssd_mobile_net_v2fpn_keras_feature_extractor/model/block_3_expand/Conv2D_weights", "StatefulPartitionedCall/ssd_mobile_net_v2fpn_keras_feature_extractor/model/block_3_expand/Conv2D_bn_offset"], "device": "/device:CPU:0", "attr": {"dilations": {"list": {"i": ["1", "1", "1", "1"]}}, "T": {"type": "DT_FLOAT"}, "data_format": {"s": "TkhXQw=="}, "strides": {"list": {"i": ["1", "1", "1", "1"]}}, "use_cudnn_on_gpu": {"b": true}, "explicit_paddings": {"list": {}}, "num_args": {"i": "1"}, "epsilon": {"f": 0.0}, "padding": {"s": "U0FNRQ=="}, "fused_ops": {"list": {"s": ["Qmlhc0FkZA==", "UmVsdTY="]}}}}, {"name": "StatefulPartitionedCall/ssd_mobile_net_v2fpn_keras_feature_extractor/model/block_3_depthwise/depthwise", "op": "FusedDepthwiseConv2dNative", "input": ["StatefulPartitionedCall/ssd_mobile_net_v2fpn_keras_feature_extractor/model/block_3_expand_relu/Relu6", "StatefulPartitionedCall/ssd_mobile_net_v2fpn_keras_feature_extractor/model/block_3_depthwise/depthwise_weights", "StatefulPartitionedCall/ssd_mobile_net_v2fpn_keras_feature_extractor/model/block_3_depthwise/depthwise_bn_offset"], "attr": {"dilations": {"list": {"i": ["1", "1", "1", "1"]}}, "T": {"type": "DT_FLOAT"}, "data_format": {"s": "TkhXQw=="}, "strides": {"list": {"i": ["1", "2", "2", "1"]}}, "explicit_paddings": {"list": {}}, "num_args": {"i": "1"}, "padding": {"s": "U0FNRQ=="}, "fused_ops": {"list": {"s": ["Qmlhc0FkZA==", "UmVsdTY="]}}}}, {"name": "StatefulPartitionedCall/ssd_mobile_net_v2fpn_keras_feature_extractor/model/block_3_project_BN/FusedBatchNormV3", "op": "_FusedConv2D", "input": ["StatefulPartitionedCall/ssd_mobile_net_v2fpn_keras_feature_extractor/model/block_3_depthwise/depthwise", "StatefulPartitionedCall/ssd_mobile_net_v2fpn_keras_feature_extractor/model/block_3_project/Conv2D_weights", "StatefulPartitionedCall/ssd_mobile_net_v2fpn_keras_feature_extractor/model/block_3_project/Conv2D_bn_offset"], "device": "/device:CPU:0", "attr": {"T": {"type": "DT_FLOAT"}, "strides": {"list": {"i": ["1", "1", "1", "1"]}}, "data_format": {"s": "TkhXQw=="}, "explicit_paddings": {"list": {}}, "use_cudnn_on_gpu": {"b": true}, "num_args": {"i": "1"}, "epsilon": {"f": 0.0}, "padding": {"s": "U0FNRQ=="}, "fused_ops": {"list": {"s": ["Qmlhc0FkZA=="]}}, "dilations": {"list": {"i": ["1", "1", "1", "1"]}}}}, {"name": "StatefulPartitionedCall/ssd_mobile_net_v2fpn_keras_feature_extractor/model/block_4_expand_relu/Relu6", "op": "_FusedConv2D", "input": ["StatefulPartitionedCall/ssd_mobile_net_v2fpn_keras_feature_extractor/model/block_3_project_BN/FusedBatchNormV3", "StatefulPartitionedCall/ssd_mobile_net_v2fpn_keras_feature_extractor/model/block_4_expand/Conv2D_weights", "StatefulPartitionedCall/ssd_mobile_net_v2fpn_keras_feature_extractor/model/block_4_expand/Conv2D_bn_offset"], "device": "/device:CPU:0", "attr": {"data_format": {"s": "TkhXQw=="}, "strides": {"list": {"i": ["1", "1", "1", "1"]}}, "use_cudnn_on_gpu": {"b": true}, "explicit_paddings": {"list": {}}, "num_args": {"i": "1"}, "epsilon": {"f": 0.0}, "padding": {"s": "U0FNRQ=="}, "fused_ops": {"list": {"s": ["Qmlhc0FkZA==", "UmVsdTY="]}}, "dilations": {"list": {"i": ["1", "1", "1", "1"]}}, "T": {"type": "DT_FLOAT"}}}, {"name": "StatefulPartitionedCall/ssd_mobile_net_v2fpn_keras_feature_extractor/model/block_4_depthwise/depthwise", "op": "FusedDepthwiseConv2dNative", "input": ["StatefulPartitionedCall/ssd_mobile_net_v2fpn_keras_feature_extractor/model/block_4_expand_relu/Relu6", "StatefulPartitionedCall/ssd_mobile_net_v2fpn_keras_feature_extractor/model/block_4_depthwise/depthwise_weights", "StatefulPartitionedCall/ssd_mobile_net_v2fpn_keras_feature_extractor/model/block_4_depthwise/depthwise_bn_offset"], "attr": {"num_args": {"i": "1"}, "padding": {"s": "U0FNRQ=="}, "fused_ops": {"list": {"s": ["Qmlhc0FkZA==", "UmVsdTY="]}}, "dilations": {"list": {"i": ["1", "1", "1", "1"]}}, "T": {"type": "DT_FLOAT"}, "data_format": {"s": "TkhXQw=="}, "strides": {"list": {"i": ["1", "1", "1", "1"]}}, "explicit_paddings": {"list": {}}}}, {"name": "StatefulPartitionedCall/ssd_mobile_net_v2fpn_keras_feature_extractor/model/block_4_project_BN/FusedBatchNormV3", "op": "_FusedConv2D", "input": ["StatefulPartitionedCall/ssd_mobile_net_v2fpn_keras_feature_extractor/model/block_4_depthwise/depthwise", "StatefulPartitionedCall/ssd_mobile_net_v2fpn_keras_feature_extractor/model/block_4_project/Conv2D_weights", "StatefulPartitionedCall/ssd_mobile_net_v2fpn_keras_feature_extractor/model/block_4_project/Conv2D_bn_offset"], "device": "/device:CPU:0", "attr": {"T": {"type": "DT_FLOAT"}, "data_format": {"s": "TkhXQw=="}, "strides": {"list": {"i": ["1", "1", "1", "1"]}}, "explicit_paddings": {"list": {}}, "use_cudnn_on_gpu": {"b": true}, "num_args": {"i": "1"}, "epsilon": {"f": 0.0}, "padding": {"s": "U0FNRQ=="}, "fused_ops": {"list": {"s": ["Qmlhc0FkZA=="]}}, "dilations": {"list": {"i": ["1", "1", "1", "1"]}}}}, {"name": "StatefulPartitionedCall/ssd_mobile_net_v2fpn_keras_feature_extractor/model/block_4_add/add", "op": "AddV2", "input": ["StatefulPartitionedCall/ssd_mobile_net_v2fpn_keras_feature_extractor/model/block_3_project_BN/FusedBatchNormV3", "StatefulPartitionedCall/ssd_mobile_net_v2fpn_keras_feature_extractor/model/block_4_project_BN/FusedBatchNormV3"], "attr": {"T": {"type": "DT_FLOAT"}}}, {"name": "StatefulPartitionedCall/ssd_mobile_net_v2fpn_keras_feature_extractor/model/block_5_expand_relu/Relu6", "op": "_FusedConv2D", "input": ["StatefulPartitionedCall/ssd_mobile_net_v2fpn_keras_feature_extractor/model/block_4_add/add", "StatefulPartitionedCall/ssd_mobile_net_v2fpn_keras_feature_extractor/model/block_5_expand/Conv2D_weights", "StatefulPartitionedCall/ssd_mobile_net_v2fpn_keras_feature_extractor/model/block_5_expand/Conv2D_bn_offset"], "device": "/device:CPU:0", "attr": {"num_args": {"i": "1"}, "epsilon": {"f": 0.0}, "padding": {"s": "U0FNRQ=="}, "fused_ops": {"list": {"s": ["Qmlhc0FkZA==", "UmVsdTY="]}}, "dilations": {"list": {"i": ["1", "1", "1", "1"]}}, "T": {"type": "DT_FLOAT"}, "strides": {"list": {"i": ["1", "1", "1", "1"]}}, "data_format": {"s": "TkhXQw=="}, "use_cudnn_on_gpu": {"b": true}, "explicit_paddings": {"list": {}}}}, {"name": "StatefulPartitionedCall/ssd_mobile_net_v2fpn_keras_feature_extractor/model/block_5_depthwise/depthwise", "op": "FusedDepthwiseConv2dNative", "input": ["StatefulPartitionedCall/ssd_mobile_net_v2fpn_keras_feature_extractor/model/block_5_expand_relu/Relu6", "StatefulPartitionedCall/ssd_mobile_net_v2fpn_keras_feature_extractor/model/block_5_depthwise/depthwise_weights", "StatefulPartitionedCall/ssd_mobile_net_v2fpn_keras_feature_extractor/model/block_5_depthwise/depthwise_bn_offset"], "attr": {"T": {"type": "DT_FLOAT"}, "data_format": {"s": "TkhXQw=="}, "strides": {"list": {"i": ["1", "1", "1", "1"]}}, "explicit_paddings": {"list": {}}, "num_args": {"i": "1"}, "padding": {"s": "U0FNRQ=="}, "fused_ops": {"list": {"s": ["Qmlhc0FkZA==", "UmVsdTY="]}}, "dilations": {"list": {"i": ["1", "1", "1", "1"]}}}}, {"name": "StatefulPartitionedCall/ssd_mobile_net_v2fpn_keras_feature_extractor/model/block_5_project_BN/FusedBatchNormV3", "op": "_FusedConv2D", "input": ["StatefulPartitionedCall/ssd_mobile_net_v2fpn_keras_feature_extractor/model/block_5_depthwise/depthwise", "StatefulPartitionedCall/ssd_mobile_net_v2fpn_keras_feature_extractor/model/block_5_project/Conv2D_weights", "StatefulPartitionedCall/ssd_mobile_net_v2fpn_keras_feature_extractor/model/block_5_project/Conv2D_bn_offset"], "device": "/device:CPU:0", "attr": {"dilations": {"list": {"i": ["1", "1", "1", "1"]}}, "T": {"type": "DT_FLOAT"}, "strides": {"list": {"i": ["1", "1", "1", "1"]}}, "data_format": {"s": "TkhXQw=="}, "use_cudnn_on_gpu": {"b": true}, "explicit_paddings": {"list": {}}, "num_args": {"i": "1"}, "epsilon": {"f": 0.0}, "padding": {"s": "U0FNRQ=="}, "fused_ops": {"list": {"s": ["Qmlhc0FkZA=="]}}}}, {"name": "StatefulPartitionedCall/ssd_mobile_net_v2fpn_keras_feature_extractor/model/block_5_add/add", "op": "AddV2", "input": ["StatefulPartitionedCall/ssd_mobile_net_v2fpn_keras_feature_extractor/model/block_4_add/add", "StatefulPartitionedCall/ssd_mobile_net_v2fpn_keras_feature_extractor/model/block_5_project_BN/FusedBatchNormV3"], "attr": {"T": {"type": "DT_FLOAT"}}}, {"name": "StatefulPartitionedCall/ssd_mobile_net_v2fpn_keras_feature_extractor/FeatureMaps/top_down/projection_1/BiasAdd", "op": "_FusedConv2D", "input": ["StatefulPartitionedCall/ssd_mobile_net_v2fpn_keras_feature_extractor/model/block_5_add/add", "StatefulPartitionedCall/ssd_mobile_net_v2fpn_keras_feature_extractor/FeatureMaps/top_down/projection_1/Conv2D/ReadVariableOp", "StatefulPartitionedCall/ssd_mobile_net_v2fpn_keras_feature_extractor/FeatureMaps/top_down/projection_1/BiasAdd/ReadVariableOp"], "device": "/device:CPU:0", "attr": {"fused_ops": {"list": {"s": ["Qmlhc0FkZA=="]}}, "dilations": {"list": {"i": ["1", "1", "1", "1"]}}, "T": {"type": "DT_FLOAT"}, "data_format": {"s": "TkhXQw=="}, "strides": {"list": {"i": ["1", "1", "1", "1"]}}, "explicit_paddings": {"list": {}}, "use_cudnn_on_gpu": {"b": true}, "num_args": {"i": "1"}, "epsilon": {"f": 0.0}, "padding": {"s": "U0FNRQ=="}}}, {"name": "StatefulPartitionedCall/ssd_mobile_net_v2fpn_keras_feature_extractor/model/block_6_expand_relu/Relu6", "op": "_FusedConv2D", "input": ["StatefulPartitionedCall/ssd_mobile_net_v2fpn_keras_feature_extractor/model/block_5_add/add", "StatefulPartitionedCall/ssd_mobile_net_v2fpn_keras_feature_extractor/model/block_6_expand/Conv2D_weights", "StatefulPartitionedCall/ssd_mobile_net_v2fpn_keras_feature_extractor/model/block_6_expand/Conv2D_bn_offset"], "device": "/device:CPU:0", "attr": {"dilations": {"list": {"i": ["1", "1", "1", "1"]}}, "T": {"type": "DT_FLOAT"}, "strides": {"list": {"i": ["1", "1", "1", "1"]}}, "data_format": {"s": "TkhXQw=="}, "use_cudnn_on_gpu": {"b": true}, "explicit_paddings": {"list": {}}, "num_args": {"i": "1"}, "epsilon": {"f": 0.0}, "padding": {"s": "U0FNRQ=="}, "fused_ops": {"list": {"s": ["Qmlhc0FkZA==", "UmVsdTY="]}}}}, {"name": "StatefulPartitionedCall/ssd_mobile_net_v2fpn_keras_feature_extractor/model/block_6_depthwise/depthwise", "op": "FusedDepthwiseConv2dNative", "input": ["StatefulPartitionedCall/ssd_mobile_net_v2fpn_keras_feature_extractor/model/block_6_expand_relu/Relu6", "StatefulPartitionedCall/ssd_mobile_net_v2fpn_keras_feature_extractor/model/block_6_depthwise/depthwise_weights", "StatefulPartitionedCall/ssd_mobile_net_v2fpn_keras_feature_extractor/model/block_6_depthwise/depthwise_bn_offset"], "attr": {"strides": {"list": {"i": ["1", "2", "2", "1"]}}, "data_format": {"s": "TkhXQw=="}, "explicit_paddings": {"list": {}}, "num_args": {"i": "1"}, "padding": {"s": "U0FNRQ=="}, "fused_ops": {"list": {"s": ["Qmlhc0FkZA==", "UmVsdTY="]}}, "dilations": {"list": {"i": ["1", "1", "1", "1"]}}, "T": {"type": "DT_FLOAT"}}}, {"name": "StatefulPartitionedCall/ssd_mobile_net_v2fpn_keras_feature_extractor/model/block_6_project_BN/FusedBatchNormV3", "op": "_FusedConv2D", "input": ["StatefulPartitionedCall/ssd_mobile_net_v2fpn_keras_feature_extractor/model/block_6_depthwise/depthwise", "StatefulPartitionedCall/ssd_mobile_net_v2fpn_keras_feature_extractor/model/block_6_project/Conv2D_weights", "StatefulPartitionedCall/ssd_mobile_net_v2fpn_keras_feature_extractor/model/block_6_project/Conv2D_bn_offset"], "device": "/device:CPU:0", "attr": {"T": {"type": "DT_FLOAT"}, "data_format": {"s": "TkhXQw=="}, "strides": {"list": {"i": ["1", "1", "1", "1"]}}, "use_cudnn_on_gpu": {"b": true}, "explicit_paddings": {"list": {}}, "num_args": {"i": "1"}, "epsilon": {"f": 0.0}, "padding": {"s": "U0FNRQ=="}, "fused_ops": {"list": {"s": ["Qmlhc0FkZA=="]}}, "dilations": {"list": {"i": ["1", "1", "1", "1"]}}}}, {"name": "StatefulPartitionedCall/ssd_mobile_net_v2fpn_keras_feature_extractor/model/block_7_expand_relu/Relu6", "op": "_FusedConv2D", "input": ["StatefulPartitionedCall/ssd_mobile_net_v2fpn_keras_feature_extractor/model/block_6_project_BN/FusedBatchNormV3", "StatefulPartitionedCall/ssd_mobile_net_v2fpn_keras_feature_extractor/model/block_7_expand/Conv2D_weights", "StatefulPartitionedCall/ssd_mobile_net_v2fpn_keras_feature_extractor/model/block_7_expand/Conv2D_bn_offset"], "device": "/device:CPU:0", "attr": {"dilations": {"list": {"i": ["1", "1", "1", "1"]}}, "T": {"type": "DT_FLOAT"}, "data_format": {"s": "TkhXQw=="}, "strides": {"list": {"i": ["1", "1", "1", "1"]}}, "use_cudnn_on_gpu": {"b": true}, "explicit_paddings": {"list": {}}, "num_args": {"i": "1"}, "epsilon": {"f": 0.0}, "padding": {"s": "U0FNRQ=="}, "fused_ops": {"list": {"s": ["Qmlhc0FkZA==", "UmVsdTY="]}}}}, {"name": "StatefulPartitionedCall/ssd_mobile_net_v2fpn_keras_feature_extractor/model/block_7_depthwise/depthwise", "op": "FusedDepthwiseConv2dNative", "input": ["StatefulPartitionedCall/ssd_mobile_net_v2fpn_keras_feature_extractor/model/block_7_expand_relu/Relu6", "StatefulPartitionedCall/ssd_mobile_net_v2fpn_keras_feature_extractor/model/block_7_depthwise/depthwise_weights", "StatefulPartitionedCall/ssd_mobile_net_v2fpn_keras_feature_extractor/model/block_7_depthwise/depthwise_bn_offset"], "attr": {"num_args": {"i": "1"}, "padding": {"s": "U0FNRQ=="}, "fused_ops": {"list": {"s": ["Qmlhc0FkZA==", "UmVsdTY="]}}, "dilations": {"list": {"i": ["1", "1", "1", "1"]}}, "T": {"type": "DT_FLOAT"}, "strides": {"list": {"i": ["1", "1", "1", "1"]}}, "data_format": {"s": "TkhXQw=="}, "explicit_paddings": {"list": {}}}}, {"name": "StatefulPartitionedCall/ssd_mobile_net_v2fpn_keras_feature_extractor/model/block_7_project_BN/FusedBatchNormV3", "op": "_FusedConv2D", "input": ["StatefulPartitionedCall/ssd_mobile_net_v2fpn_keras_feature_extractor/model/block_7_depthwise/depthwise", "StatefulPartitionedCall/ssd_mobile_net_v2fpn_keras_feature_extractor/model/block_7_project/Conv2D_weights", "StatefulPartitionedCall/ssd_mobile_net_v2fpn_keras_feature_extractor/model/block_7_project/Conv2D_bn_offset"], "device": "/device:CPU:0", "attr": {"epsilon": {"f": 0.0}, "padding": {"s": "U0FNRQ=="}, "fused_ops": {"list": {"s": ["Qmlhc0FkZA=="]}}, "dilations": {"list": {"i": ["1", "1", "1", "1"]}}, "T": {"type": "DT_FLOAT"}, "data_format": {"s": "TkhXQw=="}, "strides": {"list": {"i": ["1", "1", "1", "1"]}}, "explicit_paddings": {"list": {}}, "use_cudnn_on_gpu": {"b": true}, "num_args": {"i": "1"}}}, {"name": "StatefulPartitionedCall/ssd_mobile_net_v2fpn_keras_feature_extractor/model/block_7_add/add", "op": "AddV2", "input": ["StatefulPartitionedCall/ssd_mobile_net_v2fpn_keras_feature_extractor/model/block_6_project_BN/FusedBatchNormV3", "StatefulPartitionedCall/ssd_mobile_net_v2fpn_keras_feature_extractor/model/block_7_project_BN/FusedBatchNormV3"], "attr": {"T": {"type": "DT_FLOAT"}}}, {"name": "StatefulPartitionedCall/ssd_mobile_net_v2fpn_keras_feature_extractor/model/block_8_expand_relu/Relu6", "op": "_FusedConv2D", "input": ["StatefulPartitionedCall/ssd_mobile_net_v2fpn_keras_feature_extractor/model/block_7_add/add", "StatefulPartitionedCall/ssd_mobile_net_v2fpn_keras_feature_extractor/model/block_8_expand/Conv2D_weights", "StatefulPartitionedCall/ssd_mobile_net_v2fpn_keras_feature_extractor/model/block_8_expand/Conv2D_bn_offset"], "device": "/device:CPU:0", "attr": {"fused_ops": {"list": {"s": ["Qmlhc0FkZA==", "UmVsdTY="]}}, "dilations": {"list": {"i": ["1", "1", "1", "1"]}}, "T": {"type": "DT_FLOAT"}, "data_format": {"s": "TkhXQw=="}, "strides": {"list": {"i": ["1", "1", "1", "1"]}}, "use_cudnn_on_gpu": {"b": true}, "explicit_paddings": {"list": {}}, "num_args": {"i": "1"}, "epsilon": {"f": 0.0}, "padding": {"s": "U0FNRQ=="}}}, {"name": "StatefulPartitionedCall/ssd_mobile_net_v2fpn_keras_feature_extractor/model/block_8_depthwise/depthwise", "op": "FusedDepthwiseConv2dNative", "input": ["StatefulPartitionedCall/ssd_mobile_net_v2fpn_keras_feature_extractor/model/block_8_expand_relu/Relu6", "StatefulPartitionedCall/ssd_mobile_net_v2fpn_keras_feature_extractor/model/block_8_depthwise/depthwise_weights", "StatefulPartitionedCall/ssd_mobile_net_v2fpn_keras_feature_extractor/model/block_8_depthwise/depthwise_bn_offset"], "attr": {"padding": {"s": "U0FNRQ=="}, "fused_ops": {"list": {"s": ["Qmlhc0FkZA==", "UmVsdTY="]}}, "dilations": {"list": {"i": ["1", "1", "1", "1"]}}, "T": {"type": "DT_FLOAT"}, "data_format": {"s": "TkhXQw=="}, "strides": {"list": {"i": ["1", "1", "1", "1"]}}, "explicit_paddings": {"list": {}}, "num_args": {"i": "1"}}}, {"name": "StatefulPartitionedCall/ssd_mobile_net_v2fpn_keras_feature_extractor/model/block_8_project_BN/FusedBatchNormV3", "op": "_FusedConv2D", "input": ["StatefulPartitionedCall/ssd_mobile_net_v2fpn_keras_feature_extractor/model/block_8_depthwise/depthwise", "StatefulPartitionedCall/ssd_mobile_net_v2fpn_keras_feature_extractor/model/block_8_project/Conv2D_weights", "StatefulPartitionedCall/ssd_mobile_net_v2fpn_keras_feature_extractor/model/block_8_project/Conv2D_bn_offset"], "device": "/device:CPU:0", "attr": {"dilations": {"list": {"i": ["1", "1", "1", "1"]}}, "T": {"type": "DT_FLOAT"}, "data_format": {"s": "TkhXQw=="}, "strides": {"list": {"i": ["1", "1", "1", "1"]}}, "explicit_paddings": {"list": {}}, "use_cudnn_on_gpu": {"b": true}, "num_args": {"i": "1"}, "epsilon": {"f": 0.0}, "padding": {"s": "U0FNRQ=="}, "fused_ops": {"list": {"s": ["Qmlhc0FkZA=="]}}}}, {"name": "StatefulPartitionedCall/ssd_mobile_net_v2fpn_keras_feature_extractor/model/block_8_add/add", "op": "AddV2", "input": ["StatefulPartitionedCall/ssd_mobile_net_v2fpn_keras_feature_extractor/model/block_7_add/add", "StatefulPartitionedCall/ssd_mobile_net_v2fpn_keras_feature_extractor/model/block_8_project_BN/FusedBatchNormV3"], "attr": {"T": {"type": "DT_FLOAT"}}}, {"name": "StatefulPartitionedCall/ssd_mobile_net_v2fpn_keras_feature_extractor/model/block_9_expand_relu/Relu6", "op": "_FusedConv2D", "input": ["StatefulPartitionedCall/ssd_mobile_net_v2fpn_keras_feature_extractor/model/block_8_add/add", "StatefulPartitionedCall/ssd_mobile_net_v2fpn_keras_feature_extractor/model/block_9_expand/Conv2D_weights", "StatefulPartitionedCall/ssd_mobile_net_v2fpn_keras_feature_extractor/model/block_9_expand/Conv2D_bn_offset"], "device": "/device:CPU:0", "attr": {"dilations": {"list": {"i": ["1", "1", "1", "1"]}}, "T": {"type": "DT_FLOAT"}, "data_format": {"s": "TkhXQw=="}, "strides": {"list": {"i": ["1", "1", "1", "1"]}}, "explicit_paddings": {"list": {}}, "use_cudnn_on_gpu": {"b": true}, "num_args": {"i": "1"}, "epsilon": {"f": 0.0}, "padding": {"s": "U0FNRQ=="}, "fused_ops": {"list": {"s": ["Qmlhc0FkZA==", "UmVsdTY="]}}}}, {"name": "StatefulPartitionedCall/ssd_mobile_net_v2fpn_keras_feature_extractor/model/block_9_depthwise/depthwise", "op": "FusedDepthwiseConv2dNative", "input": ["StatefulPartitionedCall/ssd_mobile_net_v2fpn_keras_feature_extractor/model/block_9_expand_relu/Relu6", "StatefulPartitionedCall/ssd_mobile_net_v2fpn_keras_feature_extractor/model/block_9_depthwise/depthwise_weights", "StatefulPartitionedCall/ssd_mobile_net_v2fpn_keras_feature_extractor/model/block_9_depthwise/depthwise_bn_offset"], "attr": {"padding": {"s": "U0FNRQ=="}, "fused_ops": {"list": {"s": ["Qmlhc0FkZA==", "UmVsdTY="]}}, "dilations": {"list": {"i": ["1", "1", "1", "1"]}}, "T": {"type": "DT_FLOAT"}, "data_format": {"s": "TkhXQw=="}, "strides": {"list": {"i": ["1", "1", "1", "1"]}}, "explicit_paddings": {"list": {}}, "num_args": {"i": "1"}}}, {"name": "StatefulPartitionedCall/ssd_mobile_net_v2fpn_keras_feature_extractor/model/block_9_project_BN/FusedBatchNormV3", "op": "_FusedConv2D", "input": ["StatefulPartitionedCall/ssd_mobile_net_v2fpn_keras_feature_extractor/model/block_9_depthwise/depthwise", "StatefulPartitionedCall/ssd_mobile_net_v2fpn_keras_feature_extractor/model/block_9_project/Conv2D_weights", "StatefulPartitionedCall/ssd_mobile_net_v2fpn_keras_feature_extractor/model/block_9_project/Conv2D_bn_offset"], "device": "/device:CPU:0", "attr": {"dilations": {"list": {"i": ["1", "1", "1", "1"]}}, "T": {"type": "DT_FLOAT"}, "strides": {"list": {"i": ["1", "1", "1", "1"]}}, "data_format": {"s": "TkhXQw=="}, "use_cudnn_on_gpu": {"b": true}, "explicit_paddings": {"list": {}}, "num_args": {"i": "1"}, "epsilon": {"f": 0.0}, "padding": {"s": "U0FNRQ=="}, "fused_ops": {"list": {"s": ["Qmlhc0FkZA=="]}}}}, {"name": "StatefulPartitionedCall/ssd_mobile_net_v2fpn_keras_feature_extractor/model/block_9_add/add", "op": "AddV2", "input": ["StatefulPartitionedCall/ssd_mobile_net_v2fpn_keras_feature_extractor/model/block_8_add/add", "StatefulPartitionedCall/ssd_mobile_net_v2fpn_keras_feature_extractor/model/block_9_project_BN/FusedBatchNormV3"], "attr": {"T": {"type": "DT_FLOAT"}}}, {"name": "StatefulPartitionedCall/ssd_mobile_net_v2fpn_keras_feature_extractor/model/block_10_expand_relu/Relu6", "op": "_FusedConv2D", "input": ["StatefulPartitionedCall/ssd_mobile_net_v2fpn_keras_feature_extractor/model/block_9_add/add", "StatefulPartitionedCall/ssd_mobile_net_v2fpn_keras_feature_extractor/model/block_10_expand/Conv2D_weights", "StatefulPartitionedCall/ssd_mobile_net_v2fpn_keras_feature_extractor/model/block_10_expand/Conv2D_bn_offset"], "device": "/device:CPU:0", "attr": {"fused_ops": {"list": {"s": ["Qmlhc0FkZA==", "UmVsdTY="]}}, "dilations": {"list": {"i": ["1", "1", "1", "1"]}}, "T": {"type": "DT_FLOAT"}, "data_format": {"s": "TkhXQw=="}, "strides": {"list": {"i": ["1", "1", "1", "1"]}}, "use_cudnn_on_gpu": {"b": true}, "explicit_paddings": {"list": {}}, "num_args": {"i": "1"}, "epsilon": {"f": 0.0}, "padding": {"s": "U0FNRQ=="}}}, {"name": "StatefulPartitionedCall/ssd_mobile_net_v2fpn_keras_feature_extractor/model/block_10_depthwise/depthwise", "op": "FusedDepthwiseConv2dNative", "input": ["StatefulPartitionedCall/ssd_mobile_net_v2fpn_keras_feature_extractor/model/block_10_expand_relu/Relu6", "StatefulPartitionedCall/ssd_mobile_net_v2fpn_keras_feature_extractor/model/block_10_depthwise/depthwise_weights", "StatefulPartitionedCall/ssd_mobile_net_v2fpn_keras_feature_extractor/model/block_10_depthwise/depthwise_bn_offset"], "attr": {"dilations": {"list": {"i": ["1", "1", "1", "1"]}}, "T": {"type": "DT_FLOAT"}, "data_format": {"s": "TkhXQw=="}, "strides": {"list": {"i": ["1", "1", "1", "1"]}}, "explicit_paddings": {"list": {}}, "num_args": {"i": "1"}, "padding": {"s": "U0FNRQ=="}, "fused_ops": {"list": {"s": ["Qmlhc0FkZA==", "UmVsdTY="]}}}}, {"name": "StatefulPartitionedCall/ssd_mobile_net_v2fpn_keras_feature_extractor/model/block_10_project_BN/FusedBatchNormV3", "op": "_FusedConv2D", "input": ["StatefulPartitionedCall/ssd_mobile_net_v2fpn_keras_feature_extractor/model/block_10_depthwise/depthwise", "StatefulPartitionedCall/ssd_mobile_net_v2fpn_keras_feature_extractor/model/block_10_project/Conv2D_weights", "StatefulPartitionedCall/ssd_mobile_net_v2fpn_keras_feature_extractor/model/block_10_project/Conv2D_bn_offset"], "device": "/device:CPU:0", "attr": {"dilations": {"list": {"i": ["1", "1", "1", "1"]}}, "T": {"type": "DT_FLOAT"}, "data_format": {"s": "TkhXQw=="}, "strides": {"list": {"i": ["1", "1", "1", "1"]}}, "use_cudnn_on_gpu": {"b": true}, "explicit_paddings": {"list": {}}, "num_args": {"i": "1"}, "epsilon": {"f": 0.0}, "padding": {"s": "U0FNRQ=="}, "fused_ops": {"list": {"s": ["Qmlhc0FkZA=="]}}}}, {"name": "StatefulPartitionedCall/ssd_mobile_net_v2fpn_keras_feature_extractor/model/block_11_expand_relu/Relu6", "op": "_FusedConv2D", "input": ["StatefulPartitionedCall/ssd_mobile_net_v2fpn_keras_feature_extractor/model/block_10_project_BN/FusedBatchNormV3", "StatefulPartitionedCall/ssd_mobile_net_v2fpn_keras_feature_extractor/model/block_11_expand/Conv2D_weights", "StatefulPartitionedCall/ssd_mobile_net_v2fpn_keras_feature_extractor/model/block_11_expand/Conv2D_bn_offset"], "device": "/device:CPU:0", "attr": {"num_args": {"i": "1"}, "epsilon": {"f": 0.0}, "padding": {"s": "U0FNRQ=="}, "fused_ops": {"list": {"s": ["Qmlhc0FkZA==", "UmVsdTY="]}}, "dilations": {"list": {"i": ["1", "1", "1", "1"]}}, "T": {"type": "DT_FLOAT"}, "data_format": {"s": "TkhXQw=="}, "strides": {"list": {"i": ["1", "1", "1", "1"]}}, "explicit_paddings": {"list": {}}, "use_cudnn_on_gpu": {"b": true}}}, {"name": "StatefulPartitionedCall/ssd_mobile_net_v2fpn_keras_feature_extractor/model/block_11_depthwise/depthwise", "op": "FusedDepthwiseConv2dNative", "input": ["StatefulPartitionedCall/ssd_mobile_net_v2fpn_keras_feature_extractor/model/block_11_expand_relu/Relu6", "StatefulPartitionedCall/ssd_mobile_net_v2fpn_keras_feature_extractor/model/block_11_depthwise/depthwise_weights", "StatefulPartitionedCall/ssd_mobile_net_v2fpn_keras_feature_extractor/model/block_11_depthwise/depthwise_bn_offset"], "attr": {"num_args": {"i": "1"}, "padding": {"s": "U0FNRQ=="}, "fused_ops": {"list": {"s": ["Qmlhc0FkZA==", "UmVsdTY="]}}, "dilations": {"list": {"i": ["1", "1", "1", "1"]}}, "T": {"type": "DT_FLOAT"}, "strides": {"list": {"i": ["1", "1", "1", "1"]}}, "data_format": {"s": "TkhXQw=="}, "explicit_paddings": {"list": {}}}}, {"name": "StatefulPartitionedCall/ssd_mobile_net_v2fpn_keras_feature_extractor/model/block_11_project_BN/FusedBatchNormV3", "op": "_FusedConv2D", "input": ["StatefulPartitionedCall/ssd_mobile_net_v2fpn_keras_feature_extractor/model/block_11_depthwise/depthwise", "StatefulPartitionedCall/ssd_mobile_net_v2fpn_keras_feature_extractor/model/block_11_project/Conv2D_weights", "StatefulPartitionedCall/ssd_mobile_net_v2fpn_keras_feature_extractor/model/block_11_project/Conv2D_bn_offset"], "device": "/device:CPU:0", "attr": {"dilations": {"list": {"i": ["1", "1", "1", "1"]}}, "T": {"type": "DT_FLOAT"}, "data_format": {"s": "TkhXQw=="}, "strides": {"list": {"i": ["1", "1", "1", "1"]}}, "explicit_paddings": {"list": {}}, "use_cudnn_on_gpu": {"b": true}, "num_args": {"i": "1"}, "epsilon": {"f": 0.0}, "padding": {"s": "U0FNRQ=="}, "fused_ops": {"list": {"s": ["Qmlhc0FkZA=="]}}}}, {"name": "StatefulPartitionedCall/ssd_mobile_net_v2fpn_keras_feature_extractor/model/block_11_add/add", "op": "AddV2", "input": ["StatefulPartitionedCall/ssd_mobile_net_v2fpn_keras_feature_extractor/model/block_10_project_BN/FusedBatchNormV3", "StatefulPartitionedCall/ssd_mobile_net_v2fpn_keras_feature_extractor/model/block_11_project_BN/FusedBatchNormV3"], "attr": {"T": {"type": "DT_FLOAT"}}}, {"name": "StatefulPartitionedCall/ssd_mobile_net_v2fpn_keras_feature_extractor/model/block_12_expand_relu/Relu6", "op": "_FusedConv2D", "input": ["StatefulPartitionedCall/ssd_mobile_net_v2fpn_keras_feature_extractor/model/block_11_add/add", "StatefulPartitionedCall/ssd_mobile_net_v2fpn_keras_feature_extractor/model/block_12_expand/Conv2D_weights", "StatefulPartitionedCall/ssd_mobile_net_v2fpn_keras_feature_extractor/model/block_12_expand/Conv2D_bn_offset"], "device": "/device:CPU:0", "attr": {"dilations": {"list": {"i": ["1", "1", "1", "1"]}}, "T": {"type": "DT_FLOAT"}, "strides": {"list": {"i": ["1", "1", "1", "1"]}}, "data_format": {"s": "TkhXQw=="}, "use_cudnn_on_gpu": {"b": true}, "explicit_paddings": {"list": {}}, "num_args": {"i": "1"}, "epsilon": {"f": 0.0}, "padding": {"s": "U0FNRQ=="}, "fused_ops": {"list": {"s": ["Qmlhc0FkZA==", "UmVsdTY="]}}}}, {"name": "StatefulPartitionedCall/ssd_mobile_net_v2fpn_keras_feature_extractor/model/block_12_depthwise/depthwise", "op": "FusedDepthwiseConv2dNative", "input": ["StatefulPartitionedCall/ssd_mobile_net_v2fpn_keras_feature_extractor/model/block_12_expand_relu/Relu6", "StatefulPartitionedCall/ssd_mobile_net_v2fpn_keras_feature_extractor/model/block_12_depthwise/depthwise_weights", "StatefulPartitionedCall/ssd_mobile_net_v2fpn_keras_feature_extractor/model/block_12_depthwise/depthwise_bn_offset"], "attr": {"padding": {"s": "U0FNRQ=="}, "fused_ops": {"list": {"s": ["Qmlhc0FkZA==", "UmVsdTY="]}}, "dilations": {"list": {"i": ["1", "1", "1", "1"]}}, "T": {"type": "DT_FLOAT"}, "strides": {"list": {"i": ["1", "1", "1", "1"]}}, "data_format": {"s": "TkhXQw=="}, "explicit_paddings": {"list": {}}, "num_args": {"i": "1"}}}, {"name": "StatefulPartitionedCall/ssd_mobile_net_v2fpn_keras_feature_extractor/model/block_12_project_BN/FusedBatchNormV3", "op": "_FusedConv2D", "input": ["StatefulPartitionedCall/ssd_mobile_net_v2fpn_keras_feature_extractor/model/block_12_depthwise/depthwise", "StatefulPartitionedCall/ssd_mobile_net_v2fpn_keras_feature_extractor/model/block_12_project/Conv2D_weights", "StatefulPartitionedCall/ssd_mobile_net_v2fpn_keras_feature_extractor/model/block_12_project/Conv2D_bn_offset"], "device": "/device:CPU:0", "attr": {"dilations": {"list": {"i": ["1", "1", "1", "1"]}}, "T": {"type": "DT_FLOAT"}, "data_format": {"s": "TkhXQw=="}, "strides": {"list": {"i": ["1", "1", "1", "1"]}}, "explicit_paddings": {"list": {}}, "use_cudnn_on_gpu": {"b": true}, "num_args": {"i": "1"}, "epsilon": {"f": 0.0}, "padding": {"s": "U0FNRQ=="}, "fused_ops": {"list": {"s": ["Qmlhc0FkZA=="]}}}}, {"name": "StatefulPartitionedCall/ssd_mobile_net_v2fpn_keras_feature_extractor/model/block_12_add/add", "op": "AddV2", "input": ["StatefulPartitionedCall/ssd_mobile_net_v2fpn_keras_feature_extractor/model/block_11_add/add", "StatefulPartitionedCall/ssd_mobile_net_v2fpn_keras_feature_extractor/model/block_12_project_BN/FusedBatchNormV3"], "attr": {"T": {"type": "DT_FLOAT"}}}, {"name": "StatefulPartitionedCall/ssd_mobile_net_v2fpn_keras_feature_extractor/FeatureMaps/top_down/projection_2/BiasAdd", "op": "_FusedConv2D", "input": ["StatefulPartitionedCall/ssd_mobile_net_v2fpn_keras_feature_extractor/model/block_12_add/add", "StatefulPartitionedCall/ssd_mobile_net_v2fpn_keras_feature_extractor/FeatureMaps/top_down/projection_2/Conv2D/ReadVariableOp", "StatefulPartitionedCall/ssd_mobile_net_v2fpn_keras_feature_extractor/FeatureMaps/top_down/projection_2/BiasAdd/ReadVariableOp"], "device": "/device:CPU:0", "attr": {"dilations": {"list": {"i": ["1", "1", "1", "1"]}}, "T": {"type": "DT_FLOAT"}, "data_format": {"s": "TkhXQw=="}, "strides": {"list": {"i": ["1", "1", "1", "1"]}}, "use_cudnn_on_gpu": {"b": true}, "explicit_paddings": {"list": {}}, "num_args": {"i": "1"}, "epsilon": {"f": 0.0}, "padding": {"s": "U0FNRQ=="}, "fused_ops": {"list": {"s": ["Qmlhc0FkZA=="]}}}}, {"name": "StatefulPartitionedCall/ssd_mobile_net_v2fpn_keras_feature_extractor/model/block_13_expand_relu/Relu6", "op": "_FusedConv2D", "input": ["StatefulPartitionedCall/ssd_mobile_net_v2fpn_keras_feature_extractor/model/block_12_add/add", "StatefulPartitionedCall/ssd_mobile_net_v2fpn_keras_feature_extractor/model/block_13_expand/Conv2D_weights", "StatefulPartitionedCall/ssd_mobile_net_v2fpn_keras_feature_extractor/model/block_13_expand/Conv2D_bn_offset"], "device": "/device:CPU:0", "attr": {"num_args": {"i": "1"}, "epsilon": {"f": 0.0}, "padding": {"s": "U0FNRQ=="}, "fused_ops": {"list": {"s": ["Qmlhc0FkZA==", "UmVsdTY="]}}, "dilations": {"list": {"i": ["1", "1", "1", "1"]}}, "T": {"type": "DT_FLOAT"}, "data_format": {"s": "TkhXQw=="}, "strides": {"list": {"i": ["1", "1", "1", "1"]}}, "use_cudnn_on_gpu": {"b": true}, "explicit_paddings": {"list": {}}}}, {"name": "StatefulPartitionedCall/ssd_mobile_net_v2fpn_keras_feature_extractor/model/block_13_depthwise/depthwise", "op": "FusedDepthwiseConv2dNative", "input": ["StatefulPartitionedCall/ssd_mobile_net_v2fpn_keras_feature_extractor/model/block_13_expand_relu/Relu6", "StatefulPartitionedCall/ssd_mobile_net_v2fpn_keras_feature_extractor/model/block_13_depthwise/depthwise_weights", "StatefulPartitionedCall/ssd_mobile_net_v2fpn_keras_feature_extractor/model/block_13_depthwise/depthwise_bn_offset"], "attr": {"dilations": {"list": {"i": ["1", "1", "1", "1"]}}, "T": {"type": "DT_FLOAT"}, "strides": {"list": {"i": ["1", "2", "2", "1"]}}, "data_format": {"s": "TkhXQw=="}, "explicit_paddings": {"list": {}}, "num_args": {"i": "1"}, "padding": {"s": "U0FNRQ=="}, "fused_ops": {"list": {"s": ["Qmlhc0FkZA==", "UmVsdTY="]}}}}, {"name": "StatefulPartitionedCall/ssd_mobile_net_v2fpn_keras_feature_extractor/model/block_13_project_BN/FusedBatchNormV3", "op": "_FusedConv2D", "input": ["StatefulPartitionedCall/ssd_mobile_net_v2fpn_keras_feature_extractor/model/block_13_depthwise/depthwise", "StatefulPartitionedCall/ssd_mobile_net_v2fpn_keras_feature_extractor/model/block_13_project/Conv2D_weights", "StatefulPartitionedCall/ssd_mobile_net_v2fpn_keras_feature_extractor/model/block_13_project/Conv2D_bn_offset"], "device": "/device:CPU:0", "attr": {"fused_ops": {"list": {"s": ["Qmlhc0FkZA=="]}}, "dilations": {"list": {"i": ["1", "1", "1", "1"]}}, "T": {"type": "DT_FLOAT"}, "data_format": {"s": "TkhXQw=="}, "strides": {"list": {"i": ["1", "1", "1", "1"]}}, "explicit_paddings": {"list": {}}, "use_cudnn_on_gpu": {"b": true}, "num_args": {"i": "1"}, "epsilon": {"f": 0.0}, "padding": {"s": "U0FNRQ=="}}}, {"name": "StatefulPartitionedCall/ssd_mobile_net_v2fpn_keras_feature_extractor/model/block_14_expand_relu/Relu6", "op": "_FusedConv2D", "input": ["StatefulPartitionedCall/ssd_mobile_net_v2fpn_keras_feature_extractor/model/block_13_project_BN/FusedBatchNormV3", "StatefulPartitionedCall/ssd_mobile_net_v2fpn_keras_feature_extractor/model/block_14_expand/Conv2D_weights", "StatefulPartitionedCall/ssd_mobile_net_v2fpn_keras_feature_extractor/model/block_14_expand/Conv2D_bn_offset"], "device": "/device:CPU:0", "attr": {"strides": {"list": {"i": ["1", "1", "1", "1"]}}, "data_format": {"s": "TkhXQw=="}, "use_cudnn_on_gpu": {"b": true}, "explicit_paddings": {"list": {}}, "num_args": {"i": "1"}, "epsilon": {"f": 0.0}, "padding": {"s": "U0FNRQ=="}, "fused_ops": {"list": {"s": ["Qmlhc0FkZA==", "UmVsdTY="]}}, "dilations": {"list": {"i": ["1", "1", "1", "1"]}}, "T": {"type": "DT_FLOAT"}}}, {"name": "StatefulPartitionedCall/ssd_mobile_net_v2fpn_keras_feature_extractor/model/block_14_depthwise/depthwise", "op": "FusedDepthwiseConv2dNative", "input": ["StatefulPartitionedCall/ssd_mobile_net_v2fpn_keras_feature_extractor/model/block_14_expand_relu/Relu6", "StatefulPartitionedCall/ssd_mobile_net_v2fpn_keras_feature_extractor/model/block_14_depthwise/depthwise_weights", "StatefulPartitionedCall/ssd_mob…
atchMultiClassNonMaxSuppression_map_while_body_11989_22739/Postprocessor/BatchMultiClassNonMaxSuppression/map/while/MultiClassNonMaxSuppression/ones/Reshape/shape", "shape": [1], "dtype": "int32"}, {"name": "__inference_Postprocessor_BatchMultiClassNonMaxSuppression_map_while_body_11989_22739/Postprocessor/BatchMultiClassNonMaxSuppression/map/while/MultiClassNonMaxSuppression/ones/Const", "shape": [], "dtype": "float32"}, {"name": "__inference_Postprocessor_BatchMultiClassNonMaxSuppression_map_while_body_11989_22739/Postprocessor/BatchMultiClassNonMaxSuppression/map/while/MultiClassNonMaxSuppression/range_1/start", "shape": [], "dtype": "int32"}, {"name": "__inference_Postprocessor_BatchMultiClassNonMaxSuppression_map_while_body_11989_22739/Postprocessor/BatchMultiClassNonMaxSuppression/map/while/MultiClassNonMaxSuppression/range_1/delta", "shape": [], "dtype": "int32"}, {"name": "__inference_Postprocessor_BatchMultiClassNonMaxSuppression_map_while_body_11989_22739/Postprocessor/BatchMultiClassNonMaxSuppression/map/while/MultiClassNonMaxSuppression/zeros_3/Reshape/shape", "shape": [1], "dtype": "int32"}, {"name": "__inference_Postprocessor_BatchMultiClassNonMaxSuppression_map_while_body_11989_22739/Postprocessor/BatchMultiClassNonMaxSuppression/map/while/MultiClassNonMaxSuppression/zeros_3/Const", "shape": [], "dtype": "float32"}, {"name": "__inference_Postprocessor_BatchMultiClassNonMaxSuppression_map_while_body_11989_22739/Postprocessor/BatchMultiClassNonMaxSuppression/map/while/MultiClassNonMaxSuppression/concat_3/axis", "shape": [], "dtype": "int32"}, {"name": "__inference_Postprocessor_BatchMultiClassNonMaxSuppression_map_while_body_11989_22739/Postprocessor/BatchMultiClassNonMaxSuppression/map/while/MultiClassNonMaxSuppression/mul_1/x", "shape": [], "dtype": "float32"}, {"name": "__inference_Postprocessor_BatchMultiClassNonMaxSuppression_map_while_body_11989_22739/Postprocessor/BatchMultiClassNonMaxSuppression/map/while/MultiClassNonMaxSuppression/ones_1/Reshape/shape", "shape": [1], "dtype": "int32"}, {"name": "__inference_Postprocessor_BatchMultiClassNonMaxSuppression_map_while_body_11989_22739/Postprocessor/BatchMultiClassNonMaxSuppression/map/while/MultiClassNonMaxSuppression/ones_1/Const", "shape": [], "dtype": "float32"}, {"name": "__inference_Postprocessor_BatchMultiClassNonMaxSuppression_map_while_body_11989_22739/Postprocessor/BatchMultiClassNonMaxSuppression/map/while/MultiClassNonMaxSuppression/range_2/start", "shape": [], "dtype": "int32"}, {"name": "__inference_Postprocessor_BatchMultiClassNonMaxSuppression_map_while_body_11989_22739/Postprocessor/BatchMultiClassNonMaxSuppression/map/while/MultiClassNonMaxSuppression/range_2/delta", "shape": [], "dtype": "int32"}, {"name": "__inference_Postprocessor_BatchMultiClassNonMaxSuppression_map_while_body_11989_22739/Postprocessor/BatchMultiClassNonMaxSuppression/map/while/MultiClassNonMaxSuppression/zeros_5/Reshape/shape", "shape": [1], "dtype": "int32"}, {"name": "__inference_Postprocessor_BatchMultiClassNonMaxSuppression_map_while_body_11989_22739/Postprocessor/BatchMultiClassNonMaxSuppression/map/while/MultiClassNonMaxSuppression/zeros_5/Const", "shape": [], "dtype": "float32"}, {"name": "__inference_Postprocessor_BatchMultiClassNonMaxSuppression_map_while_body_11989_22739/Postprocessor/BatchMultiClassNonMaxSuppression/map/while/MultiClassNonMaxSuppression/concat_5/axis", "shape": [], "dtype": "int32"}, {"name": "__inference_Postprocessor_BatchMultiClassNonMaxSuppression_map_while_body_11989_22739/Postprocessor/BatchMultiClassNonMaxSuppression/map/while/MultiClassNonMaxSuppression/mul_2/x", "shape": [], "dtype": "float32"}, {"name": "__inference_Postprocessor_BatchMultiClassNonMaxSuppression_map_while_body_11989_22739/Postprocessor/BatchMultiClassNonMaxSuppression/map/while/MultiClassNonMaxSuppression/ones_2/Reshape/shape", "shape": [1], "dtype": "int32"}, {"name": "__inference_Postprocessor_BatchMultiClassNonMaxSuppression_map_while_body_11989_22739/Postprocessor/BatchMultiClassNonMaxSuppression/map/while/MultiClassNonMaxSuppression/ones_2/Const", "shape": [], "dtype": "float32"}, {"name": "__inference_Postprocessor_BatchMultiClassNonMaxSuppression_map_while_body_11989_22739/Postprocessor/BatchMultiClassNonMaxSuppression/map/while/MultiClassNonMaxSuppression/range_3/start", "shape": [], "dtype": "int32"}, {"name": "__inference_Postprocessor_BatchMultiClassNonMaxSuppression_map_while_body_11989_22739/Postprocessor/BatchMultiClassNonMaxSuppression/map/while/MultiClassNonMaxSuppression/range_3/delta", "shape": [], "dtype": "int32"}, {"name": "__inference_Postprocessor_BatchMultiClassNonMaxSuppression_map_while_body_11989_22739/Postprocessor/BatchMultiClassNonMaxSuppression/map/while/MultiClassNonMaxSuppression/zeros_7/Reshape/shape", "shape": [1], "dtype": "int32"}, {"name": "__inference_Postprocessor_BatchMultiClassNonMaxSuppression_map_while_body_11989_22739/Postprocessor/BatchMultiClassNonMaxSuppression/map/while/MultiClassNonMaxSuppression/zeros_7/Const", "shape": [], "dtype": "float32"}, {"name": "__inference_Postprocessor_BatchMultiClassNonMaxSuppression_map_while_body_11989_22739/Postprocessor/BatchMultiClassNonMaxSuppression/map/while/MultiClassNonMaxSuppression/concat_7/axis", "shape": [], "dtype": "int32"}, {"name": "__inference_Postprocessor_BatchMultiClassNonMaxSuppression_map_while_body_11989_22739/Postprocessor/BatchMultiClassNonMaxSuppression/map/while/MultiClassNonMaxSuppression/mul_3/x", "shape": [], "dtype": "float32"}, {"name": "__inference_Postprocessor_BatchMultiClassNonMaxSuppression_map_while_body_11989_22739/Postprocessor/BatchMultiClassNonMaxSuppression/map/while/MultiClassNonMaxSuppression/ones_3/Reshape/shape", "shape": [1], "dtype": "int32"}, {"name": "__inference_Postprocessor_BatchMultiClassNonMaxSuppression_map_while_body_11989_22739/Postprocessor/BatchMultiClassNonMaxSuppression/map/while/MultiClassNonMaxSuppression/ones_3/Const", "shape": [], "dtype": "float32"}, {"name": "__inference_Postprocessor_BatchMultiClassNonMaxSuppression_map_while_body_11989_22739/Postprocessor/BatchMultiClassNonMaxSuppression/map/while/MultiClassNonMaxSuppression/range_4/start", "shape": [], "dtype": "int32"}, {"name": "__inference_Postprocessor_BatchMultiClassNonMaxSuppression_map_while_body_11989_22739/Postprocessor/BatchMultiClassNonMaxSuppression/map/while/MultiClassNonMaxSuppression/range_4/delta", "shape": [], "dtype": "int32"}, {"name": "__inference_Postprocessor_BatchMultiClassNonMaxSuppression_map_while_body_11989_22739/Postprocessor/BatchMultiClassNonMaxSuppression/map/while/MultiClassNonMaxSuppression/zeros_9/Reshape/shape", "shape": [1], "dtype": "int32"}, {"name": "__inference_Postprocessor_BatchMultiClassNonMaxSuppression_map_while_body_11989_22739/Postprocessor/BatchMultiClassNonMaxSuppression/map/while/MultiClassNonMaxSuppression/zeros_9/Const", "shape": [], "dtype": "float32"}, {"name": "__inference_Postprocessor_BatchMultiClassNonMaxSuppression_map_while_body_11989_22739/Postprocessor/BatchMultiClassNonMaxSuppression/map/while/MultiClassNonMaxSuppression/concat_9/axis", "shape": [], "dtype": "int32"}, {"name": "__inference_Postprocessor_BatchMultiClassNonMaxSuppression_map_while_body_11989_22739/Postprocessor/BatchMultiClassNonMaxSuppression/map/while/MultiClassNonMaxSuppression/mul_4/x", "shape": [], "dtype": "float32"}, {"name": "__inference_Postprocessor_BatchMultiClassNonMaxSuppression_map_while_body_11989_22739/Postprocessor/BatchMultiClassNonMaxSuppression/map/while/MultiClassNonMaxSuppression/ones_4/Reshape/shape", "shape": [1], "dtype": "int32"}, {"name": "__inference_Postprocessor_BatchMultiClassNonMaxSuppression_map_while_body_11989_22739/Postprocessor/BatchMultiClassNonMaxSuppression/map/while/MultiClassNonMaxSuppression/ones_4/Const", "shape": [], "dtype": "float32"}, {"name": "__inference_Postprocessor_BatchMultiClassNonMaxSuppression_map_while_body_11989_22739/Postprocessor/BatchMultiClassNonMaxSuppression/map/while/MultiClassNonMaxSuppression/range_5/start", "shape": [], "dtype": "int32"}, {"name": "__inference_Postprocessor_BatchMultiClassNonMaxSuppression_map_while_body_11989_22739/Postprocessor/BatchMultiClassNonMaxSuppression/map/while/MultiClassNonMaxSuppression/range_5/delta", "shape": [], "dtype": "int32"}, {"name": "__inference_Postprocessor_BatchMultiClassNonMaxSuppression_map_while_body_11989_22739/Postprocessor/BatchMultiClassNonMaxSuppression/map/while/MultiClassNonMaxSuppression/zeros_11/Reshape/shape", "shape": [1], "dtype": "int32"}, {"name": "__inference_Postprocessor_BatchMultiClassNonMaxSuppression_map_while_body_11989_22739/Postprocessor/BatchMultiClassNonMaxSuppression/map/while/MultiClassNonMaxSuppression/zeros_11/Const", "shape": [], "dtype": "float32"}, {"name": "__inference_Postprocessor_BatchMultiClassNonMaxSuppression_map_while_body_11989_22739/Postprocessor/BatchMultiClassNonMaxSuppression/map/while/MultiClassNonMaxSuppression/concat_11/axis", "shape": [], "dtype": "int32"}, {"name": "__inference_Postprocessor_BatchMultiClassNonMaxSuppression_map_while_body_11989_22739/Postprocessor/BatchMultiClassNonMaxSuppression/map/while/MultiClassNonMaxSuppression/mul_5/x", "shape": [], "dtype": "float32"}, {"name": "__inference_Postprocessor_BatchMultiClassNonMaxSuppression_map_while_body_11989_22739/Postprocessor/BatchMultiClassNonMaxSuppression/map/while/MultiClassNonMaxSuppression/ones_5/Reshape/shape", "shape": [1], "dtype": "int32"}, {"name": "__inference_Postprocessor_BatchMultiClassNonMaxSuppression_map_while_body_11989_22739/Postprocessor/BatchMultiClassNonMaxSuppression/map/while/MultiClassNonMaxSuppression/ones_5/Const", "shape": [], "dtype": "float32"}, {"name": "__inference_Postprocessor_BatchMultiClassNonMaxSuppression_map_while_body_11989_22739/Postprocessor/BatchMultiClassNonMaxSuppression/map/while/MultiClassNonMaxSuppression/range_6/start", "shape": [], "dtype": "int32"}, {"name": "__inference_Postprocessor_BatchMultiClassNonMaxSuppression_map_while_body_11989_22739/Postprocessor/BatchMultiClassNonMaxSuppression/map/while/MultiClassNonMaxSuppression/range_6/delta", "shape": [], "dtype": "int32"}, {"name": "__inference_Postprocessor_BatchMultiClassNonMaxSuppression_map_while_body_11989_22739/Postprocessor/BatchMultiClassNonMaxSuppression/map/while/MultiClassNonMaxSuppression/zeros_13/Reshape/shape", "shape": [1], "dtype": "int32"}, {"name": "__inference_Postprocessor_BatchMultiClassNonMaxSuppression_map_while_body_11989_22739/Postprocessor/BatchMultiClassNonMaxSuppression/map/while/MultiClassNonMaxSuppression/zeros_13/Const", "shape": [], "dtype": "float32"}, {"name": "__inference_Postprocessor_BatchMultiClassNonMaxSuppression_map_while_body_11989_22739/Postprocessor/BatchMultiClassNonMaxSuppression/map/while/MultiClassNonMaxSuppression/concat_13/axis", "shape": [], "dtype": "int32"}, {"name": "__inference_Postprocessor_BatchMultiClassNonMaxSuppression_map_while_body_11989_22739/Postprocessor/BatchMultiClassNonMaxSuppression/map/while/MultiClassNonMaxSuppression/mul_6/x", "shape": [], "dtype": "float32"}, {"name": "__inference_Postprocessor_BatchMultiClassNonMaxSuppression_map_while_body_11989_22739/Postprocessor/BatchMultiClassNonMaxSuppression/map/while/MultiClassNonMaxSuppression/ones_6/Reshape/shape", "shape": [1], "dtype": "int32"}, {"name": "__inference_Postprocessor_BatchMultiClassNonMaxSuppression_map_while_body_11989_22739/Postprocessor/BatchMultiClassNonMaxSuppression/map/while/MultiClassNonMaxSuppression/ones_6/Const", "shape": [], "dtype": "float32"}, {"name": "__inference_Postprocessor_BatchMultiClassNonMaxSuppression_map_while_body_11989_22739/Postprocessor/BatchMultiClassNonMaxSuppression/map/while/MultiClassNonMaxSuppression/Concatenate/concat_1/axis", "shape": [], "dtype": "int32"}, {"name": "__inference_Postprocessor_BatchMultiClassNonMaxSuppression_map_while_body_11989_22739/Postprocessor/BatchMultiClassNonMaxSuppression/map/while/MultiClassNonMaxSuppression/Slice/begin", "shape": [2], "dtype": "int32"}, {"name": "__inference_Postprocessor_BatchMultiClassNonMaxSuppression_map_while_body_11989_22739/Postprocessor/BatchMultiClassNonMaxSuppression/map/while/MultiClassNonMaxSuppression/stack/1", "shape": [], "dtype": "int32"}, {"name": "__inference_Postprocessor_BatchMultiClassNonMaxSuppression_map_while_body_11989_22739/Postprocessor/BatchMultiClassNonMaxSuppression/map/while/MultiClassNonMaxSuppression/Reshape/shape", "shape": [1], "dtype": "int32"}, {"name": "__inference_Postprocessor_BatchMultiClassNonMaxSuppression_map_while_body_11989_22739/Postprocessor/BatchMultiClassNonMaxSuppression/map/while/MultiClassNonMaxSuppression/Minimum/x", "shape": [], "dtype": "int32"}, {"name": "__inference_Postprocessor_BatchMultiClassNonMaxSuppression_map_while_body_11989_22739/Postprocessor/BatchMultiClassNonMaxSuppression/map/while/MultiClassNonMaxSuppression/strided_slice_1/stack", "shape": [1], "dtype": "int32"}, {"name": "__inference_Postprocessor_BatchMultiClassNonMaxSuppression_map_while_body_11989_22739/Postprocessor/BatchMultiClassNonMaxSuppression/map/while/MultiClassNonMaxSuppression/strided_slice_1/stack_1", "shape": [1], "dtype": "int32"}, {"name": "__inference_Postprocessor_BatchMultiClassNonMaxSuppression_map_while_body_11989_22739/Postprocessor/BatchMultiClassNonMaxSuppression/map/while/MultiClassNonMaxSuppression/strided_slice_1/stack_2", "shape": [1], "dtype": "int32"}, {"name": "__inference_Postprocessor_BatchMultiClassNonMaxSuppression_map_while_body_11989_22739/Postprocessor/BatchMultiClassNonMaxSuppression/map/while/MultiClassNonMaxSuppression/non_max_suppression_with_scores/iou_threshold", "shape": [], "dtype": "float32"}, {"name": "__inference_Postprocessor_BatchMultiClassNonMaxSuppression_map_while_body_11989_22739/Postprocessor/BatchMultiClassNonMaxSuppression/map/while/MultiClassNonMaxSuppression/non_max_suppression_with_scores/score_threshold", "shape": [], "dtype": "float32"}, {"name": "__inference_Postprocessor_BatchMultiClassNonMaxSuppression_map_while_body_11989_22739/Postprocessor/BatchMultiClassNonMaxSuppression/map/while/MultiClassNonMaxSuppression/non_max_suppression_with_scores/soft_nms_sigma", "shape": [], "dtype": "float32"}, {"name": "__inference_Postprocessor_BatchMultiClassNonMaxSuppression_map_while_body_11989_22739/Postprocessor/BatchMultiClassNonMaxSuppression/map/while/MultiClassNonMaxSuppression/strided_slice_2/stack", "shape": [1], "dtype": "int32"}, {"name": "__inference_Postprocessor_BatchMultiClassNonMaxSuppression_map_while_body_11989_22739/Postprocessor/BatchMultiClassNonMaxSuppression/map/while/MultiClassNonMaxSuppression/strided_slice_2/stack_1", "shape": [1], "dtype": "int32"}, {"name": "__inference_Postprocessor_BatchMultiClassNonMaxSuppression_map_while_body_11989_22739/Postprocessor/BatchMultiClassNonMaxSuppression/map/while/MultiClassNonMaxSuppression/strided_slice_2/stack_2", "shape": [1], "dtype": "int32"}, {"name": "__inference_Postprocessor_BatchMultiClassNonMaxSuppression_map_while_body_11989_22739/Postprocessor/BatchMultiClassNonMaxSuppression/map/while/MultiClassNonMaxSuppression/zeros/Reshape/shape", "shape": [1], "dtype": "int32"}, {"name": "__inference_Postprocessor_BatchMultiClassNonMaxSuppression_map_while_body_11989_22739/Postprocessor/BatchMultiClassNonMaxSuppression/map/while/MultiClassNonMaxSuppression/zeros/Const", "shape": [], "dtype": "int32"}, {"name": "__inference_Postprocessor_BatchMultiClassNonMaxSuppression_map_while_body_11989_22739/Postprocessor/BatchMultiClassNonMaxSuppression/map/while/MultiClassNonMaxSuppression/concat/axis", "shape": [], "dtype": "int32"}, {"name": "__inference_Postprocessor_BatchMultiClassNonMaxSuppression_map_while_body_11989_22739/Postprocessor/BatchMultiClassNonMaxSuppression/map/while/MultiClassNonMaxSuppression/Gather/GatherV2_5/axis", "shape": [], "dtype": "int32"}, {"name": "__inference_Postprocessor_BatchMultiClassNonMaxSuppression_map_while_body_11989_22739/Postprocessor/BatchMultiClassNonMaxSuppression/map/while/MultiClassNonMaxSuppression/Slice_1/begin", "shape": [2], "dtype": "int32"}, {"name": "__inference_Postprocessor_BatchMultiClassNonMaxSuppression_map_while_body_11989_22739/Postprocessor/BatchMultiClassNonMaxSuppression/map/while/MultiClassNonMaxSuppression/stack_1/1", "shape": [], "dtype": "int32"}, {"name": "__inference_Postprocessor_BatchMultiClassNonMaxSuppression_map_while_body_11989_22739/Postprocessor/BatchMultiClassNonMaxSuppression/map/while/MultiClassNonMaxSuppression/Reshape_1/shape", "shape": [1], "dtype": "int32"}, {"name": "__inference_Postprocessor_BatchMultiClassNonMaxSuppression_map_while_body_11989_22739/Postprocessor/BatchMultiClassNonMaxSuppression/map/while/MultiClassNonMaxSuppression/Minimum_1/x", "shape": [], "dtype": "int32"}, {"name": "__inference_Postprocessor_BatchMultiClassNonMaxSuppression_map_while_body_11989_22739/Postprocessor/BatchMultiClassNonMaxSuppression/map/while/MultiClassNonMaxSuppression/strided_slice_3/stack", "shape": [1], "dtype": "int32"}, {"name": "__inference_Postprocessor_BatchMultiClassNonMaxSuppression_map_while_body_11989_22739/Postprocessor/BatchMultiClassNonMaxSuppression/map/while/MultiClassNonMaxSuppression/strided_slice_3/stack_1", "shape": [1], "dtype": "int32"}, {"name": "__inference_Postprocessor_BatchMultiClassNonMaxSuppression_map_while_body_11989_22739/Postprocessor/BatchMultiClassNonMaxSuppression/map/while/MultiClassNonMaxSuppression/strided_slice_3/stack_2", "shape": [1], "dtype": "int32"}, {"name": "__inference_Postprocessor_BatchMultiClassNonMaxSuppression_map_while_body_11989_22739/Postprocessor/BatchMultiClassNonMaxSuppression/map/while/MultiClassNonMaxSuppression/non_max_suppression_with_scores_1/iou_threshold", "shape": [], "dtype": "float32"}, {"name": "__inference_Postprocessor_BatchMultiClassNonMaxSuppression_map_while_body_11989_22739/Postprocessor/BatchMultiClassNonMaxSuppression/map/while/MultiClassNonMaxSuppression/non_max_suppression_with_scores_1/score_threshold", "shape": [], "dtype": "float32"}, {"name": "__inference_Postprocessor_BatchMultiClassNonMaxSuppression_map_while_body_11989_22739/Postprocessor/BatchMultiClassNonMaxSuppression/map/while/MultiClassNonMaxSuppression/non_max_suppression_with_scores_1/soft_nms_sigma", "shape": [], "dtype": "float32"}, {"name": "__inference_Postprocessor_BatchMultiClassNonMaxSuppression_map_while_body_11989_22739/Postprocessor/BatchMultiClassNonMaxSuppression/map/while/MultiClassNonMaxSuppression/strided_slice_4/stack", "shape": [1], "dtype": "int32"}, {"name": "__inference_Postprocessor_BatchMultiClassNonMaxSuppression_map_while_body_11989_22739/Postprocessor/BatchMultiClassNonMaxSuppression/map/while/MultiClassNonMaxSuppression/strided_slice_4/stack_1", "shape": [1], "dtype": "int32"}, {"name": "__inference_Postprocessor_BatchMultiClassNonMaxSuppression_map_while_body_11989_22739/Postprocessor/BatchMultiClassNonMaxSuppression/map/while/MultiClassNonMaxSuppression/strided_slice_4/stack_2", "shape": [1], "dtype": "int32"}, {"name": "__inference_Postprocessor_BatchMultiClassNonMaxSuppression_map_while_body_11989_22739/Postprocessor/BatchMultiClassNonMaxSuppression/map/while/MultiClassNonMaxSuppression/zeros_2/Reshape/shape", "shape": [1], "dtype": "int32"}, {"name": "__inference_Postprocessor_BatchMultiClassNonMaxSuppression_map_while_body_11989_22739/Postprocessor/BatchMultiClassNonMaxSuppression/map/while/MultiClassNonMaxSuppression/zeros_2/Const", "shape": [], "dtype": "int32"}, {"name": "__inference_Postprocessor_BatchMultiClassNonMaxSuppression_map_while_body_11989_22739/Postprocessor/BatchMultiClassNonMaxSuppression/map/while/MultiClassNonMaxSuppression/concat_2/axis", "shape": [], "dtype": "int32"}, {"name": "__inference_Postprocessor_BatchMultiClassNonMaxSuppression_map_while_body_11989_22739/Postprocessor/BatchMultiClassNonMaxSuppression/map/while/MultiClassNonMaxSuppression/Gather_1/GatherV2_5/axis", "shape": [], "dtype": "int32"}, {"name": "__inference_Postprocessor_BatchMultiClassNonMaxSuppression_map_while_body_11989_22739/Postprocessor/BatchMultiClassNonMaxSuppression/map/while/MultiClassNonMaxSuppression/Slice_2/begin", "shape": [2], "dtype": "int32"}, {"name": "__inference_Postprocessor_BatchMultiClassNonMaxSuppression_map_while_body_11989_22739/Postprocessor/BatchMultiClassNonMaxSuppression/map/while/MultiClassNonMaxSuppression/stack_2/1", "shape": [], "dtype": "int32"}, {"name": "__inference_Postprocessor_BatchMultiClassNonMaxSuppression_map_while_body_11989_22739/Postprocessor/BatchMultiClassNonMaxSuppression/map/while/MultiClassNonMaxSuppression/Reshape_2/shape", "shape": [1], "dtype": "int32"}, {"name": "__inference_Postprocessor_BatchMultiClassNonMaxSuppression_map_while_body_11989_22739/Postprocessor/BatchMultiClassNonMaxSuppression/map/while/MultiClassNonMaxSuppression/Minimum_2/x", "shape": [], "dtype": "int32"}, {"name": "__inference_Postprocessor_BatchMultiClassNonMaxSuppression_map_while_body_11989_22739/Postprocessor/BatchMultiClassNonMaxSuppression/map/while/MultiClassNonMaxSuppression/strided_slice_5/stack", "shape": [1], "dtype": "int32"}, {"name": "__inference_Postprocessor_BatchMultiClassNonMaxSuppression_map_while_body_11989_22739/Postprocessor/BatchMultiClassNonMaxSuppression/map/while/MultiClassNonMaxSuppression/strided_slice_5/stack_1", "shape": [1], "dtype": "int32"}, {"name": "__inference_Postprocessor_BatchMultiClassNonMaxSuppression_map_while_body_11989_22739/Postprocessor/BatchMultiClassNonMaxSuppression/map/while/MultiClassNonMaxSuppression/strided_slice_5/stack_2", "shape": [1], "dtype": "int32"}, {"name": "__inference_Postprocessor_BatchMultiClassNonMaxSuppression_map_while_body_11989_22739/Postprocessor/BatchMultiClassNonMaxSuppression/map/while/MultiClassNonMaxSuppression/non_max_suppression_with_scores_2/iou_threshold", "shape": [], "dtype": "float32"}, {"name": "__inference_Postprocessor_BatchMultiClassNonMaxSuppression_map_while_body_11989_22739/Postprocessor/BatchMultiClassNonMaxSuppression/map/while/MultiClassNonMaxSuppression/non_max_suppression_with_scores_2/score_threshold", "shape": [], "dtype": "float32"}, {"name": "__inference_Postprocessor_BatchMultiClassNonMaxSuppression_map_while_body_11989_22739/Postprocessor/BatchMultiClassNonMaxSuppression/map/while/MultiClassNonMaxSuppression/non_max_suppression_with_scores_2/soft_nms_sigma", "shape": [], "dtype": "float32"}, {"name": "__inference_Postprocessor_BatchMultiClassNonMaxSuppression_map_while_body_11989_22739/Postprocessor/BatchMultiClassNonMaxSuppression/map/while/MultiClassNonMaxSuppression/strided_slice_6/stack", "shape": [1], "dtype": "int32"}, {"name": "__inference_Postprocessor_BatchMultiClassNonMaxSuppression_map_while_body_11989_22739/Postprocessor/BatchMultiClassNonMaxSuppression/map/while/MultiClassNonMaxSuppression/strided_slice_6/stack_1", "shape": [1], "dtype": "int32"}, {"name": "__inference_Postprocessor_BatchMultiClassNonMaxSuppression_map_while_body_11989_22739/Postprocessor/BatchMultiClassNonMaxSuppression/map/while/MultiClassNonMaxSuppression/strided_slice_6/stack_2", "shape": [1], "dtype": "int32"}, {"name": "__inference_Postprocessor_BatchMultiClassNonMaxSuppression_map_while_body_11989_22739/Postprocessor/BatchMultiClassNonMaxSuppression/map/while/MultiClassNonMaxSuppression/zeros_4/Reshape/shape", "shape": [1], "dtype": "int32"}, {"name": "__inference_Postprocessor_BatchMultiClassNonMaxSuppression_map_while_body_11989_22739/Postprocessor/BatchMultiClassNonMaxSuppression/map/while/MultiClassNonMaxSuppression/zeros_4/Const", "shape": [], "dtype": "int32"}, {"name": "__inference_Postprocessor_BatchMultiClassNonMaxSuppression_map_while_body_11989_22739/Postprocessor/BatchMultiClassNonMaxSuppression/map/while/MultiClassNonMaxSuppression/concat_4/axis", "shape": [], "dtype": "int32"}, {"name": "__inference_Postprocessor_BatchMultiClassNonMaxSuppression_map_while_body_11989_22739/Postprocessor/BatchMultiClassNonMaxSuppression/map/while/MultiClassNonMaxSuppression/Gather_2/GatherV2_5/axis", "shape": [], "dtype": "int32"}, {"name": "__inference_Postprocessor_BatchMultiClassNonMaxSuppression_map_while_body_11989_22739/Postprocessor/BatchMultiClassNonMaxSuppression/map/while/MultiClassNonMaxSuppression/Slice_3/begin", "shape": [2], "dtype": "int32"}, {"name": "__inference_Postprocessor_BatchMultiClassNonMaxSuppression_map_while_body_11989_22739/Postprocessor/BatchMultiClassNonMaxSuppression/map/while/MultiClassNonMaxSuppression/stack_3/1", "shape": [], "dtype": "int32"}, {"name": "__inference_Postprocessor_BatchMultiClassNonMaxSuppression_map_while_body_11989_22739/Postprocessor/BatchMultiClassNonMaxSuppression/map/while/MultiClassNonMaxSuppression/Reshape_3/shape", "shape": [1], "dtype": "int32"}, {"name": "__inference_Postprocessor_BatchMultiClassNonMaxSuppression_map_while_body_11989_22739/Postprocessor/BatchMultiClassNonMaxSuppression/map/while/MultiClassNonMaxSuppression/Minimum_3/x", "shape": [], "dtype": "int32"}, {"name": "__inference_Postprocessor_BatchMultiClassNonMaxSuppression_map_while_body_11989_22739/Postprocessor/BatchMultiClassNonMaxSuppression/map/while/MultiClassNonMaxSuppression/strided_slice_7/stack", "shape": [1], "dtype": "int32"}, {"name": "__inference_Postprocessor_BatchMultiClassNonMaxSuppression_map_while_body_11989_22739/Postprocessor/BatchMultiClassNonMaxSuppression/map/while/MultiClassNonMaxSuppression/strided_slice_7/stack_1", "shape": [1], "dtype": "int32"}, {"name": "__inference_Postprocessor_BatchMultiClassNonMaxSuppression_map_while_body_11989_22739/Postprocessor/BatchMultiClassNonMaxSuppression/map/while/MultiClassNonMaxSuppression/strided_slice_7/stack_2", "shape": [1], "dtype": "int32"}, {"name": "__inference_Postprocessor_BatchMultiClassNonMaxSuppression_map_while_body_11989_22739/Postprocessor/BatchMultiClassNonMaxSuppression/map/while/MultiClassNonMaxSuppression/non_max_suppression_with_scores_3/iou_threshold", "shape": [], "dtype": "float32"}, {"name": "__inference_Postprocessor_BatchMultiClassNonMaxSuppression_map_while_body_11989_22739/Postprocessor/BatchMultiClassNonMaxSuppression/map/while/MultiClassNonMaxSuppression/non_max_suppression_with_scores_3/score_threshold", "shape": [], "dtype": "float32"}, {"name": "__inference_Postprocessor_BatchMultiClassNonMaxSuppression_map_while_body_11989_22739/Postprocessor/BatchMultiClassNonMaxSuppression/map/while/MultiClassNonMaxSuppression/non_max_suppression_with_scores_3/soft_nms_sigma", "shape": [], "dtype": "float32"}, {"name": "__inference_Postprocessor_BatchMultiClassNonMaxSuppression_map_while_body_11989_22739/Postprocessor/BatchMultiClassNonMaxSuppression/map/while/MultiClassNonMaxSuppression/strided_slice_8/stack", "shape": [1], "dtype": "int32"}, {"name": "__inference_Postprocessor_BatchMultiClassNonMaxSuppression_map_while_body_11989_22739/Postprocessor/BatchMultiClassNonMaxSuppression/map/while/MultiClassNonMaxSuppression/strided_slice_8/stack_1", "shape": [1], "dtype": "int32"}, {"name": "__inference_Postprocessor_BatchMultiClassNonMaxSuppression_map_while_body_11989_22739/Postprocessor/BatchMultiClassNonMaxSuppression/map/while/MultiClassNonMaxSuppression/strided_slice_8/stack_2", "shape": [1], "dtype": "int32"}, {"name": "__inference_Postprocessor_BatchMultiClassNonMaxSuppression_map_while_body_11989_22739/Postprocessor/BatchMultiClassNonMaxSuppression/map/while/MultiClassNonMaxSuppression/zeros_6/Reshape/shape", "shape": [1], "dtype": "int32"}, {"name": "__inference_Postprocessor_BatchMultiClassNonMaxSuppression_map_while_body_11989_22739/Postprocessor/BatchMultiClassNonMaxSuppression/map/while/MultiClassNonMaxSuppression/zeros_6/Const", "shape": [], "dtype": "int32"}, {"name": "__inference_Postprocessor_BatchMultiClassNonMaxSuppression_map_while_body_11989_22739/Postprocessor/BatchMultiClassNonMaxSuppression/map/while/MultiClassNonMaxSuppression/concat_6/axis", "shape": [], "dtype": "int32"}, {"name": "__inference_Postprocessor_BatchMultiClassNonMaxSuppression_map_while_body_11989_22739/Postprocessor/BatchMultiClassNonMaxSuppression/map/while/MultiClassNonMaxSuppression/Gather_3/GatherV2_5/axis", "shape": [], "dtype": "int32"}, {"name": "__inference_Postprocessor_BatchMultiClassNonMaxSuppression_map_while_body_11989_22739/Postprocessor/BatchMultiClassNonMaxSuppression/map/while/MultiClassNonMaxSuppression/Slice_4/begin", "shape": [2], "dtype": "int32"}, {"name": "__inference_Postprocessor_BatchMultiClassNonMaxSuppression_map_while_body_11989_22739/Postprocessor/BatchMultiClassNonMaxSuppression/map/while/MultiClassNonMaxSuppression/stack_4/1", "shape": [], "dtype": "int32"}, {"name": "__inference_Postprocessor_BatchMultiClassNonMaxSuppression_map_while_body_11989_22739/Postprocessor/BatchMultiClassNonMaxSuppression/map/while/MultiClassNonMaxSuppression/Reshape_4/shape", "shape": [1], "dtype": "int32"}, {"name": "__inference_Postprocessor_BatchMultiClassNonMaxSuppression_map_while_body_11989_22739/Postprocessor/BatchMultiClassNonMaxSuppression/map/while/MultiClassNonMaxSuppression/Minimum_4/x", "shape": [], "dtype": "int32"}, {"name": "__inference_Postprocessor_BatchMultiClassNonMaxSuppression_map_while_body_11989_22739/Postprocessor/BatchMultiClassNonMaxSuppression/map/while/MultiClassNonMaxSuppression/strided_slice_9/stack", "shape": [1], "dtype": "int32"}, {"name": "__inference_Postprocessor_BatchMultiClassNonMaxSuppression_map_while_body_11989_22739/Postprocessor/BatchMultiClassNonMaxSuppression/map/while/MultiClassNonMaxSuppression/strided_slice_9/stack_1", "shape": [1], "dtype": "int32"}, {"name": "__inference_Postprocessor_BatchMultiClassNonMaxSuppression_map_while_body_11989_22739/Postprocessor/BatchMultiClassNonMaxSuppression/map/while/MultiClassNonMaxSuppression/strided_slice_9/stack_2", "shape": [1], "dtype": "int32"}, {"name": "__inference_Postprocessor_BatchMultiClassNonMaxSuppression_map_while_body_11989_22739/Postprocessor/BatchMultiClassNonMaxSuppression/map/while/MultiClassNonMaxSuppression/non_max_suppression_with_scores_4/iou_threshold", "shape": [], "dtype": "float32"}, {"name": "__inference_Postprocessor_BatchMultiClassNonMaxSuppression_map_while_body_11989_22739/Postprocessor/BatchMultiClassNonMaxSuppression/map/while/MultiClassNonMaxSuppression/non_max_suppression_with_scores_4/score_threshold", "shape": [], "dtype": "float32"}, {"name": "__inference_Postprocessor_BatchMultiClassNonMaxSuppression_map_while_body_11989_22739/Postprocessor/BatchMultiClassNonMaxSuppression/map/while/MultiClassNonMaxSuppression/non_max_suppression_with_scores_4/soft_nms_sigma", "shape": [], "dtype": "float32"}, {"name": "__inference_Postprocessor_BatchMultiClassNonMaxSuppression_map_while_body_11989_22739/Postprocessor/BatchMultiClassNonMaxSuppression/map/while/MultiClassNonMaxSuppression/strided_slice_10/stack", "shape": [1], "dtype": "int32"}, {"name": "__inference_Postprocessor_BatchMultiClassNonMaxSuppression_map_while_body_11989_22739/Postprocessor/BatchMultiClassNonMaxSuppression/map/while/MultiClassNonMaxSuppression/strided_slice_10/stack_1", "shape": [1], "dtype": "int32"}, {"name": "__inference_Postprocessor_BatchMultiClassNonMaxSuppression_map_while_body_11989_22739/Postprocessor/BatchMultiClassNonMaxSuppression/map/while/MultiClassNonMaxSuppression/strided_slice_10/stack_2", "shape": [1], "dtype": "int32"}, {"name": "__inference_Postprocessor_BatchMultiClassNonMaxSuppression_map_while_body_11989_22739/Postprocessor/BatchMultiClassNonMaxSuppression/map/while/MultiClassNonMaxSuppression/zeros_8/Reshape/shape", "shape": [1], "dtype": "int32"}, {"name": "__inference_Postprocessor_BatchMultiClassNonMaxSuppression_map_while_body_11989_22739/Postprocessor/BatchMultiClassNonMaxSuppression/map/while/MultiClassNonMaxSuppression/zeros_8/Const", "shape": [], "dtype": "int32"}, {"name": "__inference_Postprocessor_BatchMultiClassNonMaxSuppression_map_while_body_11989_22739/Postprocessor/BatchMultiClassNonMaxSuppression/map/while/MultiClassNonMaxSuppression/concat_8/axis", "shape": [], "dtype": "int32"}, {"name": "__inference_Postprocessor_BatchMultiClassNonMaxSuppression_map_while_body_11989_22739/Postprocessor/BatchMultiClassNonMaxSuppression/map/while/MultiClassNonMaxSuppression/Gather_4/GatherV2_5/axis", "shape": [], "dtype": "int32"}, {"name": "__inference_Postprocessor_BatchMultiClassNonMaxSuppression_map_while_body_11989_22739/Postprocessor/BatchMultiClassNonMaxSuppression/map/while/MultiClassNonMaxSuppression/Slice_5/begin", "shape": [2], "dtype": "int32"}, {"name": "__inference_Postprocessor_BatchMultiClassNonMaxSuppression_map_while_body_11989_22739/Postprocessor/BatchMultiClassNonMaxSuppression/map/while/MultiClassNonMaxSuppression/stack_5/1", "shape": [], "dtype": "int32"}, {"name": "__inference_Postprocessor_BatchMultiClassNonMaxSuppression_map_while_body_11989_22739/Postprocessor/BatchMultiClassNonMaxSuppression/map/while/MultiClassNonMaxSuppression/Reshape_5/shape", "shape": [1], "dtype": "int32"}, {"name": "__inference_Postprocessor_BatchMultiClassNonMaxSuppression_map_while_body_11989_22739/Postprocessor/BatchMultiClassNonMaxSuppression/map/while/MultiClassNonMaxSuppression/Minimum_5/x", "shape": [], "dtype": "int32"}, {"name": "__inference_Postprocessor_BatchMultiClassNonMaxSuppression_map_while_body_11989_22739/Postprocessor/BatchMultiClassNonMaxSuppression/map/while/MultiClassNonMaxSuppression/strided_slice_11/stack", "shape": [1], "dtype": "int32"}, {"name": "__inference_Postprocessor_BatchMultiClassNonMaxSuppression_map_while_body_11989_22739/Postprocessor/BatchMultiClassNonMaxSuppression/map/while/MultiClassNonMaxSuppression/strided_slice_11/stack_1", "shape": [1], "dtype": "int32"}, {"name": "__inference_Postprocessor_BatchMultiClassNonMaxSuppression_map_while_body_11989_22739/Postprocessor/BatchMultiClassNonMaxSuppression/map/while/MultiClassNonMaxSuppression/strided_slice_11/stack_2", "shape": [1], "dtype": "int32"}, {"name": "__inference_Postprocessor_BatchMultiClassNonMaxSuppression_map_while_body_11989_22739/Postprocessor/BatchMultiClassNonMaxSuppression/map/while/MultiClassNonMaxSuppression/non_max_suppression_with_scores_5/iou_threshold", "shape": [], "dtype": "float32"}, {"name": "__inference_Postprocessor_BatchMultiClassNonMaxSuppression_map_while_body_11989_22739/Postprocessor/BatchMultiClassNonMaxSuppression/map/while/MultiClassNonMaxSuppression/non_max_suppression_with_scores_5/score_threshold", "shape": [], "dtype": "float32"}, {"name": "__inference_Postprocessor_BatchMultiClassNonMaxSuppression_map_while_body_11989_22739/Postprocessor/BatchMultiClassNonMaxSuppression/map/while/MultiClassNonMaxSuppression/non_max_suppression_with_scores_5/soft_nms_sigma", "shape": [], "dtype": "float32"}, {"name": "__inference_Postprocessor_BatchMultiClassNonMaxSuppression_map_while_body_11989_22739/Postprocessor/BatchMultiClassNonMaxSuppression/map/while/MultiClassNonMaxSuppression/strided_slice_12/stack", "shape": [1], "dtype": "int32"}, {"name": "__inference_Postprocessor_BatchMultiClassNonMaxSuppression_map_while_body_11989_22739/Postprocessor/BatchMultiClassNonMaxSuppression/map/while/MultiClassNonMaxSuppression/strided_slice_12/stack_1", "shape": [1], "dtype": "int32"}, {"name": "__inference_Postprocessor_BatchMultiClassNonMaxSuppression_map_while_body_11989_22739/Postprocessor/BatchMultiClassNonMaxSuppression/map/while/MultiClassNonMaxSuppression/strided_slice_12/stack_2", "shape": [1], "dtype": "int32"}, {"name": "__inference_Postprocessor_BatchMultiClassNonMaxSuppression_map_while_body_11989_22739/Postprocessor/BatchMultiClassNonMaxSuppression/map/while/MultiClassNonMaxSuppression/zeros_10/Reshape/shape", "shape": [1], "dtype": "int32"}, {"name": "__inference_Postprocessor_BatchMultiClassNonMaxSuppression_map_while_body_11989_22739/Postprocessor/BatchMultiClassNonMaxSuppression/map/while/MultiClassNonMaxSuppression/zeros_10/Const", "shape": [], "dtype": "int32"}, {"name": "__inference_Postprocessor_BatchMultiClassNonMaxSuppression_map_while_body_11989_22739/Postprocessor/BatchMultiClassNonMaxSuppression/map/while/MultiClassNonMaxSuppression/concat_10/axis", "shape": [], "dtype": "int32"}, {"name": "__inference_Postprocessor_BatchMultiClassNonMaxSuppression_map_while_body_11989_22739/Postprocessor/BatchMultiClassNonMaxSuppression/map/while/MultiClassNonMaxSuppression/Gather_5/GatherV2_5/axis", "shape": [], "dtype": "int32"}, {"name": "__inference_Postprocessor_BatchMultiClassNonMaxSuppression_map_while_body_11989_22739/Postprocessor/BatchMultiClassNonMaxSuppression/map/while/MultiClassNonMaxSuppression/Slice_6/begin", "shape": [2], "dtype": "int32"}, {"name": "__inference_Postprocessor_BatchMultiClassNonMaxSuppression_map_while_body_11989_22739/Postprocessor/BatchMultiClassNonMaxSuppression/map/while/TensorArrayV2Read_1/TensorListGetItem/element_shape", "shape": [2], "dtype": "int32"}, {"name": "__inference_Postprocessor_BatchMultiClassNonMaxSuppression_map_while_body_11989_22739/Postprocessor/BatchMultiClassNonMaxSuppression/map/while/Slice_1/begin", "shape": [2], "dtype": "int32"}, {"name": "__inference_Postprocessor_BatchMultiClassNonMaxSuppression_map_while_body_11989_22739/Postprocessor/BatchMultiClassNonMaxSuppression/map/while/stack_1/1", "shape": [], "dtype": "int32"}, {"name": "__inference_Postprocessor_BatchMultiClassNonMaxSuppression_map_while_body_11989_22739/Postprocessor/BatchMultiClassNonMaxSuppression/map/while/Reshape_1/shape", "shape": [2], "dtype": "int32"}, {"name": "__inference_Postprocessor_BatchMultiClassNonMaxSuppression_map_while_body_11989_22739/Postprocessor/BatchMultiClassNonMaxSuppression/map/while/MultiClassNonMaxSuppression/strided_slice/stack", "shape": [1], "dtype": "int32"}, {"name": "__inference_Postprocessor_BatchMultiClassNonMaxSuppression_map_while_body_11989_22739/Postprocessor/BatchMultiClassNonMaxSuppression/map/while/MultiClassNonMaxSuppression/strided_slice/stack_1", "shape": [1], "dtype": "int32"}, {"name": "__inference_Postprocessor_BatchMultiClassNonMaxSuppression_map_while_body_11989_22739/Postprocessor/BatchMultiClassNonMaxSuppression/map/while/MultiClassNonMaxSuppression/strided_slice/stack_2", "shape": [1], "dtype": "int32"}, {"name": "__inference_Postprocessor_BatchMultiClassNonMaxSuppression_map_while_body_11989_22739/Postprocessor/BatchMultiClassNonMaxSuppression/map/while/MultiClassNonMaxSuppression/stack_6/1", "shape": [], "dtype": "int32"}, {"name": "__inference_Postprocessor_BatchMultiClassNonMaxSuppression_map_while_body_11989_22739/Postprocessor/BatchMultiClassNonMaxSuppression/map/while/MultiClassNonMaxSuppression/Reshape_6/shape", "shape": [1], "dtype": "int32"}, {"name": "__inference_Postprocessor_BatchMultiClassNonMaxSuppression_map_while_body_11989_22739/Postprocessor/BatchMultiClassNonMaxSuppression/map/while/MultiClassNonMaxSuppression/Minimum_6/x", "shape": [], "dtype": "int32"}, {"name": "__inference_Postprocessor_BatchMultiClassNonMaxSuppression_map_while_body_11989_22739/Postprocessor/BatchMultiClassNonMaxSuppression/map/while/TensorArrayV2Read/TensorListGetItem/element_shape", "shape": [3], "dtype": "int32"}, {"name": "__inference_Postprocessor_BatchMultiClassNonMaxSuppression_map_while_body_11989_22739/Postprocessor/BatchMultiClassNonMaxSuppression/map/while/Slice/begin", "shape": [3], "dtype": "int32"}, {"name": "__inference_Postprocessor_BatchMultiClassNonMaxSuppression_map_while_body_11989_22739/Postprocessor/BatchMultiClassNonMaxSuppression/map/while/TensorArrayV2Read_6/Const", "shape": [0], "dtype": "int32"}, {"name": "__inference_Postprocessor_BatchMultiClassNonMaxSuppression_map_while_body_11989_22739/Postprocessor/BatchMultiClassNonMaxSuppression/map/while/stack/1", "shape": [], "dtype": "int32"}, {"name": "__inference_Postprocessor_BatchMultiClassNonMaxSuppression_map_while_body_11989_22739/Postprocessor/BatchMultiClassNonMaxSuppression/map/while/stack/2", "shape": [], "dtype": "int32"}, {"name": "__inference_Postprocessor_BatchMultiClassNonMaxSuppression_map_while_body_11989_22739/Postprocessor/BatchMultiClassNonMaxSuppression/map/while/Reshape/shape", "shape": [3], "dtype": "int32"}, {"name": "__inference_Postprocessor_BatchMultiClassNonMaxSuppression_map_while_body_11989_22739/Postprocessor/BatchMultiClassNonMaxSuppression/map/while/MultiClassNonMaxSuppression/strided_slice_13/stack", "shape": [1], "dtype": "int32"}, {"name": "__inference_Postprocessor_BatchMultiClassNonMaxSuppression_map_while_body_11989_22739/Postprocessor/BatchMultiClassNonMaxSuppression/map/while/MultiClassNonMaxSuppression/strided_slice_13/stack_1", "shape": [1], "dtype": "int32"}, {"name": "__inference_Postprocessor_BatchMultiClassNonMaxSuppression_map_while_body_11989_22739/Postprocessor/BatchMultiClassNonMaxSuppression/map/while/MultiClassNonMaxSuppression/strided_slice_13/stack_2", "shape": [1], "dtype": "int32"}, {"name": "__inference_Postprocessor_BatchMultiClassNonMaxSuppression_map_while_body_11989_22739/Postprocessor/BatchMultiClassNonMaxSuppression/map/while/MultiClassNonMaxSuppression/non_max_suppression_with_scores_6/iou_threshold", "shape": [], "dtype": "float32"}, {"name": "__inference_Postprocessor_BatchMultiClassNonMaxSuppression_map_while_body_11989_22739/Postprocessor/BatchMultiClassNonMaxSuppression/map/while/MultiClassNonMaxSuppression/non_max_suppression_with_scores_6/score_threshold", "shape": [], "dtype": "float32"}, {"name": "__inference_Postprocessor_BatchMultiClassNonMaxSuppression_map_while_body_11989_22739/Postprocessor/BatchMultiClassNonMaxSuppression/map/while/MultiClassNonMaxSuppression/non_max_suppression_with_scores_6/soft_nms_sigma", "shape": [], "dtype": "float32"}, {"name": "__inference_Postprocessor_BatchMultiClassNonMaxSuppression_map_while_body_11989_22739/Postprocessor/BatchMultiClassNonMaxSuppression/map/while/MultiClassNonMaxSuppression/strided_slice_14/stack", "shape": [1], "dtype": "int32"}, {"name": "__inference_Postprocessor_BatchMultiClassNonMaxSuppression_map_while_body_11989_22739/Postprocessor/BatchMultiClassNonMaxSuppression/map/while/MultiClassNonMaxSuppression/strided_slice_14/stack_1", "shape": [1], "dtype": "int32"}, {"name": "__inference_Postprocessor_BatchMultiClassNonMaxSuppression_map_while_body_11989_22739/Postprocessor/BatchMultiClassNonMaxSuppression/map/while/MultiClassNonMaxSuppression/strided_slice_14/stack_2", "shape": [1], "dtype": "int32"}, {"name": "__inference_Postprocessor_BatchMultiClassNonMaxSuppression_map_while_body_11989_22739/Postprocessor/BatchMultiClassNonMaxSuppression/map/while/MultiClassNonMaxSuppression/zeros_12/Reshape/shape", "shape": [1], "dtype": "int32"}, {"name": "__inference_Postprocessor_BatchMultiClassNonMaxSuppression_map_while_body_11989_22739/Postprocessor/BatchMultiClassNonMaxSuppression/map/while/MultiClassNonMaxSuppression/zeros_12/Const", "shape": [], "dtype": "int32"}, {"name": "__inference_Postprocessor_BatchMultiClassNonMaxSuppression_map_while_body_11989_22739/Postprocessor/BatchMultiClassNonMaxSuppression/map/while/MultiClassNonMaxSuppression/concat_12/axis", "shape": [], "dtype": "int32"}, {"name": "__inference_Postprocessor_BatchMultiClassNonMaxSuppression_map_while_body_11989_22739/Postprocessor/BatchMultiClassNonMaxSuppression/map/while/MultiClassNonMaxSuppression/Gather_6/GatherV2_5/axis", "shape": [], "dtype": "int32"}, {"name": "__inference_Postprocessor_BatchMultiClassNonMaxSuppression_map_while_body_11989_22739/Postprocessor/BatchMultiClassNonMaxSuppression/map/while/MultiClassNonMaxSuppression/Concatenate/concat/axis", "shape": [], "dtype": "int32"}, {"name": "__inference_Postprocessor_BatchMultiClassNonMaxSuppression_map_while_body_11989_22739/Postprocessor/BatchMultiClassNonMaxSuppression/map/while/MultiClassNonMaxSuppression/SortByField/strided_slice/stack", "shape": [1], "dtype": "int32"}, {"name": "__inference_Postprocessor_BatchMultiClassNonMaxSuppression_map_while_body_11989_22739/Postprocessor/BatchMultiClassNonMaxSuppression/map/while/MultiClassNonMaxSuppression/SortByField/strided_slice/stack_1", "shape": [1], "dtype": "int32"}, {"name": "__inference_Postprocessor_BatchMultiClassNonMaxSuppression_map_while_body_11989_22739/Postprocessor/BatchMultiClassNonMaxSuppression/map/while/MultiClassNonMaxSuppression/SortByField/strided_slice/stack_2", "shape": [1], "dtype": "int32"}, {"name": "__inference_Postprocessor_BatchMultiClassNonMaxSuppression_map_while_body_11989_22739/Postprocessor/BatchMultiClassNonMaxSuppression/map/while/MultiClassNonMaxSuppression/SortByField/Gather/GatherV2_6/axis", "shape": [], "dtype": "int32"}, {"name": "__inference_Postprocessor_BatchMultiClassNonMaxSuppression_map_while_body_11989_22739/Postprocessor/BatchMultiClassNonMaxSuppression/map/while/MultiClassNonMaxSuppression/ClipToWindow/strided_slice_3/stack", "shape": [1], "dtype": "int32"}, {"name": "__inference_Postprocessor_BatchMultiClassNonMaxSuppression_map_while_body_11989_22739/Postprocessor/BatchMultiClassNonMaxSuppression/map/while/MultiClassNonMaxSuppression/ClipToWindow/strided_slice_3/stack_1", "shape": [1], "dtype": "int32"}, {"name": "__inference_Postprocessor_BatchMultiClassNonMaxSuppression_map_while_body_11989_22739/Postprocessor/BatchMultiClassNonMaxSuppression/map/while/MultiClassNonMaxSuppression/ClipToWindow/strided_slice_3/stack_2", "shape": [1], "dtype": "int32"}, {"name": "__inference_Postprocessor_BatchMultiClassNonMaxSuppression_map_while_body_11989_22739/Postprocessor/BatchMultiClassNonMaxSuppression/map/while/TensorArrayV2Read_3/TensorListGetItem/element_shape", "shape": [1], "dtype": "int32"}, {"name": "__inference_Postprocessor_BatchMultiClassNonMaxSuppression_map_while_body_11989_22739/Postprocessor/BatchMultiClassNonMaxSuppression/map/while/MultiClassNonMaxSuppression/ClipToWindow/strided_slice_1/stack", "shape": [1], "dtype": "int32"}, {"name": "__inference_Postprocessor_BatchMultiClassNonMaxSuppression_map_while_body_11989_22739/Postprocessor/BatchMultiClassNonMaxSuppression/map/while/MultiClassNonMaxSuppression/ClipToWindow/strided_slice_1/stack_1", "shape": [1], "dtype": "int32"}, {"name": "__inference_Postprocessor_BatchMultiClassNonMaxSuppression_map_while_body_11989_22739/Postprocessor/BatchMultiClassNonMaxSuppression/map/while/MultiClassNonMaxSuppression/ClipToWindow/strided_slice_1/stack_2", "shape": [1], "dtype": "int32"}, {"name": "__inference_Postprocessor_BatchMultiClassNonMaxSuppression_map_while_body_11989_22739/Postprocessor/BatchMultiClassNonMaxSuppression/map/while/MultiClassNonMaxSuppression/ClipToWindow/concat/axis", "shape": [], "dtype": "int32"}, {"name": "__inference_Postprocessor_BatchMultiClassNonMaxSuppression_map_while_body_11989_22739/Postprocessor/BatchMultiClassNonMaxSuppression/map/while/MultiClassNonMaxSuppression/ClipToWindow/Greater/y", "shape": [], "dtype": "float32"}, {"name": "__inference_Postprocessor_BatchMultiClassNonMaxSuppression_map_while_body_11989_22739/Postprocessor/BatchMultiClassNonMaxSuppression/map/while/MultiClassNonMaxSuppression/ClipToWindow/Reshape/shape", "shape": [1], "dtype": "int32"}, {"name": "__inference_Postprocessor_BatchMultiClassNonMaxSuppression_map_while_body_11989_22739/Postprocessor/BatchMultiClassNonMaxSuppression/map/while/MultiClassNonMaxSuppression/ClipToWindow/Gather/GatherV2_6/axis", "shape": [], "dtype": "int32"}, {"name": "__inference_Postprocessor_BatchMultiClassNonMaxSuppression_map_while_body_11989_22739/Postprocessor/BatchMultiClassNonMaxSuppression/map/while/MultiClassNonMaxSuppression/strided_slice_15/stack", "shape": [1], "dtype": "int32"}, {"name": "__inference_Postprocessor_BatchMultiClassNonMaxSuppression_map_while_body_11989_22739/Postprocessor/BatchMultiClassNonMaxSuppression/map/while/MultiClassNonMaxSuppression/strided_slice_15/stack_1", "shape": [1], "dtype": "int32"}, {"name": "__inference_Postprocessor_BatchMultiClassNonMaxSuppression_map_while_body_11989_22739/Postprocessor/BatchMultiClassNonMaxSuppression/map/while/MultiClassNonMaxSuppression/strided_slice_15/stack_2", "shape": [1], "dtype": "int32"}, {"name": "__inference_Postprocessor_BatchMultiClassNonMaxSuppression_map_while_body_11989_22739/Postprocessor/BatchMultiClassNonMaxSuppression/map/while/MultiClassNonMaxSuppression/ones_7/Reshape/shape", "shape": [1], "dtype": "int32"}, {"name": "__inference_Postprocessor_BatchMultiClassNonMaxSuppression_map_while_body_11989_22739/Postprocessor/BatchMultiClassNonMaxSuppression/map/while/MultiClassNonMaxSuppression/ones_7/Const", "shape": [], "dtype": "float32"}, {"name": "__inference_Postprocessor_BatchMultiClassNonMaxSuppression_map_while_body_11989_22739/ConstantFolding/Postprocessor/BatchMultiClassNonMaxSuppression/map/while/stack_3_const_axis", "shape": [], "dtype": "int32"}, {"name": "__inference_Postprocessor_BatchMultiClassNonMaxSuppression_map_while_body_11989_22739/ConstantFolding/Postprocessor/BatchMultiClassNonMaxSuppression/map/while/PadOrClipBoxList/Slice_1/size_const_axis", "shape": [], "dtype": "int32"}, {"name": "__inference_Postprocessor_BatchMultiClassNonMaxSuppression_map_while_body_11989_22739/ConstantFolding/Postprocessor/BatchMultiClassNonMaxSuppression/map/while/PadOrClipBoxList/Slice_5/size_const_axis", "shape": [], "dtype": "int32"}, {"name": "__inference_Postprocessor_BatchMultiClassNonMaxSuppression_map_while_body_11989_22739/ConstantFolding/Postprocessor/BatchMultiClassNonMaxSuppression/map/while/PadOrClipBoxList/Slice_3/size_const_axis", "shape": [], "dtype": "int32"}, {"name": "__inference_Postprocessor_BatchMultiClassNonMaxSuppression_map_while_body_11989_22739/ConstantFolding/Postprocessor/BatchMultiClassNonMaxSuppression/map/while/PadOrClipBoxList/stack_1/values_1_const_axis", "shape": [], "dtype": "int32"}, {"name": "__inference_Postprocessor_BatchMultiClassNonMaxSuppression_map_while_body_11989_22739/ConstantFolding/Postprocessor/BatchMultiClassNonMaxSuppression/map/while/PadOrClipBoxList/stack_5/values_1_const_axis", "shape": [], "dtype": "int32"}, {"name": "__inference_Postprocessor_BatchMultiClassNonMaxSuppression_map_while_body_11989_22739/ConstantFolding/Postprocessor/BatchMultiClassNonMaxSuppression/map/while/PadOrClipBoxList/stack_3/values_1_const_axis", "shape": [], "dtype": "int32"}]}]}